src/server/2148585315459941.pt (torch, 973831 bytes, 8 tensors)

fc1.weight f4 [256, 784]
0	0x3d208760	0.039191604
1	0x3cc6f5dc	0.024287157
2	0x3d4bb99a	0.04973755
3	0x3cb007f2	0.021488164
4	0x3c8ebaa2	0.017422978
5	0x3d0251da	0.03181634
6	0x3b2b5500	0.0026143193
7	0x3d09c93e	0.033639185
8	0xbb2b6d8a	-0.002615782
9	0xbc5095d2	-0.012731032
10	0x3d2067cc	0.03916149
11	0x3cd19d94	0.025587834
12	0x3d1fcd46	0.039014123
13	0xba47d9ec	-0.00076237204
14	0x386a3764	5.5841534e-05
15	0x3c9b8230	0.018982977
16	0xb9f6a257	-0.0004704173
17	0xbc3e8af6	-0.011629811
18	0x3cb39298	0.021920487
19	0x3d148535	0.03625985
20	0x3c911fa4	0.017715283
21	0x3c10b7d7	0.008832893
22	0x3c6e2f46	0.014537638
23	0xbc743d7f	-0.01490724
24	0x3c9d185a	0.01917665
25	0x3af6dee0	0.0018834732
26	0x3d1f9960	0.03896463
27	0xba9d2af6	-0.0011990953
28	0xbc94f770	-0.018184394
29	0xbae18784	-0.0017206524
30	0xbc88ddf6	-0.016707402
31	0x3d3620a8	0.044464737
32	0xbc8d4732	-0.017245863
33	0xbc8f77b4	-0.017513134
34	0xbc1b2ff8	-0.009471886
35	0xbbb32153	-0.005466619
36	0xbc4ef664	-0.012631986
37	0x3c337772	0.010953771
38	0x3d122401	0.035678867
39	0x3d3aabbd	0.04557394
40	0x3bad9ec8	0.005298469
41	0x3b40d0ce	0.0029421332
42	0x3cbeb0ad	0.023277605
43	0xbbce055c	-0.00628726
44	0x3d1adcf1	0.037808362
45	0x3d391e11	0.04519469
46	0x3c358320	0.011078626
47	0xbc864819	-0.0163918
48	0x3c8580ca	0.016296763
49	0x3d2c0e5e	0.04200589
50	0x3c4580d4	0.012054641
51	0x3c7268f6	0.014795532
52	0xbb3f3d87	-0.002918096
53	0x3c10eea3	0.008845958
54	0x3c04fb23	0.008116516
55	0x3bccd0b0	0.0062504634
56	0x3d0dcba6	0.034618042
57	0x3d015d51	0.031583134
58	0x3c0a79d2	0.008451896
59	0x3b112cfc	0.0022152057
60	0x3d1b9ba0	0.037990212
61	0x3cff2a3a	0.031148065
62	0xba0bd497	-0.00053341076
63	0x3d1160b8	0.03549263
64	0xbc6f5dbd	-0.014609751
65	0x3d2ce8aa	0.042214073
66	0x3d297da3	0.041379582
67	0x3ce50704	0.027957447
68	0x3d69bee1	0.057066802
69	0x3cbfa4a8	0.023393944
70	0x3cfba0aa	0.030716259
71	0x3d925090	0.07144272
72	0x3cedf7fc	0.029048912
73	0xbc1cdc3d	-0.009573993
74	0x3bf2bd86	0.007407847
75	0x3c2ea5f0	0.01065968
76	0x3c158314	0.00912549
77	0x3cfed309	0.031106489
78	0x3c93fda4	0.018065281
79	0xbc3f9bce	-0.011694862
80	0x3a6a078f	0.0008927518
81	0xbc79a0eb	-0.01523612
82	0x3c92f9ce	0.017941382
83	0xb9080765	-0.00012972725
84	0x3cf1698e	0.029469278
85	0x3cdd416c	0.027008735
86	0x3ce577f2	0.028011296
87	0xbaf8b435	-0.0018974604
88	0x3cdd7f50	0.027038246
89	0x3ccde123	0.025131768
90	0x3cef630e	0.029222038
91	0x3c92f869	0.017940717
92	0x3d0ca60d	0.034338046
93	0x3c2bb19e	0.010479359
94	0x3d7ed277	0.062212434
95	0x3dcf1a95	0.10112492
96	0x3e00c659	0.12575664
97	0x3da35456	0.0797507
98	0x3d7f17e3	0.06227864
99	0x3d7c3394	0.061572626
100	0xba803fc7	-0.0009784632
101	0xbc7cba92	-0.015425341
102	0xbd211b47	-0.039332654
103	0xbc9e7a36	-0.019345384
104	0x3cbfad96	0.023398202
105	0xbb865c1d	-0.004100336
106	0x3ce926d6	0.028460901
107	0x3d1f0f58	0.038832992
108	0xbcbd6606	-0.023119938
109	0x3d51ca0f	0.05121809
110	0x3c6c8e18	0.014438175
111	0x3d4af1ea	0.049547113
112	0x3d4a0684	0.04932262
113	0xbc4baa8e	-0.0124308
114	0x3c7ecd7c	0.015551921
115	0x3cb9abba	0.022664893
116	0x3bb77af0	0.005599372
117	0x3d5fde29	0.054655228
118	0x3d7505cf	0.059819993
119	0x3dcbf5b9	0.09958977
120	0x3e1653bc	0.1468038
121	0x3dfac29a	0.122441486
122	0x3e5ebb02	0.21751025
123	0x3e4b034a	0.19825473
124	0x3e584743	0.21120934
125	0x3e4e38c8	0.20138848
126	0x3e1cc311	0.15308787
127	0x3df57e98	0.119870365
128	0xbbce0399	-0.00628705
129	0xbd637d56	-0.05553945
130	0xbdd9f058	-0.10641545
131	0xbde66211	-0.112491734
132	0xbe0985aa	-0.13429895
133	0xbd8cf8f2	-0.0688342
134	0xbd993746	-0.07481246
135	0x3ad729a9	0.0016415614
136	0xbcd70ea1	-0.026252093
137	0x3d23eae1	0.04001892
138	0x394cdd12	0.00019537311
139	0xbbff9bec	-0.0078005698
140	0xbc6ba1e0	-0.014381856
141	0xba26e7cb	-0.00063669373
142	0x3d1d33cd	0.03837948
143	0x3d30b42e	0.043140583
144	0x3d3868e0	0.04502189
145	0x3dd2ee1b	0.10299321
146	0x3ddecdb8	0.108790815
147	0x3e1a4211	0.15064265
148	0x3e051b12	0.12998608
149	0x3dda6052	0.10662903
150	0x3e314963	0.17313151
151	0x3e3b38af	0.18283342
152	0x3e4198f2	0.18906
153	0x3e9102df	0.28322503
154	0x3e795ac0	0.24351025
155	0x3e8107d6	0.2520129
156	0x3da3f363	0.08005407
157	0xbe2035ee	-0.15645573
158	0xbe32b776	-0.17452797
159	0xbe5b7a6e	-0.21433422
160	0xbe67051e	-0.22560546
161	0xbe113081	-0.14178659
162	0xbe0f221f	-0.1397786
163	0xbdcca9b2	-0.09993304
164	0xbd2e5452	-0.042560883
165	0x3d0fdc1b	0.03512202
166	0x3d0b660a	0.03403286
167	0x3d391e2b	0.045194786
168	0xbb3696b3	-0.002786082
169	0x3d4901bc	0.04907392
170	0x3cd43ab6	0.025906902
171	0x3d12ce71	0.03584141
172	0x3d713929	0.058892403
173	0x3e29c137	0.16577612
174	0x3e4126ea	0.18862501
175	0x3dfa9c47	0.12236839
176	0x3db21f94	0.08697429
177	0x3e28b1a1	0.1647401
178	0x3de0270e	0.10944949
179	0x3e1d7f20	0.15380526
180	0x3e3ddb08	0.18540585
181	0x3e379ab1	0.17930104
182	0x3e13e21e	0.14441726
183	0x3db4e8eb	0.08833488
184	0xbd2175ee	-0.039419107
185	0xbdd9e644	-0.10639623
186	0xbe06d127	-0.13165723
187	0xbe911b25	-0.28341022
188	0xbe908d31	-0.2823272
189	0xbe2ee1b9	-0.17078294
190	0xbe3d55c3	-0.18489747
191	0xbde14ff7	-0.1100158
192	0xbdb13033	-0.086517714
193	0x3cabd85f	0.020977197
194	0x3cc9259e	0.02455407
195	0x3cd5ec9a	0.026113797
196	0x3ba064a0	0.004894808
197	0x3cacd9da	0.021099973
198	0x3b4ec058	0.0031547751
199	0x3d867258	0.06564778
200	0x3de6b29a	0.11264534
201	0x3e287d1e	0.16453978
202	0x3dde1c58	0.1084525
203	0x3d9a0c3a	0.07521863
204	0x3d12da4c	0.035852715
205	0x3d88091a	0.06642361
206	0x3cac7e09	0.021056192
207	0x3cd69a7b	0.026196709
208	0x3b8b5f0a	0.004253273
209	0xbd9925c8	-0.07477909
210	0xbddbcb51	-0.10732139
211	0xbd3dcf36	-0.04634019
212	0xbd3cd958	-0.046105713
213	0xbddc3025	-0.1075137
214	0xbdb58bbd	-0.088645436
215	0xbe68c025	-0.22729547
216	0xbe88b0e0	-0.26697445
217	0xbe67f1ac	-0.22650784
218	0xbe728df1	-0.23686959
219	0xbe4f6932	-0.20254973
220	0xbd622248	-0.055208474
221	0x3c543738	0.012952618
222	0x3d4f7845	0.050651807
223	0x3d212bff	0.0393486
224	0x3b99f3fc	0.0046982747
225	0x3d32496f	0.043527063
226	0x3cab5eae	0.02091917
227	0x3d1faa56	0.038980804
228	0x3df6cc72	0.120507136
229	0x3e0ecb29	0.13944687
230	0x3d8b0347	0.067877345
231	0x3ca9e7da	0.020740438
232	0xbda2a1f3	-0.079410456
233	0xbd8ff239	-0.07028622
234	0xbde09fbd	-0.10967968
235	0xbe3f2d32	-0.18669584
236	0xbdcac336	-0.09900515
237	0xbd7b8613	-0.06140716
238	0x3d9b58db	0.07585307
239	0x3e44ed63	0.19231181
240	0x3e1fc93e	0.15604112
241	0x3de7542e	0.11295353
242	0x3d4c1bf0	0.04983133
243	0xbdfb1ae4	-0.12260988
244	0xbe883271	-0.26600984
245	0xbe8419ab	-0.25800833
246	0xbe436f9a	-0.19085541
247	0xbe52ac48	-0.20573533
248	0xbddc7720	-0.10764909
249	0xba904a81	-0.0011008532
250	0x3c679c5f	0.014136403
251	0x3cb38834	0.021915533
252	0x3ce6def4	0.028182484
253	0x3d45c650	0.04828483
254	0x3d1d029b	0.038332563
255	0x3cb3129a	0.021859456

fc1.bias f4 [256]
0	0xbd01bc36	-0.031673633
1	0xbce8bdc8	-0.028410807
2	0xbd119df7	-0.035551038
3	0xbc2d6839	-0.010583931
4	0xbcfb9733	-0.030711746
5	0x3c1ca02d	0.009559673
6	0x39e74c68	0.0004411668
7	0xbcf3b68f	-0.029750137
8	0xbce69078	-0.02814506
9	0x3ac698dd	0.0015151758
10	0x3c050ec1	0.008121193
11	0x3b11f990	0.0022273995
12	0xbc6b1c65	-0.0143500315
13	0xbd019443	-0.031635534
14	0x3c63a90b	0.013895283
15	0xbd4f235f	-0.050570842
16	0xbb9f3801	-0.004858971
17	0xbd133116	-0.035935484
18	0xbc27b0a0	-0.010234982
19	0xbce4e44f	-0.027940897
20	0x3ca9814b	0.020691535
21	0x3c5879ae	0.013212604
22	0x3c1af973	0.009458887
23	0xbd3c666a	-0.045996107
24	0xbd35d7f4	-0.044395402
25	0xbc9a0523	-0.018801278
26	0x3bbbf6b5	0.005736197
27	0xbcf363c4	-0.029710658
28	0x3bed0a0f	0.007233865
29	0xbd44b6fa	-0.048026063
30	0xbc6071e1	-0.013699026
31	0x39602bac	0.00021378574
32	0xbd077ac0	-0.033076048
33	0xbd477a4e	-0.048700623
34	0xbd689230	-0.05678004
35	0xbd2292a0	-0.039690614
36	0xbc7569e1	-0.014978857
37	0xbd00693d	-0.031350363
38	0xbd348395	-0.0440708
39	0x3c0d6a0d	0.0086312415
40	0xbc8b5e23	-0.017012661
41	0xbd4eb922	-0.050469525
42	0x3c15bba8	0.009138979
43	0xbd4d98b8	-0.050194472
44	0xbd171b2b	-0.036891144
45	0xbd5bf547	-0.05370071
46	0x3caa263f	0.02077019
47	0xbd100d99	-0.035169218
48	0xbd2b3124	-0.04179491
49	0xbd1c96e2	-0.03822983
50	0x3bbaf3e8	0.0057053454
51	0xbce2950d	-0.027658964
52	0xbd0423de	-0.032260768
53	0xbcb89e66	-0.022536468
54	0x3bc63d06	0.006049755
55	0x3bbf38e5	0.00583564
56	0xbcc7f243	-0.024407512
57	0xbd17df63	-0.037078273
58	0xbd39ae84	-0.045332447
59	0xbc0a6df1	-0.008449064
60	0xbc4d19e7	-0.012518383
61	0xbd238a2f	-0.039926704
62	0xbd07ce73	-0.03315587
63	0x3b63d8fa	0.003476678
64	0xbceb371c	-0.028712802
65	0xbcb63229	-0.022240715
66	0xbc2a4d59	-0.010394418
67	0x3b87f49f	0.004149034
68	0x3c32693e	0.0108893495
69	0xbd0dd83a	-0.034630038
70	0xbd5c9f72	-0.053862996
71	0xbd8fb1c6	-0.070163295
72	0xbbd1c4e8	-0.006401647
73	0x3ca0c51b	0.019625237
74	0xbd1ed551	-0.038777653
75	0xbc9a8820	-0.018863738
76	0xbcedee8f	-0.029044418
77	0xbc9fd45e	-0.019510444
78	0x3c212131	0.009834574
79	0x3bfa0eb5	0.0076311477
80	0xbd361625	-0.044454712
81	0xbbbbd2a1	-0.005731896
82	0xbc1d826e	-0.009613616
83	0xbb836c34	-0.0040107016
84	0x3c92661e	0.017870959
85	0xbc396379	-0.01131522
86	0xbc83114a	-0.015999455
87	0xbc6db354	-0.014508087
88	0xbd284af7	-0.041087117
89	0xbc427579	-0.011868828
90	0x3c8f2807	0.017475141
91	0xbce6a41a	-0.028154422
92	0x3b8c7efa	0.0042875977
93	0xbd329e0b	-0.043607753
94	0xbd4cde64	-0.050016776
95	0x3c2b4e1d	0.010455635
96	0xbd3f3096	-0.046677195
97	0x3bd011ff	0.0063498016
98	0x3c67dbfc	0.014151569
99	0x3c1e0f01	0.009647132
100	0xbcfeada6	-0.031088661
101	0x3bc79268	0.006090451
102	0xbc3ce133	-0.011528301
103	0xbd3f8eb8	-0.046766967
104	0x3c1295ce	0.008946849
105	0x3d4f66be	0.050635092
106	0x3ba80478	0.005127486
107	0xbcfc588c	-0.030803941
108	0xbd192938	-0.037392825
109	0x3c6dfc19	0.014525437
110	0xbc4c8598	-0.012483023
111	0xbb46b532	-0.0030320403
112	0x3b8440be	0.004036038
113	0x3bdb67f3	0.0066957413
114	0xbc8885d8	-0.016665384
115	0xbd29a05f	-0.041412707
116	0x3c84f4b7	0.01622997
117	0x352d6769	6.4598004e-07
118	0xbd54b82a	-0.051933445
119	0xbd10bfbd	-0.035339106
120	0xbbf5aaba	-0.007497159
121	0xbb09ecaf	-0.0021045615
122	0x3c0f1448	0.008732863
123	0xbc570630	-0.013124034
124	0xb700101f	-7.633148e-06
125	0xbc32b3e4	-0.010907147
126	0x3bc6fee3	0.0060728653
127	0x3c6e1b4e	0.014532877
128	0xbb7f22b2	-0.0038930592
129	0xbd0136a4	-0.03154625
130	0xbcf6e3e9	-0.030137973
131	0x3bd76553	0.006573358
132	0x3cde148a	0.027109403
133	0x3ac52057	0.0015039545
134	0xbaebf830	-0.0018003043
135	0xbc01ca38	-0.007921748
136	0xbbaa1fbb	-0.005191771
137	0x3b898070	0.004196219
138	0xbc900b76	-0.01758359
139	0xbc1d2e77	-0.009593598
140	0x3c2a42f1	0.010391937
141	0x3b4179d6	0.0029522083
142	0xbcedb292	-0.029015813
143	0x3b12feb5	0.002242965
144	0x3c087ac0	0.008330047
145	0x3c8065b8	0.015673503
146	0x3ad853d5	0.0016504476
147	0xbb831906	-0.0040007858
148	0x3c4d97e4	0.012548421
149	0xbd4be13c	-0.049775347
150	0x3c6975c7	0.014249272
151	0x3ccb14cf	0.024790196
152	0xbc66201d	-0.014045742
153	0xbd50da33	-0.05098934
154	0x3c3de063	0.0115891425
155	0x3c0ef041	0.008724273
156	0x3bd7abcd	0.0065817595
157	0xbc9ddf17	-0.019271417
158	0x3c3ec3bd	0.011643347
159	0xbc1fd1e2	-0.00975463
160	0x394fb60a	0.00019808873
161	0x3cab766c	0.020930491
162	0x3b86b831	0.004111313
163	0x3c6bd2dd	0.014393535
164	0xbc445f8f	-0.011985674
165	0xbc421676	-0.011846175
166	0xbc86b703	-0.016444689
167	0xbd31bdf5	-0.043394048
168	0xbac112b6	-0.0014730308
169	0x3b631b82	0.0034653847
170	0xbd3011bd	-0.042985667
171	0xbceab887	-0.028652443
172	0x3c6f0ba4	0.014590178
173	0xbbf48af8	-0.0074628554
174	0xbd54dda6	-0.051969193
175	0xbd0ff454	-0.03514512
176	0xbd0049e6	-0.031320475
177	0xbbd014f1	-0.0063501527
178	0xbcba7830	-0.022762388
179	0xbc4bc296	-0.01243653
180	0xbc2daafd	-0.010599849
181	0xbcfa3609	-0.030543344
182	0x3c2bfc4d	0.010497165
183	0x3c22e38b	0.009941946
184	0xbd111c02	-0.0354271
185	0xbbc9373d	-0.006140618
186	0xbcccc053	-0.024994051
187	0xbcba5a32	-0.022748087
188	0x3baf6c24	0.0053534675
189	0xbbae142e	-0.005312464
190	0xbcdec1a4	-0.027191944
191	0xbd40cc49	-0.04706982
192	0x3c1540fb	0.009109731
193	0xbc633245	-0.013866966
194	0xbd3dc47b	-0.046329957
195	0xbcc6c896	-0.024265569
196	0x3af281fd	0.0018501874
197	0xbd58a46b	-0.052891176
198	0xbd13644b	-0.03598432
199	0xbc829d55	-0.015944162
200	0xbd450ab4	-0.04810591
201	0xbc13d625	-0.009023224
202	0xbd51cab1	-0.051218692
203	0xbcb9024d	-0.022584105
204	0xbd3b5175	-0.04573198
205	0x3cae532b	0.021279892
206	0xbcfd08de	-0.030888017
207	0x3ca223a5	0.019792387
208	0xbd4662df	-0.048434135
209	0x3ae9bb83	0.0017832372
210	0xbb5735a1	-0.0032838362
211	0x3bff2570	0.0077864453
212	0xbd5217c9	-0.051292215
213	0xbbae6e00	-0.0053231716
214	0xbd391817	-0.04518899
215	0xbc908e90	-0.017646104
216	0x3cc68c12	0.024236713
217	0xbb0d3af1	-0.0021550024
218	0x3c88927c	0.016671412
219	0xbc3cf0a1	-0.01153198
220	0x3bd1f718	0.0064076297
221	0xbcac3f57	-0.021026297
222	0xbd078f01	-0.033095364
223	0xbccdda9b	-0.025128653
224	0xbc84ee5c	-0.01622694
225	0x3ab08a3d	0.0013468933
226	0x3d1e1188	0.038590938
227	0xbcb3c3e2	-0.02194399
228	0xbd4d3fb5	-0.050109584
229	0xbd525901	-0.051354412
230	0x3aeb4c27	0.0017951772
231	0x3c055c9b	0.008139755
232	0xbd4403f9	-0.04785535
233	0x3c89a9a9	0.016804533
234	0xbc0ecc98	-0.008715771
235	0x3ca7ddfc	0.020491593
236	0xbb8ffb1f	-0.0043939496
237	0x3caf09b7	0.021366937
238	0xbc261849	-0.010137626
239	0x3cd374d1	0.025812538
240	0xbba3d499	-0.004999709
241	0x3bc8c1b0	0.006126605
242	0xbc6a71af	-0.014309331
243	0x3ce79573	0.028269505
244	0xbd36d5c6	-0.044637464
245	0xbd08311a	-0.033249952
246	0xbc062dfc	-0.0081896745
247	0xbcd9cc7b	-0.026586762
248	0xbc2f1df9	-0.010688298
249	0x3b358c62	0.0027702083
250	0x3c02be1b	0.007979895
251	0x3c4b271d	0.012399462
252	0xbccd084a	-0.025028367
253	0x3cf76002	0.030197147
254	0x3c3c64c3	0.011498633
255	0xbcb1a6bb	-0.021685949

fc2.weight f4 [128, 256]
0	0xbd7fec54	-0.06248124
1	0xbd405bfa	-0.046962716
2	0x3ca50844	0.020145543
3	0xbca18138	-0.019714937
4	0xbd05f2e6	-0.03270235
5	0x3bbb0394	0.0057072137
6	0xbda374c5	-0.079812564
7	0x3c97765e	0.018489059
8	0xbde09964	-0.10966757
9	0xbcfd75a9	-0.030939894
10	0x3d3ea065	0.046539683
11	0x3d53648e	0.05160957
12	0x3c0cabda	0.0085858945
13	0xbd1f3275	-0.03886648
14	0xbc725b07	-0.01479221
15	0x3ce8e08b	0.028427383
16	0x3d047cc6	0.032345556
17	0x3a9b1300	0.0011831224
18	0xbb706012	-0.0036678356
19	0x3e5ae2d4	0.2137559
20	0xbc966d5e	-0.018362697
21	0xbe92a418	-0.2864082
22	0xbc967ae8	-0.018369153
23	0x3bc69a47	0.0060608718
24	0x3e023ae9	0.12717785
25	0xbd29679c	-0.041358575
26	0x3b8f2875	0.0043688365
27	0x3a1d6a10	0.0006004879
28	0x3d045869	0.032310877
29	0x3e3d0f90	0.18462968
30	0xbdfb937b	-0.12283989
31	0x3cfb42e4	0.030671544
32	0xbce1ae50	-0.027548939
33	0xbd36cadf	-0.044627067
34	0x3e2f7322	0.17133763
35	0xbd84d576	-0.06486027
36	0x3d207938	0.039178103
37	0x3cf31e5f	0.029677568
38	0x3d2ca1fc	0.042146668
39	0xbc83f4c7	-0.01610793
40	0x3de33efd	0.110959984
41	0xbea3900f	-0.31945845
42	0xbd0e4b8a	-0.03474001
43	0xbce64d71	-0.028113099
44	0xbe4c1657	-0.19930397
45	0xbd0a97e8	-0.033836275
46	0xbca1de3d	-0.019759292
47	0xbe45e61e	-0.19326064
48	0x39de8c26	0.00042447558
49	0xbcf05fe6	-0.029342603
50	0xbe5b48e7	-0.21414529
51	0x3e02fd8d	0.12792034
52	0xbd117fa4	-0.03552212
53	0x3d524df2	0.051343866
54	0xbd7f21fe	-0.062288277
55	0x3d940abf	0.07228612
56	0xbbc6c68a	-0.006066148
57	0x3d57c9fc	0.05268286
58	0x3c8332bc	0.016015403
59	0x3d53e394	0.051730707
60	0xbd6596db	-0.05605207
61	0x3cd9bc3d	0.026579017
62	0xbd4c5b88	-0.04989198
63	0xbeb865ee	-0.36015266
64	0xbd59ab4c	-0.053141877
65	0x3c2813c0	0.010258615
66	0xba2abd80	-0.0006513223
67	0x3b56cc1a	0.0032775463
68	0xbcaa854a	-0.02081551
69	0x3c537a58	0.012907587
70	0xbc92754c	-0.017878197
71	0xbcf6f992	-0.030148301
72	0xbd4a0d56	-0.049329124
73	0xbdaf2221	-0.085514314
74	0x3ce42bbf	0.027852891
75	0xbc865f37	-0.016402824
76	0x3cc37194	0.02385787
77	0xbd2f248a	-0.042759456
78	0xbc8e07e5	-0.017337749
79	0xbc42f9f2	-0.011900412
80	0xbd59d02f	-0.053177055
81	0xbca7bbdf	-0.020475326
82	0x3d1094aa	0.035298027
83	0xbd8337b1	-0.06407107
84	0xbd37ebc2	-0.04490257
85	0x3d1e11f3	0.038591336
86	0xbe4b407d	-0.19848819
87	0x3bbb6054	0.0057182703
88	0xbc874a77	-0.016515
89	0xbb8e119d	-0.0043355958
90	0xbd0da391	-0.034579817
91	0xbd362bc2	-0.044475324
92	0xbe4f585f	-0.20248555
93	0xbd03c96b	-0.03217451
94	0xbca20548	-0.019777909
95	0xbd21dcd1	-0.039517228
96	0x3d9f3987	0.07774644
97	0xbb0e6832	-0.0021729586
98	0xbd6e41df	-0.05816829
99	0xbe4f5702	-0.20248035
100	0xbd64088a	-0.055672206
101	0x3d10af3c	0.035323367
102	0xb84a5aa6	-4.8244976e-05
103	0xbe4a6439	-0.19764794
104	0xbd4ea398	-0.050448984
105	0xbe45c1cd	-0.1931221
106	0xbcb14ffb	-0.021644583
107	0xbdaba430	-0.08380926
108	0xbcd2f26c	-0.025750361
109	0xbd8a340f	-0.06748211
110	0x3d5fca4a	0.054636277
111	0xbe3a3eca	-0.18188015
112	0xbd1c698c	-0.038186595
113	0xb9ff24a8	-0.000486647
114	0x3ceaf3e0	0.028680742
115	0xbd8b4d97	-0.068019085
116	0x3da719aa	0.08159192
117	0x3d178a49	0.036997113
118	0x3cdf9562	0.027292911
119	0xbe15abdc	-0.1461634
120	0x3be8a925	0.0071002417
121	0xbd7fbf3e	-0.062438242
122	0x3d7828c2	0.060585745
123	0xbacb6380	-0.0015517324
124	0xbce71389	-0.028207557
125	0xbcc83648	-0.024439946
126	0xba97e329	-0.0011588085
127	0xbd72de48	-0.059294015
128	0xbba669b3	-0.0050785183
129	0x3d27e20c	0.04098706
130	0xbdb2a712	-0.087232724
131	0x3d01a572	0.03165192
132	0x3c6b84f1	0.014374957
133	0xbb0496c3	-0.0020231463
134	0x3b9816a0	0.004641369
135	0x3d1e4bf2	0.038646646
136	0xbb11d311	-0.002225105
137	0xbde61adc	-0.11235592
138	0xbdfdc0fa	-0.12390323
139	0x3ce9037f	0.02844405
140	0x3b7624a3	0.0037558458
141	0x3e0eae58	0.13933694
142	0xbd3fb54f	-0.04680377
143	0x3cd3079b	0.025760463
144	0x3d347460	0.044056296
145	0xbc90039a	-0.017579842
146	0xbd9608ca	-0.07325895
147	0x3c281915	0.010259886
148	0x3c87eacb	0.01659145
149	0xbd3006b0	-0.042975128
150	0xbd470201	-0.048585895
151	0x3dfd9623	0.12382152
152	0xbc728df5	-0.014804353
153	0xbd4d2cc2	-0.050091513
154	0xbd3d5002	-0.04621888
155	0x3e180f38	0.14849555
156	0x3cca79f8	0.024716362
157	0xbd021433	-0.031757545
158	0xbcceb5ad	-0.025233114
159	0xbc119309	-0.008885154
160	0xbe386c80	-0.1801014
161	0xbd055d21	-0.032559518
162	0x3d8dbc2a	0.06920655
163	0x3e04d3b1	0.12971379
164	0xbb6a2fcd	-0.0035734058
165	0xbda478f2	-0.08030881
166	0xbd58b1b4	-0.052903846
167	0xbb6ed67d	-0.0036443763
168	0xbd050342	-0.03247381
169	0x3bde0177	0.006775077
170	0x3bee905b	0.007280392
171	0x3e49daee	0.19712421
172	0xbb290d40	-0.002579525
173	0x3d58c858	0.052925438
174	0xba7d4b24	-0.0009662381
175	0x3c5277f3	0.012845981
176	0x3d1f63a2	0.038913377
177	0x3d2fd17a	0.04292438
178	0xbbdc2f20	-0.006719485
179	0xbd857076	-0.06515591
180	0xbc495f6a	-0.012290815
181	0x3d8d8c06	0.06911473
182	0x3d84e141	0.06488276
183	0xbccb80e1	-0.024841728
184	0xbd565f36	-0.052336894
185	0xbd51a4c6	-0.05118253
186	0xbd0c9cc6	-0.0343292
187	0x3c4e4023	0.012588534
188	0xbcd7a584	-0.026324041
189	0xbe2cfa5f	-0.16892384
190	0xbe0c100c	-0.13677996
191	0xbd28350e	-0.041066222
192	0x3d89eacc	0.06734237
193	0x3c8cdbce	0.017194655
194	0xbc5e6ef8	-0.013576262
195	0xbe59053c	-0.21193403
196	0x3d9d0c4a	0.076683596
197	0xbd89d8a9	-0.06730778
198	0x3d19af6d	0.037520815
199	0x3c58df9d	0.013236907
200	0xbd63d6b0	-0.055624664
201	0xbe23a166	-0.15979537
202	0x3d027842	0.031852968
203	0xbd778af0	-0.060435236
204	0x3d840aec	0.06447396
205	0xbc261502	-0.010136845
206	0xba57a842	-0.00082266715
207	0xbcbb567d	-0.02286839
208	0x3d2332f8	0.03984353
209	0xbca41bdf	-0.020032821
210	0xbe0789ae	-0.13236114
211	0xbdd17798	-0.10227889
212	0xbc524150	-0.0128329545
213	0xbdf53693	-0.119733
214	0xbe025f1a	-0.12731591
215	0xbdd67348	-0.10471207
216	0xbdddea08	-0.108356535
217	0xbcf40ca2	-0.02979118
218	0xbd57dfee	-0.05270379
219	0x3d9ecc69	0.07753832
220	0xbe0859f7	-0.13315569
221	0x3d18f93d	0.037347067
222	0xbbc3a6e2	-0.0059708217
223	0xbcfa4ece	-0.030555155
224	0x3cd80c93	0.026373183
225	0xbda7dfa5	-0.08196954
226	0xbcb98686	-0.022647154
227	0x3cc64521	0.024202885
228	0x3d5d6b84	0.054057613
229	0xbdcbde82	-0.09954549
230	0x3ec50da6	0.38486975
231	0xbd0381c3	-0.032106172
232	0xbda13e69	-0.07873232
233	0x3d1dc598	0.03851852
234	0x3cec4694	0.028842248
235	0xbde2f669	-0.11082155
236	0xbcc05e47	-0.023482455
237	0xbdf8a46c	-0.12140736
238	0xbde9eca0	-0.11422086
239	0xbe1835ab	-0.14864223
240	0xbd767878	-0.06017348
241	0xbd4ff685	-0.05077221
242	0xbd3a0ca9	-0.04542223
243	0xbd835ce1	-0.064141996
244	0x3d1aea56	0.037821136
245	0x3d182327	0.0371429
246	0x3c811fbc	0.015762202
247	0x3d4184a8	0.04724565
248	0xbd67e2b8	-0.0566127
249	0xbd96c348	-0.07361466
250	0xbd448566	-0.04797878
251	0xbc96cfcc	-0.018409632
252	0x3d35f5b7	0.044423785
253	0x3e1b6788	0.15176213
254	0x3de139e7	0.10997372
255	0xbdaaa6d8	-0.08332604

fc2.bias f4 [128]
0	0xbd273c35	-0.040828902
1	0x3b534727	0.0032238455
2	0xbd88ece9	-0.06685812
3	0xbc1dc9b9	-0.009630614
4	0x3bdda803	0.0067644133
5	0xbd3a939e	-0.045550935
6	0x3d9a7397	0.07541578
7	0x3d788cc0	0.060681105
8	0xbc8ef8c9	-0.017452614
9	0xbe39d9ee	-0.1814954
10	0x3bd299f4	0.006427044
11	0x3de52818	0.11189288
12	0x3bd4ebb9	0.006497827
13	0x3d0d9867	0.03456917
14	0xbd48d53c	-0.04903148
15	0xbcfc76ad	-0.030818308
16	0xbcb55d25	-0.022139141
17	0xbd89c361	-0.06726719
18	0x3ca04fc9	0.019569295
19	0xbcb0b189	-0.02156903
20	0x3c705863	0.014669511
21	0x3d02e9a9	0.031961117
22	0xbdb7ee2c	-0.089809746
23	0xbd95096d	-0.072771885
24	0xbbac5bf2	-0.005259984
25	0xbd45d732	-0.04830093
26	0xbd82b500	-0.06382179
27	0xbd0d44c8	-0.034489423
28	0xbce3297a	-0.027729739
29	0x3d871c28	0.06597167
30	0xbdf66e6b	-0.12032779
31	0xbc3ca364	-0.011513565
32	0xbd0d87bc	-0.034553275
33	0xbc7f5755	-0.015584786
34	0xbcdae7ad	-0.0267218
35	0xb8c26e3b	-9.271173e-05
36	0x3b15bc85	0.0022847962
37	0xbcb55927	-0.022137238
38	0xbcccf320	-0.025018275
39	0xbda41771	-0.080122836
40	0x3c0476ab	0.008084933
41	0xbd328345	-0.04358222
42	0xbc835c1b	-0.01603513
43	0xbdf84239	-0.12122006
44	0xbdcc2b61	-0.09969211
45	0x3d89dc29	0.06731445
46	0x3a085d20	0.0005201865
47	0xbc83c1d5	-0.016083637
48	0xbdcb0ee3	-0.09914949
49	0xbdae0a9a	-0.08498116
50	0xbd8cca5c	-0.068745345
51	0xbd392827	-0.045204308
52	0xbdc221da	-0.09479113
53	0x3bff6906	0.007794502
54	0x3cdf39bf	0.027249215
55	0x3c8ccfd5	0.017188946
56	0x3d273567	0.040822413
57	0x3ccd3e68	0.025054172
58	0xbd8c5366	-0.068518445
59	0x3d91f95d	0.071276404
60	0xbcd98524	-0.026552744
61	0x3dd35d89	0.10320575
62	0xbda77f37	-0.08178561
63	0x3c58316a	0.013195375
64	0xbc34be75	-0.011031737
65	0xbd7cab8c	-0.061687037
66	0x3dc5cd50	0.09658301
67	0xbca57a0b	-0.020199796
68	0xbd192ff2	-0.03739924
69	0xbd3b4bb8	-0.045726508
70	0x3cfde911	0.030994924
71	0xbbdf1b6f	-0.0068086903
72	0x3d97a5b4	0.07404652
73	0x3d75422a	0.059877552
74	0x3d02453a	0.0318043
75	0xbc362035	-0.011116077
76	0x3e002634	0.12514573
77	0x3d20ea39	0.039285872
78	0xbad85671	-0.0016505254
79	0x3b9d994d	0.0048095346
80	0x3dd88a66	0.105732724
81	0xbcbd2a1c	-0.023091368
82	0xbd6bcdbe	-0.057569258
83	0x3d366e2e	0.04453867
84	0x3e102d5e	0.14079806
85	0xbd50cb54	-0.05097516
86	0xbc36e564	-0.011163089
87	0xbdbad244	-0.09122136
88	0xbdf776d2	-0.1208321
89	0xbd4b8f95	-0.049697477
90	0xbd47442f	-0.04864901
91	0xbccc253b	-0.024920097
92	0xbd903c27	-0.07042723
93	0xbe0a7f72	-0.13525179
94	0xbdd59ad8	-0.10429925
95	0xbd2b3810	-0.041801512
96	0x3d799a37	0.060938086
97	0xbdcf9311	-0.101354726
98	0xbc2b1f6a	-0.010444501
99	0xbcf87064	-0.03032703
100	0x3ca3f919	0.02001624
101	0x3d560bff	0.052257534
102	0x3ce4d3c5	0.02793301
103	0xbdc5183b	-0.09623762
104	0x3cc9140f	0.024545697
105	0xbdb757c6	-0.08952288
106	0x3dd11e58	0.10210866
107	0x3bc2fbbc	0.005950419
108	0xbbddf8be	-0.006774037
109	0xbd4a4286	-0.049379848
110	0xbd8c0fa1	-0.068389185
111	0xba9b19f6	-0.0011833298
112	0xbd42b6fc	-0.04753779
113	0xbcf44ab8	-0.029820785
114	0xbd4024b6	-0.04691001
115	0x3d4b7c40	0.04967904
116	0xbd402311	-0.046908442
117	0x3c2e5f85	0.010642891
118	0xbd96b63e	-0.07358979
119	0xbd050148	-0.032471925
120	0x3ca32dad	0.01991924
121	0xbd383245	-0.044969816
122	0xbd907267	-0.070530705
123	0x3c75966a	0.014989475
124	0xbd17b77d	-0.037040222
125	0xbc490711	-0.012269751
126	0x3b72cdc6	0.003704892
127	0x3d4a6e94	0.04942186

fc3.weight f4 [64, 128]
0	0xbd897229	-0.067112274
1	0xbd4b1e6c	-0.04958956
2	0x3d3e57db	0.046470504
3	0x3d12519a	0.035722353
4	0x3beb9494	0.0071893428
5	0xbcf9eb70	-0.030507773
6	0xbd0dbb57	-0.03460249
7	0x3e41a37a	0.18910018
8	0xbdcf4c73	-0.101220034
9	0xbac07bfc	-0.0014685388
10	0x3c176f95	0.009242912
11	0x3d9fcadb	0.078023635
12	0xbc0fb083	-0.008770111
13	0xbe230b25	-0.1592222
14	0xbdd0ef84	-0.10201934
15	0x3d634c9a	0.055492975
16	0x3c826750	0.015918404
17	0xbd5a3e21	-0.053281907
18	0xbc830615	-0.015994111
19	0x3d505698	0.050863832
20	0xbd12f89d	-0.035881627
21	0xbd8906f9	-0.06690783
22	0x3da6495e	0.081194624
23	0x3e14851d	0.14503904
24	0x3d3afa09	0.04564861
25	0xbdf826d7	-0.12116783
26	0xbc9e4743	-0.01932109
27	0x3ce5d8aa	0.028057415
28	0xbda4fcf7	-0.08056062
29	0x3b9bd18a	0.0047552036
30	0xbd8d4ab1	-0.06899012
31	0x3c915652	0.017741356
32	0xbe0a3dc6	-0.13500127
33	0xbc8ce98c	-0.017201208
34	0x3ded57f9	0.11589045
35	0xbd4a1314	-0.0493346
36	0xbcada47b	-0.021196594
37	0x3dbdcffe	0.09268187
38	0x3ba47b14	0.005019555
39	0x3e20ac52	0.15690735
40	0xbc7c71f6	-0.01540803
41	0x3e143bd6	0.1447595
42	0xbcb20125	-0.021729061
43	0xbcc1ba55	-0.02364842
44	0x3e01797b	0.12643997
45	0xbd4fe185	-0.05075218
46	0xbdc30bea	-0.09523757
47	0x3c440a1c	0.011965301
48	0x3e114c27	0.14189206
49	0xbe0ca7d4	-0.13735896
50	0xbd8e2113	-0.06939902
51	0xbe02b360	-0.12763739
52	0x3e1999b9	0.15000047
53	0x3e0cf002	0.1376343
54	0xbd442d4f	-0.047894772
55	0x3d8731f0	0.06601322
56	0xbe07cd26	-0.13261852
57	0xbd9026c4	-0.07038644
58	0x3e2d05ba	0.16896716
59	0x3c2bb520	0.010480195
60	0x3d3aad83	0.04557563
61	0xbdef6bc5	-0.11690477
62	0x3c9e85f3	0.019350981
63	0x3d7e0172	0.062013097
64	0xbd814183	-0.063113235
65	0x3cd3bc34	0.025846578
66	0xbc2aa01e	-0.0104141515
67	0xbde81431	-0.11331976
68	0xbd5a3e32	-0.05328197
69	0x3e1cf021	0.15325977
70	0x3b74bf8d	0.0037345618
71	0xbcd9adcd	-0.026572132
72	0x3de62159	0.11236829
73	0x3dcf9e4d	0.10137615
74	0x3db33fb4	0.08752385
75	0x3d89b1eb	0.06723388
76	0x3dbd3eb7	0.092404775
77	0xbd6d8bd1	-0.057994667
78	0xbd3d7f58	-0.046264023
79	0xbd6d3dd3	-0.05792029
80	0xbd8a7654	-0.067608505
81	0xbcb8a008	-0.022537246
82	0xbdc020cb	-0.09381255
83	0x3d6cbe56	0.057798706
84	0xbdab1f61	-0.083555944
85	0x3da480d0	0.080323815
86	0xbd0ce4fc	-0.034398064
87	0xbcee6748	-0.029101983
88	0xbdaa0f44	-0.08303693
89	0x3d1cc503	0.038273823
90	0x3c340b95	0.0109890895
91	0x3d456772	0.048194356
92	0xbd641b45	-0.05569007
93	0x3dfa8a89	0.12233455
94	0xbdafe7eb	-0.08589157
95	0x3c69af74	0.014263023
96	0xbe765dbf	-0.24059199
97	0xbd59b375	-0.05314966
98	0xbd03eaa8	-0.032206208
99	0xbdbc93eb	-0.092079006
100	0x3e332b84	0.17497069
101	0xbd0ca4e4	-0.03433694
102	0x3cf9b183	0.030480152
103	0x3d736c54	0.05942948
104	0xbd6e847e	-0.058231823
105	0xbc7f26c0	-0.015573204
106	0xbb1ac5ef	-0.0023616513
107	0xbd312735	-0.04325028
108	0xbcb3b9a4	-0.021939106
109	0x3c1a14a3	0.009404334
110	0x3be8de9c	0.007106615
111	0x3ddab811	0.10679639
112	0x3c64617a	0.013939256
113	0xbc2eeea2	-0.010677012
114	0x3d7aa720	0.06119454
115	0x3d6379ec	0.055536196
116	0xbd6d3ce9	-0.057919417
117	0x3d7180a8	0.058960587
118	0x3ccf938c	0.02533891
119	0x3d1232fa	0.035693146
120	0xbc8bceaf	-0.017066328
121	0x3e04ea6d	0.12980051
122	0x3d64dc25	0.05587401
123	0x3dc351af	0.09537064
124	0xbddc9b56	-0.107718155
125	0xbdb3189c	-0.08744928
126	0xbda8e6ca	-0.082471445
127	0xbd4a7039	-0.04942343
128	0xbd21fdee	-0.039548807
129	0xbddf0932	-0.10890426
130	0x3e01c184	0.12671477
131	0x3d241582	0.040059574
132	0x3cf1a933	0.029499626
133	0xbc3c4228	-0.011490382
134	0x3ca74725	0.020419667
135	0xbe73452e	-0.23756859
136	0xbcb15da4	-0.021651097
137	0x3d8decdd	0.06929944
138	0x3dad5bf7	0.084648065
139	0xbd35b994	-0.044366434
140	0xbe603dfa	-0.21898642
141	0x3d132406	0.035923027
142	0x3d1d1578	0.038350552
143	0x3ba7b060	0.005117461
144	0xbcff9f05	-0.031203756
145	0x3da34a15	0.079731144
146	0xbddd4086	-0.108033225
147	0xbb4d651d	-0.0031340786
148	0x3d9c1206	0.07620625
149	0xbdd8f351	-0.10593284
150	0xbda3b716	-0.07993905
151	0xbb8fe9b8	-0.004391875
152	0xbd7409b5	-0.05957957
153	0xbdb03423	-0.08603694
154	0xbd1462f9	-0.0362272
155	0x3c909ffa	0.017654408
156	0xbd98f145	-0.074678935
157	0xbaba4e6c	-0.0014214045
158	0xbca33780	-0.019923925
159	0xbd6aa4d7	-0.05728611
160	0xbe20411b	-0.15649836
161	0xbdc24922	-0.09486605
162	0xbcb2e86f	-0.021839349
163	0x3d4a6717	0.04941472
164	0x3d0f67d8	0.035011142
165	0xbd957b7e	-0.07298945
166	0xbd3fd317	-0.04683217
167	0xbc415a06	-0.011801248
168	0xbc9b8c21	-0.018987717
169	0xbd0e7409	-0.03477863
170	0x3cf245b8	0.02957426
171	0x3d856f7f	0.06515407
172	0xbd5be780	-0.053687572
173	0x3c8ea3cd	0.01741209
174	0x3de5b7a2	0.11216666
175	0x3d52d566	0.051473044
176	0xbd227f45	-0.039672155
177	0xbd6931a1	-0.056932095
178	0x3d4f4a73	0.05060811
179	0x3debf3aa	0.115210846
180	0x3c1edb75	0.009695877
181	0xbd41d600	-0.047323227
182	0x3d9d3138	0.07675403
183	0xbd17e4a8	-0.037083298
184	0x3c2a387a	0.010389442
185	0x3d212a08	0.039346725
186	0xbd8a8114	-0.06762901
187	0x3d83d25c	0.06436607
188	0x3d50035e	0.05078446
189	0x3d809573	0.06278505
190	0x3d803957	0.06260937
191	0xbbc011e3	-0.0058615073
192	0xbd027433	-0.031849097
193	0xbd55c57d	-0.052190293
194	0xbe3924d3	-0.18080454
195	0xbd3f808e	-0.04675346
196	0xbc9ff037	-0.019523723
197	0xbc56c37a	-0.013108129
198	0x3cd66595	0.026171485
199	0x3c31e3b1	0.0108575085
200	0xbda10c2b	-0.07863649
201	0x3ba6cffa	0.0050907107
202	0x3c7f0ff3	0.015567767
203	0xbbe41110	-0.006960042
204	0x3d0fdb00	0.035120964
205	0xbe1ead8f	-0.15495895
206	0x3dcd17ae	0.10014282
207	0xbe0fe5a1	-0.1405244
208	0xbe21df9b	-0.15807955
209	0x3d84c122	0.0648215
210	0xbc9eb627	-0.019373966
211	0x3d4a13b7	0.049335208
212	0xbd959231	-0.073032744
213	0xbdca4033	-0.09875526
214	0xbc4b7d53	-0.012420016
215	0xbbe31683	-0.006930174
216	0x3d49d592	0.049275942
217	0xbddfea12	-0.10933317
218	0x3d37bb77	0.044856515
219	0xbd32a3e1	-0.04361332
220	0xbde3355f	-0.11094164
221	0x3d008d86	0.031384967
222	0xbcf0fc87	-0.02941729
223	0x3d97a561	0.074045904
224	0x3db90577	0.090342455
225	0xbcbd60b2	-0.023117397
226	0x3b9278a7	0.0044699493
227	0xbd8a3550	-0.0674845
228	0xbd690444	-0.056888834
229	0xbd7cf255	-0.061754543
230	0xbdce3006	-0.100677535
231	0x3d0fe9f6	0.035135232
232	0xbd0c0e4e	-0.03419333
233	0xbdae7892	-0.08519091
234	0xbdc1ba17	-0.09459322
235	0xbb8ec36c	-0.004356792
236	0xbd0c861f	-0.034307595
237	0x3d62cd75	0.05537172
238	0xbd66dd4b	-0.056363385
239	0xbd56f1b7	-0.05247661
240	0x3d60ba5b	0.054865222
241	0xbd70e600	-0.058813095
242	0x3b917409	0.0044388813
243	0xbdc53e16	-0.096309826
244	0x3dbceb95	0.09224621
245	0x3d079fd4	0.03311141
246	0xbd3c58a6	-0.04598298
247	0xbb04239c	-0.0020162826
248	0x3bf9448c	0.0076070484
249	0x3ce8aad3	0.028401768
250	0x3d12adba	0.03581021
251	0xbdff8101	-0.124757774
252	0xbda8b11a	-0.082369044
253	0xbc74d5d8	-0.014943562
254	0xbc8a1685	-0.016856441
255	0xbe224531	-0.15846707

fc3.bias f4 [64]
0	0x3d8596f2	0.06522931
1	0x3c42a14e	0.011879278
2	0xbd57814d	-0.052613545
3	0x3d902cf3	0.070398234
4	0x3d097053	0.033554386
5	0xbdad7179	-0.08468909
6	0xbd5db3b8	-0.05412647
7	0x3d0b0be4	0.033946887
8	0xbcf98d3c	-0.030462854
9	0xbdf7e63a	-0.12104459
10	0xbdbe6f15	-0.09298531
11	0xbc8a2fb4	-0.01686845
12	0x3dc63ab2	0.09679164
13	0xbd7aae7b	-0.061201554
14	0xbd458663	-0.048223864
15	0xbba4367f	-0.0050113793
16	0xbdc82b95	-0.097739376
17	0xbc4af302	-0.012387039
18	0xbd7daea9	-0.061934147
19	0x3d588178	0.052857846
20	0xbdc0b822	-0.094101205
21	0x3c33f840	0.01098448
22	0xbbe04307	-0.006843928
23	0xbc92db91	-0.017926963
24	0xba6033b8	-0.00085526286
25	0xbcd2e5dd	-0.025744373
26	0xbe2350ec	-0.15948838
27	0xbd645398	-0.055743784
28	0xbdcfd538	-0.1014809
29	0xbdadd812	-0.08488478
30	0x3ce07f33	0.027404403
31	0xbca710c8	-0.020393744
32	0x3cfdd9cb	0.03098764
33	0xbdd38853	-0.10328736
34	0xbdd8e15d	-0.1058986
35	0xbdd3dcfb	-0.10344883
36	0xbd47bf29	-0.04876629
37	0xbe2076b6	-0.15670285
38	0x3b80a070	0.0039253756
39	0x3d32ba84	0.043634906
40	0xbd5ac09a	-0.053406335
41	0x3e32cd38	0.17461097
42	0xbcf54f58	-0.02994506
43	0xbd23e967	-0.04001751
44	0x3b5c6212	0.003362779
45	0xbddf1770	-0.10893142
46	0x3c4cec8b	0.012507568
47	0xbd3bb6ad	-0.04582851
48	0xbcf7fb8b	-0.030271312
49	0xbbefb1ff	-0.00731492
50	0x3dfa57f2	0.122238055
51	0xbd58bc35	-0.052913863
52	0xbbb318ab	-0.005465587
53	0xbcfba5ee	-0.03071877
54	0xbdaceddd	-0.08443806
55	0x3e0c5a27	0.13706265
56	0xbd7e272c	-0.062049076
57	0xbda1ea35	-0.079059996
58	0x3db52401	0.08844758
59	0x3d1632f0	0.03666967
60	0xbdacadc8	-0.08431584
61	0xbdb6ae3e	-0.08919953
62	0xbdf7b2a3	-0.12094619
63	0x3d9669be	0.073443875

fc4.weight f4 [10, 64]
0	0xbe1d1686	-0.15340623
1	0xbdfe64e5	-0.12421588
2	0x3de12e70	0.109951854
3	0x3d80b535	0.062845625
4	0xbe345807	-0.17611705
5	0x3d29c2c6	0.041445516
6	0x3c785b39	0.015158468
7	0x3d39486a	0.045235075
8	0xbd4d39bd	-0.05010389
9	0xbe1daf97	-0.15399013
10	0xbdf8a1b6	-0.12140219
11	0x3be9a284	0.007129969
12	0xbe481136	-0.19537815
13	0x3e0f2d34	0.13982087
14	0x3d386ab0	0.04502362
15	0xbca6c820	-0.020359099
16	0x3d13dcd3	0.036099266
17	0xbe5e7812	-0.2172549
18	0xbd34b99f	-0.044122335
19	0xbe047ef7	-0.12939058
20	0x3d6f9583	0.058492195
21	0x3dd560ec	0.10418877
22	0xbc2aa301	-0.01041484
23	0x3d317295	0.043322165
24	0xbc9c054b	-0.019045493
25	0x3db1fada	0.08690424
26	0x3cdf7967	0.027279569
27	0xbd2c7bf3	-0.042110395
28	0x3e09d509	0.13460173
29	0xbe7229f2	-0.23648813
30	0xbe595b1e	-0.21226165
31	0x3e179914	0.14804488
32	0xbe098bd3	-0.13432245
33	0x3d83a529	0.06427986
34	0x3cc41d29	0.023939686
35	0xbdffee78	-0.12496656
36	0xbdf590d0	-0.119905114
37	0xbe06f559	-0.1317953
38	0xbe0aa6a9	-0.13540138
39	0xbe2fa96a	-0.1715447
40	0x3c8bfe5d	0.017089063
41	0x3db96133	0.090517424
42	0x3ded5469	0.115883656
43	0x3cbf8ca6	0.023382496
44	0x3cd3403f	0.02578747
45	0xbdb0e183	-0.08636763
46	0xbc88c59a	-0.016695786
47	0xbd6170a0	-0.05503905
48	0x3d79ff8d	0.061034728
49	0xbd05bfe8	-0.03265372
50	0xbe015868	-0.1263138
51	0xbd9e7470	-0.077370524
52	0x3df780b8	0.12085098
53	0xbd5a3fd1	-0.053283516
54	0xbd624619	-0.05524263
55	0xbe320b5a	-0.17387143
56	0x3d936dac	0.071986526
57	0xbd1aa8f3	-0.03775878
58	0xbc2d0728	-0.010560788
59	0xbd271a3c	-0.040796503
60	0xbd9e8470	-0.07740104
61	0x3d8b7db7	0.068110876
62	0xbc6d3e16	-0.0144801345
63	0xbdc24f27	-0.09487753
64	0x3cbc3321	0.022973599
65	0xbd1aee22	-0.037824757
66	0xbe4d5a8c	-0.20054072
67	0xbe058a69	-0.1304108
68	0x3d3f7d81	0.04675055
69	0xbd8eea11	-0.069782384
70	0x3caf816a	0.021424014
71	0xbe52dfd7	-0.205932
72	0xbceb062d	-0.028689468
73	0x3da959fb	0.082691155
74	0x3dc1f698	0.09470862
75	0xbd981bad	-0.07427154
76	0x3e199c1a	0.15000954
77	0x3c9e0102	0.01928759
78	0xbdbb6583	-0.09150221
79	0xbdf6ba98	-0.12047309
80	0xbe46adc1	-0.1940222
81	0xbd7c6d6c	-0.06162779
82	0xbd980fcb	-0.07424887
83	0xbdf75285	-0.12076286
84	0x3bd7fb7e	0.0065912595
85	0xbde9c873	-0.11415186
86	0x3decaebf	0.11556768
87	0x3e3a5e36	0.18200001
88	0xbc7a7fb9	-0.0152892405
89	0x3946320b	0.00018901394
90	0xbe4aae67	-0.19793092
91	0xbc297469	-0.010342696
92	0x3e069e96	0.13146433
93	0x3de95a47	0.11394172
94	0x3e037a7f	0.12839697
95	0xbe2514a1	-0.1612115
96	0x3d7ad1ad	0.06123512
97	0xbd4dbb3b	-0.050227385
98	0x3d391b4a	0.04519204
99	0xbccc9c9b	-0.024977019
100	0xbd8df6c5	-0.06931833
101	0xbe03a0e9	-0.12854351
102	0x3de955b6	0.11393301
103	0xbe1cc929	-0.15311112
104	0xbcc9a0ff	-0.024612902
105	0xbe6789ef	-0.22611211
106	0xbea253b9	-0.317045
107	0xbd6cc7af	-0.05780762
108	0x3c01bdbd	0.007918772
109	0xbc31cc9f	-0.010852008
110	0xbe37a01b	-0.17932169
111	0x3dfea20e	0.12433253
112	0x3dd72896	0.10505788
113	0x3bfdadf3	0.0077416836
114	0x3e228005	0.15869148
115	0xbdc3fdaf	-0.09569871
116	0xbe0bc29d	-0.13648458
117	0x3d3aee62	0.045637496
118	0xbe11f2eb	-0.14252822
119	0x3d7033e1	0.058643226
120	0xbe5be65d	-0.21474595
121	0xbcd042ab	-0.025422415
122	0xbe5d9f11	-0.2164271
123	0x3d618c8c	0.055065677
124	0x3da947aa	0.08265622
125	0xbd870f6c	-0.06594738
126	0x3d999735	0.074995436
127	0x3e00ef65	0.12591322
128	0xbe19c4c6	-0.1501647
129	0xbbd9e9cf	-0.0066501866
130	0xbd7524d0	-0.05984956
131	0xbbddb7b9	-0.006766286
132	0x3d22bf33	0.039733123
133	0x3e193012	0.14959744
134	0x3d8ccf47	0.068754725
135	0x3db3a2fc	0.08771321
136	0xbd311f08	-0.043242484
137	0x3dfc3e92	0.12316622
138	0xbd0c5fcb	-0.034271043
139	0x3dbe06ba	0.09278627
140	0xbdc040c5	-0.09387354
141	0x3dd22224	0.10260418
142	0x3d872ab8	0.06599945
143	0x3d4adb9d	0.049525846
144	0x3da56300	0.080755234
145	0xbc53b279	-0.012920969
146	0x3b6a8da7	0.0035789998
147	0xbc899271	-0.016793462
148	0x3d3803ce	0.044925503
149	0xbc5f2f25	-0.01362208
150	0x3dd07104	0.10177806
151	0xbca6bd5e	-0.02035397
152	0x3d268c34	0.040661052
153	0xbcd70098	-0.0262454
154	0xbdab462f	-0.08362996
155	0xbcd4365b	-0.025904825
156	0x3db3130e	0.08743869
157	0xbe16e574	-0.14735967
158	0xbe020ea1	-0.12700893
159	0xbe145036	-0.14483723
160	0x3e233b1a	0.15940514
161	0xbc0524b8	-0.00812643
162	0x3e006e83	0.12542157
163	0x3d4cea65	0.050028224
164	0x3d10b8d4	0.035332516
165	0xbd303b89	-0.043025527
166	0x3c8092f3	0.01569507
167	0x3ceaf3e8	0.028680757
168	0x3d73dc0d	0.05953603
169	0xbdb5d2e8	-0.08878118
170	0xbe3a5054	-0.18194705
171	0x3d0bbee4	0.034117594
172	0xbd288317	-0.041140642
173	0x3dedddbf	0.1161456
174	0x3a4461ed	0.0007491399
175	0x3d9aae52	0.0755278
176	0x3d8bc0f7	0.068239145
177	0xbda017d7	-0.07817047
178	0x3d991c21	0.07476068
179	0xbd1b1f54	-0.037871674
180	0xbd7b7634	-0.061392024
181	0xbdb74421	-0.089485414
182	0xbdeb9ba5	-0.11504296
183	0xbe0184eb	-0.1264836
184	0xbd664a5f	-0.05622327
185	0x3e06a310	0.13148141
186	0xbdd43c42	-0.10363056
187	0xbe0db569	-0.13838734
188	0x3ddf1007	0.10891729
189	0x3aacd784	0.0013186787
190	0xbea39a5d	-0.31953707
191	0x39d47a40	0.00040526874
192	0x3dda9342	0.106726184
193	0xbbe6d39e	-0.0070442697
194	0xbd95c9f2	-0.07313909
195	0x3e048ac4	0.1294356
196	0x3da5ea97	0.08101385
197	0x3ccf43b1	0.025300832
198	0xbe204cae	-0.15654251
199	0x3dc0d328	0.09415275
200	0x3dcc8704	0.0998669
201	0x3d98a7da	0.0745389
202	0x3dab40d9	0.08361978
203	0xbcd7031c	-0.0262466
204	0x3b34a10c	0.0027561812
205	0xbd20ffc2	-0.03930641
206	0xbcfc51ee	-0.030800786
207	0x3d83c998	0.06434935
208	0x3ce00154	0.027344383
209	0xbe1f8fca	-0.15582195
210	0x3d38c387	0.045108344
211	0xbe1a5844	-0.15072733
212	0x3da4a5f1	0.08039463
213	0xbd9bb1a5	-0.076022424
214	0xbc545f8d	-0.012962234
215	0x3c9ca97d	0.019123787
216	0xbd67ae16	-0.056562506
217	0xbddce7b6	-0.10786383
218	0xbe009e4d	-0.12560387
219	0x3db61ac2	0.088918224
220	0xbe050164	-0.12988812
221	0x3dfd5b9e	0.1237099
222	0xbd8d5480	-0.06900883
223	0x3b1f6f9a	0.0024327994
224	0xbd3da71a	-0.04630194
225	0x3dbddb18	0.092703044
226	0xbe122930	-0.14273524
227	0x3c3c9ca2	0.011511954
228	0x3dc9f935	0.098619856
229	0x3ca1dff1	0.019760104
230	0x3cf29fa3	0.029617136
231	0x3b16f382	0.0023033326
232	0xbcf10daf	-0.02942547
233	0xbde30f9b	-0.11086961
234	0x3d423d9f	0.047422048
235	0x3d0899aa	0.03334967
236	0xbb937ecd	-0.0045012
237	0x3d75935d	0.05995499
238	0xbdf93a20	-0.121692896
239	0x3c1ff00c	0.0097618215
240	0xbd253a55	-0.040338833
241	0x3da4c670	0.080456614
242	0x3c0229e4	0.007944558
243	0x3da6013c	0.08105704
244	0x3ddf3c12	0.109001294
245	0xbd6b4a2b	-0.05744378
246	0x3d775f68	0.06039372
247	0x3e12fc89	0.14354147
248	0xbe337668	-0.17525637
249	0x3d4e147e	0.05031251
250	0xbce14c38	-0.027502164
251	0xbbad49bd	-0.0052883313
252	0x3d2eff91	0.042724196
253	0x3e0036ec	0.12520951
254	0xbdeea771	-0.11653031
255	0xbdb5bda0	-0.08874059

fc4.bias f4 [10]
0	0xbd49f23e	-0.049303286
1	0xbe12cf91	-0.14336993
2	0xbd1a88a5	-0.03772797
3	0x3d82c4a3	0.06385162
4	0x3db7ae87	0.08968835
5	0xbccb7b70	-0.024839133
6	0x3de67ea2	0.11254622
7	0xbe084d83	-0.13310818
8	0x3e554c67	0.20829926
9	0x3d95cd01	0.07314492
