src/server/21485853154599475.pt (torch, 973831 bytes, 8 tensors)

fc1.weight f4 [256, 784]
00000000: e7aa 103d e53c a73c 21dd 3b3d fd4e 903c
00000010: 5c03 5e3c c1ea e43c 2be5 a4ba 8dd9 f33c
00000020: 6f9a d4bb c903 88bc 558b 103d a0e4 b13c
00000030: 4bfa 0f3d 4f38 97bb 951e 7abb 7d92 773c
00000040: e14d 8ebb befc 7dbc a1d9 933c bfa8 043d
00000050: 64cd 623c f58b a23b 68bd 2e3c 92d7 99bc
00000060: d5be 7a3c 2458 02bb e9bc 0f3d 712e a6bb
00000070: 52b0 b4bc 9245 b7bb d296 a8bc 2f44 263d
00000080: 0700 adbc 6c30 afbc 9e93 59bc de65 16bc
00000090: d072 85bc 291d ea3b 6e7b 033d ae58 2b3d
000000a0: 6f62 af3a 904f cdba 1b61 a03c aec3 e4bb
000000b0: 4a15 043d 1a00 263d a6eb d73b 4dc8 a7bc
000000c0: eff8 473c 2811 1c3d da6b 063c ba46 333c
000000d0: 7982 debb 8df9 a23b 8612 8b3b efd9 1b3b
000000e0: 5bde fb3c ad01 e33c 9515 963b b7f8 d9ba
000000f0: 7fb8 0b3d e070 df3c 1ef6 8fbb 480e 043d
00000100: 5b63 79bc ee36 4b3d f369 353d 0910 d53c
00000110: d54b 6c3d 3845 e63c 4435 063d f722 883d
00000120: d3a7 aa3c 3558 9bbc 2528 953b 78a9 203c
00000130: 1292 c63b 9db1 f03c 7816 803c a7ea 78bc
00000140: 76a5 9bba 500f 93bc b081 663c fd23 83bb
00000150: 94b0 d13c 7788 bd3c 2fe0 c43c d5c3 bbbb
00000160: 1698 be3c ae20 df3c 94e2 013d 0951 983c
00000170: 7a7f 013d 32b4 9d3c d248 763d fdb9 b73d
00000180: ac38 003e 1d32 d63d 61d7 1a3d a524 ac3c
00000190: 64ff 1cbd 38e3 17bd b8b4 83bd 59ff 11bd
000001a0: ebb9 4f3b 0ab8 73bc 246b c43c dd38 1a3d
000001b0: 9a18 c5bc ce2d 433d 801a 363c 6f15 3b3d
000001c0: 0b2a 3a3d 278e 85bc bcfd 363c a91f 9b3c
000001d0: b739 863a 0a7e 623d ba6d 893d c4bd a03d
000001e0: 9077 123e a72f ed3d 7a5b 2d3e c983 1f3e
000001f0: 0d0c 513e 6abc 5e3e 1163 103e d1f5 ea3d
00000200: 2185 0b3c 2bfe 8ebd 604b 07be 8d99 07be
00000210: 3f26 36be 0306 c0bd d19f d1bd c849 a6bc
00000220: 369c 07bd 51f2 133d be90 65bb ccd3 41bc
00000230: c489 95bc b1c0 93bb e26a 0b3d 6c1d 283d
00000240: 6257 243d 4ea1 ba3d 0da9 b03d a9e5 cb3d
00000250: 1556 9c3d 744b f63c 3072 cd3d 162f 253e
00000260: 162e 3e3e e3be 803e 4e9f 823e 0e8b af3e
00000270: 558f 293e aeea c5bd 3e49 19be f34f 41be
00000280: 6ddf 7dbe 9477 30be 360c 22be f218 e7bd
00000290: c6df 26bd d683 003d 9f51 df3c 8374 283d
000002a0: 042f dabb ff24 393d 7371 9c3c dc2f f03c
000002b0: 7e66 193d 5a00 013e 71db 013e 4164 f93c
000002c0: 5a9c 06bc 6c6f 823d 4f28 843d 8807 443e
000002d0: 90fa 273e 96eb 353e 5245 9e3d 4993 683d
000002e0: eca7 263c e009 88bc 1ed9 babd 1000 7dbe
000002f0: 1e0c 8fbe 81a6 3abe 7601 2ebe 1d0d b3bd
00000300: c083 9dbd 4e9a ac3c 457e 9a3c dd62 bc3c
00000310: bd03 863a 5b1a 8d3c c9f6 80bb aacc 4d3d
00000320: a95d ba3d cb2a 033e a42e 8f3d bad5 b63c
00000330: 1c2f 403c 1d8f 133d eaf8 633c 3f47 0b3d
00000340: dfa2 72bd 2626 21be 0f2b 5ebe 0932 d4bd
00000350: 9f16 273d fabe 313c 18f7 18bd 3fd4 6cbe
00000360: 3c9c 7bbe 421f 6dbe fc2c 6cbe 433e 34be
00000370: 67bd 33bd c1fc 913c d57b 473d 3559 103d
00000380: d487 dc39 ef76 243d a67b 703c 0df1 e13c
00000390: d854 e53d 6a5b 043e 59e9 b13d 278d 193d
000003a0: 0338 8bbd c606 67bd e099 cdbd fb76 78be
000003b0: cfc1 55be 50d9 b9bd f029 d03a fb73 5b3e
000003c0: 91df 703e ebea 593e 1b3f 803c 2ab8 0dbe
000003d0: c721 81be 34e0 96be 29d5 4dbe 538c 3dbe
000003e0: b98c dfbd dc5c aaba 5d61 113c 85f6 923c
000003f0: c152 c73c b1fc 353d 3ba2 083d a8a1 ae3c
0.035319235 0.020414779 0.04586518 0.01761579 0.013550606 0.02794397 -0.0012580504 0.029766822
-0.0064881365 -0.016603367 0.035289127 0.021715462 0.035150807 -0.004614867 -0.00381652 0.015110609
-0.00434278 -0.015502153 0.01804811 0.03238749 0.013842914 0.004960532 0.010665275 -0.01877955
0.015304287 -0.0019888962 0.03509227 -0.005071454 -0.022056732 -0.00559301 -0.02057973 0.04059237
-0.021118177 -0.021385394 -0.013279824 -0.0091795605 -0.016290098 0.0071445894 0.032100134 0.04183262
0.0013380776 -0.001566397 0.019577553 -0.0069813346 0.032246865 0.04052744 0.006589371 -0.020481253
0.0122053465 0.0381023 0.008204425 0.0109421555 -0.006790456 0.0049735964 0.0042441515 0.0023781022
0.030745676 0.02771076 0.0045802095 -0.0016629909 0.034111496 0.027275503 -0.004393353 0.032240182
-0.015221442 0.049612932 0.044290494 0.026008623 0.057689507 0.028109178 0.03276564 0.06647294
0.020831978 -0.018962959 0.0045519047 0.0098060295 0.0060598934 0.029381568 0.015635714 -0.015192664
-0.0011874873 -0.017951638 0.014069006 -0.004002093 0.025596894 0.02313636 0.02403268 -0.005730132
0.02326588 0.027237263 0.031710222 0.018593328 0.03161571 0.019250963 0.06012804 0.08971021
0.12521619 0.10458777 0.037803058 0.021013567 -0.038329497 -0.037081927 -0.06430954 -0.03564391
0.003169651 -0.014875421 0.02397687 0.037651885 -0.024059583 0.047651105 0.0111147165 0.045674738
0.04545025 -0.016303135 0.011168893 0.018935995 0.0010240589 0.05529598 0.06710382 0.07848695
0.14303422 0.115813546 0.16929427 0.15577616 0.20414753 0.21751562 0.14100291 0.11472667
0.008515627 -0.069820724 -0.13212347 -0.13242169 -0.17788027 -0.09376147 -0.10235561 -0.020298854
-0.03310796 0.036119763 -0.00350289 -0.0118302815 -0.018254168 -0.0045090546 0.03403748 0.041043684
0.040122397 0.09112798 0.08625994 0.099559136 0.07633606 0.030065276 0.10031545 0.16131243
0.18572268 0.25145635 0.25512165 0.34285778 0.16558583 -0.09663902 -0.14969346 -0.18878154
-0.24792261 -0.17233115 -0.1582497 -0.11284055 -0.04074075 0.03137573 0.0272606 0.04112674
-0.0066584367 0.045201298 0.019097066 0.029319696 0.03745126 0.1259779 0.12681367 0.030443313
-0.008215988 0.06368908 0.06453001 0.19143498 0.16404176 0.1776565 0.077280656 0.056781087
0.010171872 -0.016606271 -0.09123443 -0.24707055 -0.27938932 -0.18227579 -0.16992745 -0.087427355
-0.07691145 0.021069672 0.018859038 0.02299636 0.0010224503 0.017224481 -0.003935669 0.05024401
0.090998955 0.12809293 0.06991318 0.02231871 0.011729982 0.036025155 0.013914326 0.034003492
-0.059237357 -0.15737209 -0.21696113 -0.10361106 0.040793058 0.010848755 -0.037345022 -0.2312784
-0.24571317 -0.23156455 -0.23064035 -0.17601876 -0.0438818 0.017820718 0.04870208 0.035241324
0.0004206287 0.040152486 0.014677918 0.027580762 0.11197823 0.12925497 0.08687086 0.03748813
-0.06797793 -0.056402944 -0.10039115 -0.24264137 -0.20874713 -0.09074652 0.0015881639 0.21430962
0.23522784 0.2128102 0.015655091 -0.13839784 -0.25221083 -0.29467928 -0.20100845 -0.1851056
-0.109155126 -0.0012997645 0.008873311 0.017939815 0.024331452 0.04443044 0.03335784 0.021317318

fc1.bias f4 [256]
00000000: 89bf e3bc aba1 ffbc 385d 14bd f869 2dbc
00000010: 5292 fbbc 4392 83bb 1f9f 65bc fc79 ffbc
00000020: 3207 8cbc 7f9a 1f39 dfff 2ebc b6a4 113b
00000030: d859 91b8 198d 87bd 47a9 633c aa5b 4dbd
00000040: c237 9fbb 9ee3 22bd f2b1 27bc d5d4 0abd
00000050: 2b2e 80bb fbd3 b63c 4cff cf3c 09a0 c2bc
00000060: b1d0 15bd 8ef1 99bc 3791 9bba 5f0f 30bd
00000070: 4107 ed3b d350 d9bc ca45 acbb d95d 9d3a
00000080: 6485 03bd f8e0 73bd 00d2 55bd 9e65 a5bd
00000090: 6951 cebc 180f 44bd c299 49bd 8b70 0d3c
000000a0: 68ba a2bc 5e74 a2bd 90d2 e9ba 8e9a 4dbd
000000b0: 40d9 6cbd 11a0 56bd 57b2 363c b15e dfbc
000000c0: 3707 50bd e696 1cbd 67ee 313b 2825 18bd
000000d0: 6ed1 cebc d247 e1bc 9fbe edbb 9e0c bf3b
000000e0: 607d a9bc 4ddf 24bd a259 02bd 8edc febb
000000f0: bc53 43bd dc8a 23bd 73dd 3ebd a461 d1bb
00000100: e5ef 5abd 2230 b6bc c24c 2abc b6fa 873b
00000110: 19e7 493d 2ed7 0dbd 254f 77bd b0e7 82bd
00000120: c491 c5bb 1805 7cbb e9ad 70bd 1112 b0bc
00000130: f670 efbc e4b4 a1bc 35ee 913b 2409 673c
00000140: 883d 56bd ea18 91bc 81d2 d1bc 3b35 16bd
00000150: 44de 8a3c 9c62 39bc f578 4dbd 6f2b b0bc
00000160: 08b5 f0bc fe12 29bc bc29 8f3c 5ab2 00bd
00000170: dfad 513c b4f3 3cbd b735 4bbd 4f4a 2b3c
00000180: 1248 3fbd 4759 6dbc 3608 7b39 e769 803c
00000190: 46ff 07bd 5ccc b13b c3a9 ffbb 5140 53bd
000001a0: c095 123c 53f0 483d 89f9 df3b 18c6 12bd
000001b0: 34a3 18bd f0fb 6d3c 9885 4cbc 7f47 1bbc
000001c0: 924f 8f3b d0d2 9c39 de87 88bc 294e 25bd
000001d0: edab eb3b 8856 b637 7631 45bd fe70 0abd
000001e0: 80c6 9339 b463 09bb 9dca 0e3c 3a1d 57bc
000001f0: e689 00b7 9116 a83b cefd c63b 54c3 cb3a
00000200: 0429 923c 9698 f4bc 005c e3bc 702a ce3b
00000210: 36cc ba3c d32c 833b b581 d2ba b7cc 01bc
00000220: 155a fbbc 7433 663b b73f 06bd 2a2e 1dbc
00000230: 9336 9cbb 4520 ca3b c0d1 42bd 7a61 ee3c
00000240: 6850 fdbb b94e df3c 348c 56bc 2dee 07bc
00000250: b499 4d3c 08ac 7bbd 2881 2bbc bd4f 793c
00000260: 18c3 4bbd 5268 49bd 825e 0a3c 653d 433c
00000270: 9508 3c3c cc71 99bc 19c3 3e3c 09ee 91bc
00000280: 7446 adbc 0d61 383b 1776 9e3c cb66 e93b
00000290: 973c 9bbc 1033 14bd 4cb5 86bc 0eee 2ebd
000002a0: a822 cabc a2d0 70bc 3aae 09bd ac1a 5fbc
000002b0: a40b 6f3c 6c62 2d3c f4dd 54bd 705d f4bc
000002c0: ca4a 00bd 0c0d d0bb 2062 23bd 61ec ddbb
000002d0: 54a7 2dbc 94f7 cabc eafc 2b3c 0b9d 1e3a
000002e0: 2c1c 11bd 3038 c9bb 45d5 f3bc d348 bcbc
000002f0: 1093 af3b 31c8 aabc 7202 00bd 77ef 7ebd
00000300: a8e7 f4ba 42b2 ebbb 950c 3abd 31f7 15bd
00000310: fc1a f33a 1fa4 58bd 1a64 13bd 8c68 b7bc
00000320: 0861 8cbd 2005 b4bb 2074 6dbd c13e 7ebd
00000330: 4a95 38bd 746f eabb 2da8 0fbd 133a d93c
00000340: b1e5 6cbd 2544 bb3b 7c0b e03b 1e95 4abb
00000350: f215 52bd e1e5 08bc 2259 44bd 0623 87bb
00000360: 3c0d 173c f83e 70bc 6494 4c3c 8e55 ccbc
00000370: dd90 aebc d216 acbc 243e 3dbd cf47 8ebc
00000380: 34ef 84bc f9f1 06bd 6cfe 953c 40c5 b3bc
00000390: b400 50bd 0f41 87bd dadd 0f3c ee5b 053c
000003a0: 7705 44bd 1ee9 bb3c 20cf a6bc 28ab e03c
000003b0: b71c 65bb ddcf 393c dbf1 6bbc b6cd ee3c
000003c0: cb2e c4bb 06c2 01bd 2e6d 6abc f6b3 a7ba
000003d0: 00d5 36bd 2703 d9bc caa3 423b 10f3 00bd
000003e0: 0d98 f3bc 630b b73a 76c8 023c 58d0 943c
000003f0: 3b05 9dbc 5f5c 843c e2e2 a2ba a74e 52bd
-0.027801292 -0.031205019 -0.036221713 -0.010584347 -0.03070942 -0.0040152385 -0.014014988 -0.031186096
-0.017093275 0.00015220976 -0.010681122 0.002222342 -6.9308735e-05 -0.06618709 0.013895339 -0.050136246
-0.004858942 -0.039767854 -0.010235297 -0.03389438 -0.0039117537 0.022317877 0.02539029 -0.023757951
-0.036575977 -0.01879194 -0.0011868839 -0.04298341 0.0072335307 -0.026527798 -0.005257343 0.0012006118
-0.032109633 -0.05954072 -0.052202225 -0.080760226 -0.025185304 -0.047865957 -0.0492189 0.008632789
-0.019864276 -0.079323515 -0.0017839242 -0.050196223 -0.057824373 -0.052398745 0.011150918 -0.027266832
-0.05078813 -0.038229845 0.0027150156 -0.03714481 -0.025246348 -0.027500067 -0.00725539 0.0058303615
-0.020689666 -0.04025202 -0.03182376 -0.007777757 -0.047687277 -0.03992735 -0.04659791 -0.0063898135
-0.053451438 -0.022239748 -0.010394277 0.00414976 0.049292658 -0.03462904 -0.060378212 -0.06391847
-0.0060293395 -0.0038455185 -0.058759604 -0.02149299 -0.029228669 -0.019739576 0.0044534453 0.0141013
-0.052304775 -0.017712075 -0.025613071 -0.03667186 0.016951688 -0.011315014 -0.05016418 -0.021505086
-0.029383197 -0.0103194695 0.017475955 -0.03142009 0.012797802 -0.04613085 -0.049611773 0.010454728
-0.04669959 -0.014486617 0.00023940284 0.015675498 -0.033202432 0.005425973 -0.0078022196 -0.05157501
0.008946836 0.049057316 0.006835167 -0.03583345 -0.037265018 0.014525399 -0.012483023 -0.009477495
0.004373499 0.00029911706 -0.016666349 -0.040357742 0.007192126 2.1736385e-05 -0.048142873 -0.033799164
0.0002818592 -0.0020963969 0.008715299 -0.013129527 -7.6615015e-06 0.0051296433 0.0060727363 0.0015545883
0.017841823 -0.029857915 -0.02775383 0.00629168 0.022802453 0.004003146 -0.0016060384 -0.007922343
-0.030682603 0.0035125883 -0.032775607 -0.009593526 -0.004767248 0.0061683976 -0.047563314 0.029099215
-0.0077305324 0.027259218 -0.0130949505 -0.008296532 0.012548853 -0.06144336 -0.010467805 0.015216765
-0.049746603 -0.049171753 0.008445384 0.011916493 0.0114766555 -0.01873102 0.011643195 -0.0178137
-0.021151759 0.0028134019 0.019343419 0.0071228496 -0.01894979 -0.03618151 -0.016443871 -0.042707495
-0.024674729 -0.014698179 -0.03361342 -0.013617199 0.014590178 0.010582548 -0.051969483 -0.02982971
-0.031321324 -0.0063492116 -0.0398885 -0.0067725633 -0.010598976 -0.024776258 0.010497311 0.0006050623
-0.035427257 -0.0061407313 -0.02976478 -0.022983944 0.0053581074 -0.020847412 -0.031252332 -0.06224009
-0.0018684762 -0.007192881 -0.045422155 -0.036612693 0.0018547471 -0.052890893 -0.035984136 -0.022388719
-0.06854445 -0.005493775 -0.057972074 -0.062071566 -0.04506425 -0.0071543995 -0.035072494 0.02651695
-0.05783624 0.0057149106 0.0068373065 -0.0030911635 -0.05129046 -0.008355589 -0.047936566 -0.004124048
0.009219464 -0.01466345 0.012486551 -0.02494314 -0.02130931 -0.021006975 -0.04620184 -0.017368225
-0.016227342 -0.032945607 0.018309794 -0.021944642 -0.05078192 -0.06604206 0.008780921 0.0081395935
-0.047856774 0.022938307 -0.020362437 0.027425364 -0.0034959742 0.011341062 -0.014400925 0.029150825
-0.0059870235 -0.031679176 -0.014308257 -0.0012794721 -0.044636726 -0.026490761 0.0029699677 -0.031481802
-0.02973559 0.0013965185 0.007982364 0.018165752 -0.019167533 0.016157327 -0.0012427235 -0.05134454

fc2.weight f4 [128, 256]
00000000: b671 b7bd a0a1 a8bd 4408 a53c 3484 a1bc
00000010: 20bf 2abd 8e70 74bc 303d 8dbd 3976 973c
00000020: 172e bdbd e999 42be 8781 d33d c889 2e3d
00000030: a9e3 b63c b35d fb3d 265b 72bc fa74 483c
00000040: d27c 043d 0013 9b3a c698 70bb 7570 383e
00000050: 180f 5fbb 8e71 4dbe 8adf 12be 63a3 9cbd
00000060: 7272 b33d 174c bfbc 13ba 30bd 9848 ab3d
00000070: 8858 043d 7e9c d93d a4b7 98bc e442 fb3c
00000080: 40ae e1bc 8ed1 84bd df53 ae3d 6f48 4e3d
00000090: 3879 203d 9993 48bd 389e 213d 18f3 83bc
000000a0: ab26 4c3d 3b8e 18be aae1 d4bb 5b4d e6bc
000000b0: d06e 70be 809c 81bc 4fc0 963d b3c9 abbd
000000c0: 13ed 11bd 865c f0bc 0cac 0fbe 21a8 083e
000000d0: f9cb 66bd 6172 db3d 8320 7fbd 7008 943d
000000e0: 72af 153d fcc9 573d 020c dabd 94e3 533d
000000f0: a2a0 4fbd 59bc d93c f642 05bc abac 18be
00000100: ec56 ddbc 4a14 283c 80bd 2aba 8db0 563b
00000110: e7b2 e4bd 987c b33c d873 21bd c439 a9bd
00000120: 5c0d 4abd 6936 97bd 9846 673d 4e6d f2bb
00000130: e27d 2b3d d620 0bbd 491f 1cbc 2aaf 26bc
00000140: 1190 24be d593 a2bd 9ceb fe3b d46e cc3a
00000150: c2eb 37bd f011 1e3d 853a b1bd 7954 a63c
00000160: c634 1ebd 6b2b ab3c a5b9 87bc 4854 6cbc
00000170: d6b1 4fbe 89a4 a9bb 4805 a2bc c828 b0bc
00000180: acd5 8c3d 6d72 9d3d 443d 93bd b1a7 40be
00000190: 5c08 64bd 3caf 103d e8d5 49b8 2683 11be
000001a0: 32da 04bd d232 86be a0b9 40bd b803 a03d
000001b0: b240 89bc ba9d 4abd 4aca 5f3d ecb2 f9bd
000001c0: 8c69 1cbd e623 c1b8 e0f3 ea3c 904d 8bbd
000001d0: bd1b 993d 6dda c9b8 5790 f33c 6f1e ebbd
000001e0: d428 003d 3cbf 7fbd 3c48 533d 7d5b d93b
000001f0: 4614 e7bc 1341 203d 9dea 97ba a5b0 dbbd
00000200: d36f ab3d 67ac 713d 6792 a03c 166f 4b3d
00000210: 15df c5bd bf96 04bb cb5e 5f3c c50d 683d
00000220: 3d69 6a3c 5128 48bd 03b3 1ebe 4c04 e93c
00000230: bd25 01bd 2942 c03d 0b65 2abb 2656 84bd
00000240: 94b3 1a3d 1317 003c eb39 d6bd 94bb b7bc
00000250: dee7 873c 8cd0 eabb 06aa a4b9 c673 0e3e
00000260: 4dd8 90bc 6a65 03bd 2ad5 8fbd 5c9c 133e
00000270: ecfa 973c cd21 04bc 8eb5 cebc e077 2f3a
00000280: 6aee 95bd 5513 d33b 44e6 4e3d 5d32 483e
00000290: 52bb 063d 0a0f 39bd 60b1 58bd cc55 6b3c
000002a0: 4509 16bc a7c6 a43b 2e7c 14bb 9223 893d
000002b0: 400d 29bb 146a 933d fa25 7dba 1e1b 8d3d
000002c0: 1e64 1f3d 3ad2 2f3d 202f dcbb b947 b3bd
000002d0: 4057 bb3b 93b9 093e d135 403d 6f6e 68bd
000002e0: ba4e 56bd bca4 51bd 76f9 4fbc 5440 4e3c
000002f0: 84a5 d7bc 41b1 a2bd 6838 85bd 2085 60bd
00000300: 2aae 38bb 346f c4bd f86e 5ebc b4ef 52be
00000310: 96b6 8a3d c0d8 89bd c5ae 193d dd4f 623d
00000320: ba04 21bd 74d2 b2bd 4278 023d 80ff 35bd
00000330: aa44 633d 2917 8abd 3d12 63bc bf6f c3bc
00000340: 0136 a13d fc1a a4bc 690e afbd 2466 01be
00000350: a312 7dbb 97bd e1bd 05c2 47ba 0729 d5bd
00000360: ca09 09bd 5ae9 97bc eb17 0ebd 1e62 9a3d
00000370: c997 36bd cb33 e83c ef64 b3bc cd5e 023d
00000380: c80c d83c f2f6 26bd fd9e 2ebe 4546 c63c
00000390: 846b 5d3d 3dae 4ebe eef2 b63e 627e 03bd
000003a0: 7448 a1bd 0b7f c53d a97c 193a ec35 ae3d
000003b0: 69ab bfbc 92f1 e8bd eca6 1dbe f162 8dbd
000003c0: d849 52bd 2f65 f9bc 49d7 e0bc 31f0 0bbe
000003d0: ae53 a23c 5418 10bd 7382 cfbd 38fb d03a
000003e0: d3d1 a63d 28c3 96bd c9a4 1fbd 5b3c 61bd
000003f0: fc8d 113c c10f 813d 5cef 893c 493a 63bd
-0.089572355 -0.082339525 0.020145543 -0.01971636 -0.041686177 -0.014919413 -0.06896436 0.01848899
-0.092373066 -0.19004025 0.1032744 0.042611867 0.022325354 0.12273731 -0.014792239 0.012234921
0.0323456 0.0011831224 -0.0036712154 0.18011649 -0.0034036096 -0.20062849 -0.14343086 -0.07648351
0.08762063 -0.023351712 -0.043146204 0.083634555 0.032310992 0.10625552 -0.018642254 0.030671544
-0.02754891 -0.06485282 0.08512091 0.050362047 0.039178103 -0.048968885 0.03945753 -0.016107127
0.049841564 -0.14898007 -0.006496628 -0.028113058 -0.23479772 -0.015821695 0.07360899 -0.083880804
-0.035626482 -0.029340994 -0.14030474 0.13345386 -0.056346867 0.107151754 -0.062286865 0.07228172
0.03654427 0.05268286 -0.106468216 0.051730707 -0.0506903 0.026579069 -0.0081336405 -0.14909618
-0.027018987 0.010258744 -0.0006513223 0.003275904 -0.111669354 0.021909997 -0.039417118 -0.08262971
-0.049329147 -0.07383425 0.056463808 -0.007398284 0.041868098 -0.03396686 -0.009528943 -0.010173598
-0.16070582 -0.07938353 0.0077795517 0.0015596994 -0.04490257 0.038591325 -0.0865374 0.020303952
-0.038624547 0.020894727 -0.016568014 -0.014424391 -0.20282683 -0.005177085 -0.019777909 -0.021503821
0.06876692 0.076878406 -0.0718942 -0.18813969 -0.055672035 0.035323367 -4.812135e-05 -0.14210185
-0.03243465 -0.26210648 -0.047052026 0.07813209 -0.016754482 -0.049466826 0.054636277 -0.1219233
-0.038186595 -9.209644e-05 0.028680742 -0.06801903 0.07475994 -9.625112e-05 0.029731913 -0.11480414
0.031288937 -0.062438235 0.05158256 0.0066332207 -0.02820791 0.03912456 -0.0011590306 -0.10727052
0.08370938 0.059002306 0.01960106 0.049666487 -0.0966169 -0.0020231453 0.01363344 0.056653757
0.014307317 -0.048866574 -0.15497975 0.028444432 -0.03153013 0.09387619 -0.0026000168 -0.06461744
0.037768915 0.007818001 -0.10460266 -0.022428311 0.016590055 -0.007165974 -0.00031407195 0.13911352
-0.017681265 -0.032079138 -0.0702308 0.14415115 0.018552266 -0.008064699 -0.025233056 0.0006693583
-0.073208645 0.0064415135 0.050512567 0.19550462 0.032893486 -0.045180358 -0.052903533 0.014363717
-0.0091574835 0.005028564 -0.0022657025 0.066962376 -0.002579525 0.07197967 -0.0009656843 0.06889938
0.03891384 0.042925097 -0.006719485 -0.087539144 0.005717188 0.13449697 0.046926323 -0.056745943
-0.052321173 -0.051182494 -0.0126937535 0.012588579 -0.026324041 -0.07943965 -0.06504899 -0.054814458
-0.0028179982 -0.09591523 -0.013576262 -0.20599252 0.06773107 -0.06730795 0.03752019 0.055251945
-0.03931115 -0.08731547 0.031852968 -0.044433117 0.055485405 -0.06742699 -0.013859329 -0.023856996
0.078716286 -0.020032398 -0.085476704 -0.1263662 -0.0038615845 -0.110224895 -0.0007620159 -0.10408216
-0.0334566 -0.018543888 -0.03469078 0.075382456 -0.044578347 0.02834501 -0.021898715 0.03182869
0.026373282 -0.04076285 -0.17052837 0.024203429 0.054057613 -0.20183654 0.35732216 -0.03210295
-0.078751475 0.09643372 0.00058550626 0.085063785 -0.023397164 -0.11374201 -0.15395707 -0.06903637
-0.051339954 -0.030443756 -0.027446406 -0.13665845 0.019815292 -0.03517945 -0.10132303 0.001594401
0.081454895 -0.07361442 -0.03897551 -0.0549892 0.008883949 0.06301833 0.016837768 -0.055475507

fc2.bias f4 [128]
00000000: 1aa4 b9bc ee32 87bd 3810 0abd f641 59bc
00000010: ebe0 aabc d2f4 90bd b8ae c93d 0bc9 6f3d
00000020: 181c 5abc 795a e3bd bdfa 03ba f5db 173e
00000030: ba46 13be 9657 37bc fbd4 513b 303e 67bd
00000040: 943f 0ebd e221 a6bd d64a 3ebd 35f3 fcbd
00000050: 3b9f cabd ace6 59bd 5f7d cebd 0844 a3bd
00000060: 0395 843c 4d03 b9bd 892a 53be 0acb 013d
00000070: d6ad 6f3d b486 5e3d f5f3 f2bd d902 0abd
00000080: 6ca3 873a 7343 29bd 9df4 cb3b 5bc8 433d
00000090: f1a1 84bc 362a 92bd 0b3a 55bd 81e8 a8bd
000000a0: f0d8 ba3c 4cac 8cbd 3e39 503d 4b45 d0bd
000000b0: 783d f0bd 62f5 463e a387 c03c 3d94 2fbd
000000c0: f438 b6bd 301d 64bd 7199 11bd b6aa 95bc
000000d0: 3e41 6fbd 1633 a5bc 5de0 e13a 0f50 2a3d
000000e0: 34f2 863d 0aa1 133c 2395 b1bd 7c32 85bc
000000f0: db4c c3bc 26d1 153e e8bf 87bd 9e07 233c
00000100: 0380 f8bb a253 b0bd 9638 f03d f585 97bd
00000110: 31e1 d5bd 77c5 38bd 8f00 e23c 9c62 98bd
00000120: fa81 c63c 5487 863d 2ada 7cbc bfdb 3cbd
00000130: 97fc 093c 875c bc3c 4513 4fbd e0fb 493c
00000140: 04c4 013e d060 24be 90ac dcbd 9845 ddbc
00000150: c612 483e 1f0a 0dbe e856 c3bd 803a a4bd
00000160: c6bd c9bd b660 cebd 5573 3fbc dab7 adbd
00000170: 163c 213e 256d adbd 47c8 a6bd f4de 3abd
00000180: a1d5 ed3d c42c eabd b442 60bc bd02 63bb
00000190: 1a78 013d 2cc0 893d 8a4e de3c c7f8 b0bd
000001a0: 2bb5 2b3d 3ca8 b2bd bb78 3c3e 8f5c 5a3c
000001b0: 7ae9 37bd f0b1 4abe 5839 debd 4789 763d
000001c0: 7415 44bd 01d5 4d3c 594d 3fbd 7e91 b93c
000001d0: 9f1b d9bd 67f1 0d3b bf83 9abd 6a5c 0ebd
000001e0: 5963 343d 7dde 2b3c e4e0 c3bd fad1 56bd
000001f0: b78a bfbd 0324 26bd 0799 eebb e307 183d
-0.022661258 -0.06601511 -0.033706874 -0.013260355 -0.020859202 -0.07077946 0.09847778 0.05854134
-0.013312362 -0.11101241 -0.00050346163 0.1483 -0.14382449 -0.011190316 0.0032017815 -0.05645579
-0.0347286 -0.081119314 -0.046458088 -0.123510756 -0.09893652 -0.0531985 -0.100825064 -0.0797196
0.016184336 -0.09033833 -0.20621695 0.031687774 0.058515392 0.05432768 -0.11862937 -0.033694122
0.0010348386 -0.04132409 0.0062242285 0.047798496 -0.0161905 -0.07136957 -0.052057307 -0.082474716
0.022808522 -0.068688005 0.05083584 -0.101694666 -0.11730474 0.19429544 0.023502177 -0.04286598
-0.08897582 -0.055691898 -0.035546724 -0.018269878 -0.05841183 -0.020165961 0.0017233003 0.041580256
0.06589165 0.009010563 -0.08671024 -0.016259424 -0.023840358 0.14630565 -0.066284 0.009950547
-0.0075836196 -0.08609702 0.11729543 -0.07398597 -0.104433425 -0.045110192 0.027588157 -0.07440683
0.0242319 0.065687805 -0.015432874 -0.046108004 0.0084220385 0.02299334 -0.050555486 0.012328118
0.1267243 -0.16052556 -0.10775101 -0.027010724 0.19538411 -0.13773392 -0.095380604 -0.080189705
-0.098506495 -0.1007704 -0.011685212 -0.084823325 0.15745577 -0.08468083 -0.081436686 -0.04562278
0.11613012 -0.114343196 -0.013687778 -0.0034639083 0.03160868 0.06726107 0.02713706 -0.086412005
0.041920822 -0.087234944 0.1840543 0.013327732 -0.044900395 -0.1979444 -0.10850781 0.06018951
-0.04787202 0.012562991 -0.046704624 0.022652384 -0.106009714 0.002165878 -0.0754466 -0.0347561
0.044040058 0.010490057 -0.09564379 -0.052446343 -0.0935263 -0.040561687 -0.007281426 0.037116896

fc3.weight f4 [64, 128]
00000000: c31a 13bd 5768 0abd 07f2 c93d a482 88bc
00000010: 464d 2fbc 2159 8d3c 5b29 b8bc ef92 453e
00000020: a2d9 c2bd 44b5 593c 604a 11bd 6582 683d
00000030: c0ad e6bc eeaa 80bd 32da 5bbd 4069 a43d
00000040: 900c 8d3c 7567 c93d 1293 e4bc 77a1 d8bd
00000050: 909e 62bd a364 57bd a5b8 ea3c 044f 333d
00000060: 8654 0e3e 200e 15be d2fa e93d 3947 1cbc
00000070: 8d6c 4dbd d5ae 1abd 52ac 00be c4b6 30ba
00000080: 7fa8 01be 8d7a 83bd 0bb3 153e e301 74bd
00000090: 714c 09bd 3fe5 5a3d 2fd5 2e3c 96a8 dc3d
000000a0: 7ecd 79bc 93ed 1b3e 3846 16bd 141a f2bc
000000b0: 0a86 e73d 4136 40bd f3dd b0bd de10 b03d
000000c0: 0230 0a3c 19e1 7cbd bcc5 903d 3eb4 48bb
000000d0: 8074 d13d a2d2 603e ba84 dcbd 1c58 183e
000000e0: dfd3 db3d 0e22 57bd c9f7 0a3e f7c0 6f3d
000000f0: 1080 e03c 6da0 e3bd be1a 213d 5257 303d
00000100: 90aa 9cbc 34bc d33c a29c 27ba 20a2 40be
00000110: 77a2 1c3d c3cd d53d 8934 efbd bf69 d0bc
00000120: 9a7e bf3d 31f2 d93d e305 2e3d afab 263c
00000130: 7ba4 15bd f0d2 05be e22a a2bd a47c 06bd
00000140: 637a 1abe 58ec d9bc 14f1 91bc 29bc 693d
00000150: 27a2 a2bd 91d7 923c 87d7 58bd 1d1a e8bb
00000160: f300 33bd 9ef8 efbc fa91 b5bc 6d99 10bc
00000170: 089e fc3b f7ff dd3d 38fa 80bd 9fcb 0b3d
00000180: 0fc4 713d 6a66 413c 5ae8 e5bb 8570 f3bc
00000190: 8772 3e3d af0b f4bb a669 0fbd 3cf8 8abd
000001a0: 4766 24be 7b22 a0bd c95b 51bc a35f e73c
000001b0: d4e7 96bd df48 97ba 93e5 d63d 64ef 963d
000001c0: 5fab ea3b 2ff1 0e3d f38a aa3d 2e17 473c
000001d0: ae80 2cbd f43c 983d 9826 2a3d 74c0 183e
000001e0: 7869 743d 9f71 ecbd 7fc9 4a3d 4e63 8a3d
000001f0: 270f b4bd 4418 42be a407 9bbd d146 94bd
00000200: d289 8cbd 5ee0 bfbd 1caf 093e 4767 983d
00000210: 5b18 cf3d c2b0 ebbc 5287 c4bc 0ac7 17be
00000220: 48c0 44bd 4d66 243d 68ea 763d def6 893c
00000230: 1204 29be 27b0 bc3d f2c7 1c3e f72e 363c
00000240: adff 7dbd bfb1 a43d 0d2e 07be b35e 0f3e
00000250: 395b 613d 55d4 543a 51de b6bd a86e d03c
00000260: efdf 08be 941f 65be 9754 a7bd 5ccd c7ba
00000270: e892 82bd 7688 ccbb f978 dbbd 1c0b 72bd
00000280: c6fe d0bd b6ba 2cbe 1d6a c2bd 53fb 8d3d
00000290: 7887 d93d fecb 87bd 31bb 06be ac64 803d
000002a0: b5a0 8bbc 02dc 90bd 3cf8 0b3d 71ae 5e3d
000002b0: efcf 66be db9b 223e 803e 073e d274 123e
000002c0: 1b1e 57bd 539c 713d d974 bf3a 31be 393d
000002d0: 5200 383d 6f42 a8bb 8359 8f3d 6a7c 99bd
000002e0: 15d4 d6bd c027 6cbb 63e8 5cbe bdf9 893d
000002f0: fa89 c53c 9d75 253e 6641 d43d 8790 653c
00000300: b19d 95bd 54a4 f0bc 0c71 49bd 68a4 a23d
00000310: 8be7 22be 6482 ecbc 1ea0 243c 6f2d 1abd
00000320: 6ea0 48bd 8cfd 943b f330 883d 3031 33bd
00000330: 2b8c 393e 49da eabd 4ee4 ce3d 8398 11be
00000340: 43a5 9abd c290 423d 0a69 cbbc 010a 51bd
00000350: eb50 20bd cd32 3bbe bbda 27bd efaf bbbd
00000360: 3235 1c3d fdac eebd 264f 553d bed7 b5bb
00000370: b00d 893c a592 143c 0c02 a03c 8dc4 1e3e
00000380: ab29 aa3c 40e0 10b9 8c4d 493c 5abe e7bc
00000390: 68c1 58bd bbde 3fbd 6ef8 83bd bb9e 153d
000003a0: bd66 15be aeea 7fbd ab2b 2d3d 6fdf 753c
000003b0: 88cb 0d3d aedc 5e3d cc44 bbbd cb2f 63bb
000003c0: 85b7 623d 5b88 6a3d 0a2c f23d 55de 353d
000003d0: a270 bb3d 22a6 113c 1d17 49bc 5a0f 93bd
000003e0: 5347 96bd d3e6 073e 36ab bd3c 33e6 93be
000003f0: 2d68 1abe 03ad 1c3d e3b7 403c 0221 56be
-0.035914194 -0.033790912 0.09860616 -0.016663857 -0.010699576 0.017254414 -0.022480657 0.19294332
-0.095141664 0.013287846 -0.03547132 0.05676498 -0.028159022 -0.06282602 -0.053674884 0.08027887
0.017217904 0.09834186 -0.02790216 -0.10577672 -0.055327 -0.05258621 0.028652498 0.043776527
0.1389943 -0.1455617 0.11424793 -0.009538465 -0.05015235 -0.03776439 -0.12565735 -0.00067411014
-0.12661932 -0.06419859 0.1461908 -0.05957211 -0.033520166 0.053441282 0.010670944 0.10774343
-0.015246747 0.15227346 -0.03668806 -0.02955345 0.11304863 -0.04692674 -0.086360835 0.08596967
0.0084342975 -0.061738107 0.07068965 -0.003062501 0.10227299 0.2195535 -0.10767503 0.14877361
0.107337706 -0.05252271 0.13571085 0.058533635 0.027404815 -0.11114583 0.039332144 0.043052025
-0.0191243 0.025846578 -0.00063938845 -0.18811846 0.038240876 0.104396366 -0.11679942 -0.025441049
0.09350319 0.106418975 0.042486083 0.0101727685 -0.036533814 -0.13068748 -0.079183355 -0.03283371
-0.1508575 -0.026601955 -0.01781515 0.05706421 -0.07941084 0.017925056 -0.052939918 -0.007083191
-0.043702077 -0.029293355 -0.022164334 -0.008825642 0.0077092685 0.10839837 -0.062977254 0.034129735
0.059024867 0.011804203 -0.007016224 -0.02971674 0.04649594 -0.007447682 -0.035012864 -0.06785628
-0.1605464 -0.07819077 -0.012778231 0.028243845 -0.073684365 -0.0011542103 0.104930066 0.07369879
0.0071615423 0.03489798 0.08327284 0.012151523 -0.042114906 0.07433501 0.041540712 0.14917165
0.059670895 -0.11545109 0.049508568 0.06757222 -0.087919526 -0.18954569 -0.07569817 -0.0724007
-0.06862225 -0.093689665 0.13445705 0.074415736 0.10112067 -0.028770808 -0.023990307 -0.14822021
-0.048034936 0.040136624 0.06028214 0.016841348 -0.16505459 0.09213286 0.15310648 0.011119596
-0.06201141 0.08041715 -0.1320116 0.14000969 0.055018637 0.0008118798 -0.08929122 0.02544339
-0.13366674 -0.22375327 -0.08170431 -0.0015243697 -0.063756764 -0.0062418533 -0.10716433 -0.059092626
-0.10204844 -0.168681 -0.09492896 0.06932702 0.10621542 -0.06630705 -0.13157345 0.06269202
-0.017044405 -0.07073213 0.03417228 0.05436558 -0.22540258 0.15879767 0.13207436 0.14302376
-0.052518945 0.058986973 0.0014606967 0.045347396 0.04492218 -0.0051348726 0.06999495 -0.07494433
-0.1048967 -0.0036034435 -0.21573023 0.06737087 0.024113644 0.16158147 0.10364036 0.014011509
-0.07305468 -0.029375233 -0.049180076 0.07941514 -0.15908639 -0.028870769 0.010047941 -0.037640985
-0.048981123 0.0045468267 0.06649961 -0.04374808 0.18119876 -0.11467416 0.101021394 -0.14218335
-0.075510524 0.047501333 -0.02483036 -0.05103493 -0.03913967 -0.18281098 -0.040980082 -0.09164416
0.03813667 -0.11654089 0.052077435 -0.0055494 0.01673016 0.009068166 0.019532226 0.15504666
0.020771822 -0.0001381645 0.012286555 -0.028289009 -0.05291882 -0.04684327 -0.064438686 0.03652833
-0.14589973 -0.062479667 0.042277973 0.015006884 0.03461793 0.054409675 -0.09143981 -0.0034665938
0.0553508 0.057258945 0.11824806 0.044401485 0.091523424 0.008889707 -0.012273577 -0.071806625
-0.07337823 0.13271646 0.023152929 -0.28886566 -0.15078802 0.038250934 0.011762592 -0.20911029

fc3.bias f4 [64]
00000000: 90c9 e33d 9546 113e df7b 06be 6938 143e
00000010: a8d5 b43b da2b 6fbd 7e28 44bb 6fee 863d
00000020: a7d6 86bd 5497 39be 86f0 20bc 36d7 12bd
00000030: b9c2 d83d 2c5a b3bd 86fd 0dbd 251c 3dba
00000040: 3848 c8bd 3347 71bd 9923 87bd 4279 0f3e
00000050: 9f4a f1bd 39e6 343d 553e a9bd 554f 8cbd
00000060: 3a5e 023e 12e8 ddbc 5cc8 3cbd 2cfa 8dbd
00000070: 02ad 1cbe ef80 03be ff31 603d c0b9 0bbd
00000080: 65b8 583d 7f23 0dbd e850 f1bd af15 fdbd
00000090: efec 26bd 59bb a4bd 6871 893d 93b5 0f3d
000000a0: eb4c 0fbe b9cb 6f3e 0d44 32bd 180f 88bd
000000b0: 9420 833a 6f6a 27be 4c51 263e 4efe fbbd
000000c0: 211f 6cbd e886 693d cdc4 0a3e 9aae 9e3d
000000d0: 9ed4 0c3d d48e a0bd 3df4 0abe 5600 e53d
000000e0: 8873 de3c 78f8 babc dc21 7d3d 958e 303e
000000f0: 8773 e4bd a65e 31be 2a56 b9bd 6217 203d
0.11122429 0.14187081 -0.1313319 0.14474644 0.005518634 -0.05839143 -0.0029931362 0.06588446
-0.065839104 -0.18124133 -0.00982297 -0.035849772 0.105840154 -0.08757433 -0.034665607 -0.00072139717
-0.097794 -0.05890579 -0.065985866 0.140111 -0.11781811 0.04416487 -0.08263842 -0.06851069
0.12731257 -0.027088199 -0.046089515 -0.06932482 -0.15300372 -0.12842153 0.05473518 -0.034112692
0.052910227 -0.03445768 -0.1178301 -0.123576514 -0.0407533 -0.08043546 0.06711084 0.035085272
-0.13994186 0.23417558 -0.04352193 -0.06643504 0.0010004216 -0.16349195 0.1624195 -0.12304364
-0.057646874 0.057013422 0.13551636 0.07748146 0.034382455 -0.07839742 -0.13569732 0.11181705
0.027154699 -0.022823557 0.06179987 0.1724189 -0.111548476 -0.17321262 -0.090496376 0.0390848

fc4.weight f4 [10, 64]
00000000: 1756 16be 3d46 4abe e94b 8d3d cb95 4d3b
00000010: 4320 99be 565f a43d b321 5a3d 8660 35bb
00000020: 07d8 a7bd 16c3 59be edef 60be c502 fbbd
00000030: f524 1ebe 0f39 543c bc9e 313c 6c25 37bd
00000040: 7f78 2d3d a770 81be a423 a83d 083d 5fbe
00000050: 1d12 1e3d 0648 713d 1361 9f3c 6027 9dbc
00000060: 7ee8 88bd 31c3 9a3d b340 053e 9a8b 0bbd
00000070: 98b6 023e 9797 58be 02c9 13be 69a2 353d
00000080: 75fd 49be 740d a83d 505b 083d d26c fcbd
00000090: d8ce cfbd 09e8 3abe 7592 92bd 093e 0cbe
000000a0: ec10 1f3c 2244 0a3e d602 443d 14b9 193d
000000b0: 06ad a1bd 25e4 48be e014 c5ba 8e15 4cbe
000000c0: 9684 3db9 09ad 2dbd 46be acbd 5ef0 12be
000000d0: 80d0 f63d 324d fabc 3836 a7bd b3fa 0dbe
000000e0: 1c5f b03d ef70 17be cdc6 9bbb 3e07 e4bc
000000f0: ff94 17be 3b86 8f3d 2375 36be fb27 1dbe
00000100: 15a2 8dbd ab47 a33d 27f7 71be b274 8ebd
00000110: 46c3 aa3d 2c38 4fbd aa22 72be 909e 78be
00000120: 9d5c a0bd ad03 b63d 6ec3 d83d 4d5a 7abd
00000130: 3e55 023e 3359 09be bac1 3ebe 2c9b c9bc
00000140: d9cd 6ebe 822f aabd 13e2 4a3d 3a6b 27be
00000150: cd56 71bc bc26 86bd 86fa 9e3d 7620 2f3e
00000160: 4b87 8bbd b9fc cdbd 6f40 b2be a729 a5bc
00000170: 0dbb d23d 0bbb d93d cd0f a63d d815 9cbe
00000180: 2db2 383d 2a83 6fbd 6282 4f3d 4b82 0cbc
00000190: c501 46bd 7fd2 8fbe 4e91 e13c 854f 1fbe
000001a0: fc10 46be 976f 85be 1d70 adbe 540b 9cbc
000001b0: b3be c3bc 2c09 e7bd 70ec 1ebe 4b68 033e
000001c0: 9c18 fe3d 52c2 08bd 20c3 043e 6975 74be
000001d0: 3aae 1fbe ecbe 53bb 60d8 26be 7cbe b53c
000001e0: aa58 5ebe d810 aebd e145 42be efed ca3d
000001f0: c188 603c 1684 96ba 380a b73d 2eeb 0f3e
00000200: 589a 84bd 5752 63bd 8235 34bd 94ca 6bbb
00000210: 1a53 a9bd 7ac5 373e f304 233e 0b45 233d
00000220: 4613 e1bb bc2d ea3d 41fb 0cbe 6e3c d03c
00000230: 48b7 13be 2177 2b3c ea9d 9e3d 4544 b63c
00000240: 7f8d cd3d 89b0 15bd ced3 b63c 3d90 cebd
00000250: 9c3e 943d adfe ccbc d332 a23c d364 763b
00000260: ce8b 9a3d e6d0 3dbe ff7a 18be 4fa5 7b3c
00000270: 7c23 d33d 4ea3 21be e5d5 10be 684f 53be
00000280: ec9f 203e c622 85bd 04e1 de3d 1b96 113d
00000290: c6ef c13c 37b2 85bc a2fe 25bd bf31 a63c
000002a0: fee4 34bd c490 02be 3526 27be ce86 473d
000002b0: f7e5 21be 7664 903c 91c1 80bd 7b1f 953d
000002c0: 1ef9 b03d f589 2bbe d7ad fc3b 698a 83bd
000002d0: 33a8 95bc 974a b5bd 3b75 c2bd 18bc dbbd
000002e0: 78d0 2fbe d138 ef3d 566d 06be 1901 8bbe
000002f0: 8e05 263d 9768 043d 9ce4 89be 002f 11bd
00000300: 2196 af3d 6771 e9bd 51bf 96bd acc8 0c3e
00000310: f278 94bc 40c4 4b3c f07b cbbd c9d8 0a3e
00000320: 1bd6 aa3d a433 a73d ad3c d23d 7405 1bbd
00000330: 6ad8 a1bb 701f 93bd d565 463c c3fe 893d
00000340: 36e3 403d ab96 0ebe 3202 393d 7f07 4ebe
00000350: ca60 343d 55b3 4fbd 2239 01be 850e 68bd
00000360: b244 10bd 6886 c2bd f6f6 c8bd c002 77bb
00000370: fcd1 dabd 38d5 ad3d 595a 07be c2f1 4bbd
00000380: 6d63 67bc 5414 513d 6e7a e3bd 3ce1 163c
00000390: 562a b83d c810 a4bd e46a bd3c 696b 123c
000003a0: 860d 06bc ae30 3ebe f138 dc3c b8af ac3c
000003b0: 44da 023d 1ce0 d2bd 0a59 11be cc5f 743d
000003c0: 43ce 11bc 177f b73d c1ba 4fbb 976f e93d
000003d0: 23e6 db3d c137 a6bd f99f 453d 57ff ff3d
000003e0: 1ced 71be cbeb af3d 7588 c0bd dc5a 07bd
000003f0: 2ef1 1b3d ac18 053e 9d6e 01be c098 cdbd
-0.14681278 -0.19753356 0.06899244 0.00313698 -0.29907426 0.080259964 0.053254794 -0.002767594
-0.08195501 -0.21265826 -0.21966524 -0.122563876 -0.15443785 0.012953057 0.010841068 -0.044713423
0.042351242 -0.2528126 0.08209923 -0.21800625 0.038591493 0.058906578 0.019455468 -0.019183815
-0.06684969 0.07556761 0.13012962 -0.03406868 0.12764966 -0.21151577 -0.14432147 0.04434434
-0.19725592 0.08205691 0.033290207 -0.12325443 -0.10146874 -0.18252577 -0.07156841 -0.1369554
0.009708624 0.13502553 0.047854267 0.03753002 -0.0789433 -0.1961828 -0.0015036128 -0.19930097
-0.00018073837 -0.042401347 -0.08434729 -0.14349505 0.12051487 -0.030554388 -0.08164638 -0.13865165
0.08611891 -0.14789174 -0.0047539235 -0.027835485 -0.14802931 0.07008024 -0.17818122 -0.15347283
-0.0691568 0.07972654 -0.23629437 -0.069558516 0.08338027 -0.05059068 -0.23646036 -0.24279237
-0.078301646 0.0888742 0.1058415 -0.061121274 0.1272783 -0.13412933 -0.18628588 -0.024610125
-0.23320712 -0.08309843 0.049532007 -0.16349497 -0.014730168 -0.06550357 0.07762627 0.17102227
-0.068129145 -0.10057969 -0.34814784 -0.020161463 0.10289583 0.10631379 0.081084825 -0.30485415
0.045091797 -0.058474697 0.050661452 -0.008575986 -0.04834153 -0.28090283 0.027535107 -0.15557678
-0.19342417 -0.260617 -0.33874598 -0.01904837 -0.023894643 -0.11281046 -0.15519881 0.12832753
0.124070376 -0.033388443 0.1296506 -0.23872913 -0.15593806 -0.0032309843 -0.16293478 0.022185557
-0.2171351 -0.084993064 -0.18971969 0.099086635 0.01370448 -0.0011483456 0.08937496 0.14054558
-0.06474751 -0.055498447 -0.04399634 -0.00359789 -0.082678035 0.17946425 0.15919857 0.039860766
-0.0068687527 0.114345044 -0.13767721 0.02541944 -0.14425385 0.010465414 0.077449635 0.02224935
0.10036754 -0.03654531 0.022317793 -0.10086105 0.07238504 -0.025023783 0.019799626 0.0037596717
0.07546197 -0.1853672 -0.1489067 0.015359237 0.103095025 -0.15784952 -0.14144094 -0.2063576
0.15686005 -0.06500773 0.10882762 0.035543542 0.023673903 -0.016320331 -0.04052604 0.020287393
-0.044163696 -0.12750536 -0.16323169 0.048712544 -0.15810381 0.017626029 -0.0628692 0.07281395
0.08641265 -0.16751845 0.007711153 -0.06422884 -0.01826868 -0.088521175 -0.09495016 -0.107292354
-0.17169368 0.11680759 -0.13127646 -0.27149275 0.04053264 0.032326307 -0.26932228 -0.035445213
0.08573557 -0.11398583 -0.073607095 0.13748425 -0.018124077 0.012436926 -0.099357486 0.1355926
0.083416186 0.081641465 0.10265479 -0.037846997 -0.0049391286 -0.071837306 0.01210924 0.06738045
0.047091685 -0.13924663 0.04516811 -0.20120047 0.044037618 -0.050708134 -0.1261945 -0.056654472
-0.035221763 -0.09498292 -0.09812729 -0.0037690848 -0.106845826 0.08487934 -0.13218059 -0.049791105
-0.014122826 0.051044777 -0.11107336 0.0092089735 0.0899245 -0.08011013 0.023122258 0.008936741
-0.008181935 -0.18573257 0.02688262 0.021079883 0.031946436 -0.10296652 -0.14194122 0.05966167
-0.008899274 0.08959787 -0.0031697007 0.11398237 0.107372545 -0.08116103 0.048248265 0.12499874
-0.23625606 0.08589896 -0.09401027 -0.033045635 0.038071804 0.12997693 -0.12639852 -0.100389004

fc4.bias f4 [10]
00000000: fb60 8fbd e24c 0dbe e55b 86bd 730f 8a3d
00000010: 5ae4 613d 3d7d 84bc b3c9 ac3d c070 5dbe
00000020: 1f2b b93e cb79 9e3d
-0.070009194 -0.1379886 -0.06560496 0.06741228 0.055149414 -0.016173 0.084369086 -0.21625042
0.3616571 0.07738074
