src/server/21485853154599439.pt (torch, 973831 bytes, 8 tensors)

fc1.weight f4 [256, 784]
0	0x3ceed0ba	0.029152263
1	0x3c696f91	0.014247791
2	0x3d229a90	0.039698184
3	0x3c3b93d5	0.01144882
4	0x3bf1f251	0.0073836227
5	0x3cb265c0	0.021777034
6	0xbbf34dc2	-0.007425041
7	0x3cc1548a	0.023599882
8	0xbc4f5765	-0.012655114
9	0xbcba88de	-0.022770341
10	0x3cee9194	0.029122151
11	0x3c7ebf14	0.015548486
12	0x3ced8279	0.028992878
13	0xbc305310	-0.010761991
14	0xbc2391e5	-0.009983514
15	0x3c128859	0.008943641
16	0xbc2c312f	-0.010509773
17	0xbcb18376	-0.02166913
18	0x3c42a913	0.011881131
19	0x3cd6cc70	0.02622053
20	0x3bfb8664	0.0076759327
21	0xba9e2218	-0.0012064604
22	0x3b93666e	0.0044982946
23	0xbccc5c9e	-0.024946507
24	0x3c15b4af	0.009137317
25	0xbc05a049	-0.008155891
26	0x3cecf4c2	0.028925303
27	0xbc382169	-0.011238434
28	0xbce7355a	-0.028223682
29	0xbc40acf9	-0.01175999
30	0xbcdb1bde	-0.026746687
31	0x3d0d019e	0.03442537
32	0xbcdf8502	-0.027285103
33	0xbce1b54e	-0.027552273
34	0xbc9ec7cd	-0.019382382
35	0xbc7b04af	-0.015320941
36	0xbcc185e4	-0.023623414
37	0xb9b289be	-0.00034053432
38	0x3ccb85ef	0.024844138
39	0x3d10a2a1	0.035311345
40	0xbba229e6	-0.0049488423
41	0xbc09f316	-0.008419773
42	0x3c1f09c2	0.009706916
43	0xbc8b6f5a	-0.01702087
44	0x3ce6d9f7	0.028180106
45	0x3d0c26e1	0.034216765
46	0xb92017f4	-0.00015267712
47	0xbcdb7411	-0.026788743
48	0x3bc078ad	0.0058737607
49	0x3d02af77	0.031905618
50	0x3b06f9dc	0.0020595705
51	0x3b9d1887	0.0047941837
52	0xbc544b63	-0.012957427
53	0xba9c6bb8	-0.0011933958
54	0xbafc07c0	-0.0019228384
55	0xbb784f27	-0.0037888975
56	0x3cc95956	0.024578732
57	0x3cb07cb0	0.02154383
58	0xbacfe50b	-0.0015861107
59	0xbc0061ca	-0.007835815
60	0x3ce4de96	0.027938168
61	0x3cacef10	0.021110088
62	0xbc2ca46d	-0.010537249
63	0x3cc96416	0.024583858
64	0xbcb7939e	-0.022409257
65	0x3d132fd3	0.03593428
66	0x3cd8924f	0.026436953
67	0x3c1e7077	0.009670368
68	0x3d2381a2	0.03991855
69	0xbb115673	-0.0022176772
70	0x3bbca980	0.0057575107
71	0x3d5fcf78	0.054641217
72	0x3cb69f3b	0.022292724
73	0xbbfeba4d	-0.0077736736
74	0x3c579006	0.013156896
75	0x3c6c4998	0.014421843
76	0x3b9d98cb	0.004809474
77	0x3cd23ef5	0.025664786
78	0x3c2a382c	0.010389369
79	0xbcad9ba8	-0.021192387
80	0xbc150cdb	-0.009097303
81	0xbcced2ea	-0.025247056
82	0x3c01778a	0.0079020355
83	0xbc269c3f	-0.010169088
84	0x3c9f2b90	0.019429952
85	0x3c8b0362	0.016969386
86	0x3c9123f9	0.017717348
87	0xbc426fb4	-0.011867452
88	0x3c8ca1f8	0.017167076
89	0x3c551eac	0.013007801
90	0x3c91d1f2	0.017800305
91	0xbb9c8564	-0.0047766436
92	0x3a450d6d	0.0007516954
93	0xbcfb58fc	-0.03068208
94	0xbc8ac0ca	-0.016937632
95	0xbc3bd058	-0.011463247
96	0xbc19ddba	-0.009391243
97	0xbc465f34	-0.012107659
98	0xbca15c12	-0.019697223
99	0x3d135499	0.03596935
100	0x3bbb3b2a	0.00571384
101	0xbad2003c	-0.0016021798
102	0xbc8cd2fc	-0.017190449
103	0x3ba49f54	0.005023876
104	0x3cc20da2	0.023688141
105	0xbbaf9456	-0.005358259
106	0x3ce92d5f	0.028464017
107	0x3d2a8f91	0.04164082
108	0xbce33dde	-0.027739462
109	0x3d2b933f	0.04188847
110	0x3bc61267	0.006044674
111	0x3d21d2dc	0.03950773
112	0x3d20e778	0.039283246
113	0xbcb81342	-0.02247012
114	0x3b8e623e	0.0043452075
115	0x3c39936e	0.011326654
116	0xbc859e59	-0.016310858
117	0x3bc6a3db	0.0060620136
118	0xbb1adfa5	-0.0023631838
119	0x3c2c278f	0.010507478
120	0x3c9f9b72	0.019483302
121	0xbd122c6b	-0.03568689
122	0x3bb36580	0.005474746
123	0xbbadf804	-0.005309107
124	0xbb3a9f49	-0.002847629
125	0x3c104d91	0.008807556
126	0x3d42ef51	0.04759151
127	0x3d94b40f	0.07260906
128	0x3d5ce94e	0.053933434
129	0x3dc3d85c	0.09562752
130	0x3d4522dc	0.048128948
131	0x3d57ae07	0.0526562
132	0x39890555	0.0002613465
133	0x3d2eee9c	0.042708024
134	0xbc6151e7	-0.013752437
135	0x3d0abc1a	0.033870794
136	0xbcbda95f	-0.023152051
137	0x3cfe3521	0.031031193
138	0xbc20e27e	-0.009819625
139	0xbc94b8fd	-0.018154616
140	0xbcc80eca	-0.024421114
141	0xbc2eea95	-0.010676046
142	0x3cdf4269	0.027253347
143	0x3cde99ee	0.027173009
144	0xbbb422a1	-0.005497292
145	0xbb700f08	-0.0036630053
146	0xbcddfc16	-0.027097743
147	0xbc4a1f33	-0.01233654
148	0xbcac1b8f	-0.021009235
149	0xbd8322be	-0.06403111
150	0xba984143	-0.0011616129
151	0x3d0cd9bf	0.034387346
152	0x3db62599	0.0889389
153	0x3d9b7062	0.07589795
154	0x3da32910	0.079668164
155	0x3e1f1669	0.15535893
156	0x3d750d91	0.05982739
157	0x3d087b61	0.03332079
158	0x3d94ade9	0.07259733
159	0x3dc15a8d	0.09441099
160	0x3cf97c7d	0.030454868
161	0x3d8669d8	0.06563157
162	0x3c9b4cd0	0.018957525
163	0xbcbe10a7	-0.0232013
164	0xbc8e6f07	-0.017386926
165	0x3cda9758	0.026683494
166	0x3c9d3aa7	0.019193007
167	0x3d0ed2a7	0.034868862
168	0xbc5221ab	-0.01282541
169	0x3d1fe22a	0.039034046
170	0x3c7f23d4	0.015572507
171	0x3c3f41cc	0.011673402
172	0xbcdb007c	-0.02673363
173	0x3c8769dc	0.01652997
174	0xbc68bc3d	-0.014205036
175	0xbd9d70bd	-0.07687519
176	0xbdcf9473	-0.10135736
177	0xbddf1b8f	-0.10893928
178	0xbdfce907	-0.12349134
179	0xbcbf527b	-0.02335476
180	0xbacc7444	-0.0015598615
181	0x3d01191a	0.03151808
182	0x3c979424	0.018503256
183	0x3dc192d8	0.09451836
184	0xbba9b10f	-0.0051785777
185	0x3c94eef4	0.018180348
186	0xbd69e448	-0.05710247
187	0xbc20abb3	-0.009806561
188	0xbd3d1783	-0.046165
189	0x3d295712	0.041342802
190	0x3c31c2cb	0.010849665
191	0xbac2d782	-0.0014865252
192	0xbd10156e	-0.035176687
193	0x3cc4d5bf	0.024027703
194	0x3c4c5f70	0.012473926
195	0x3c927fca	0.0178832
196	0xbba8938b	-0.0051445416
197	0x3c309c4c	0.010779452
198	0xbbd57b0e	-0.0065149134
199	0x3cae8767	0.0213048
200	0xbc3f5e3e	-0.011680184
201	0x3af64cfb	0.0018791253
202	0xbd9479e5	-0.07249812
203	0xbd9ced12	-0.07662405
204	0xbda87997	-0.082263164
205	0xbe055bc5	-0.13023289
206	0xbdff4b69	-0.12465555
207	0xbd9c1791	-0.076216824
208	0xbd187dc0	-0.0372293
209	0xbd00a098	-0.031403154
210	0xbd813857	-0.06309574
211	0xbcfd7972	-0.030941699
212	0xbd55547e	-0.05208253
213	0xbde985c5	-0.11402468
214	0xbdb801f2	-0.08984746
215	0xbd8aa6e6	-0.067701146
216	0xbcdead2a	-0.02718218
217	0x3ce4ee49	0.027945654
218	0xbc9c6aae	-0.019093838
219	0xbd190f28	-0.03736797
220	0x3ccdde35	0.02513037
221	0x3d00532e	0.031329326
222	0x3d3f4be4	0.046703234
223	0x3cf81163	0.030281728
224	0xbbc993be	-0.0061516454
225	0x3d0dfbdf	0.03466403
226	0x3c132b64	0.008982513
227	0xbb9c5147	-0.004770431
228	0xbbcfc70b	-0.0063408664
229	0x3c9ad471	0.018900128
230	0xbc8930d5	-0.016746918
231	0xbd4f9125	-0.05067553
232	0xbdbf9d86	-0.09356217
233	0xbdf570f1	-0.119844325
234	0xbd62af77	-0.055343118
235	0x3c61e709	0.013787993
236	0x3db8b1f3	0.09018316
237	0x3df518a4	0.119675905
238	0x3c7234ad	0.014783067
239	0xbbc1598c	-0.0059005674
240	0xbde9216e	-0.11383329
241	0xbdd89016	-0.10574357
242	0xbe04432e	-0.12916252
243	0xbcb8f6e3	-0.022578662
244	0xbcc68320	-0.024232447
245	0x3bef4bd2	0.0073027397
246	0x3cf7192e	0.030163374
247	0xbb5e4b3d	-0.0033919357
248	0xbaee0f5a	-0.0018162534
249	0x3d13c0ff	0.036072727
250	0x3c42cd5a	0.01188978
251	0x3c48918f	0.012241735
252	0x3c94fa6e	0.01818582
253	0x3d1fc1e5	0.03900327
254	0x3ceec856	0.029148262
255	0xbc82fab5	-0.015988687

fc1.bias f4 [256]
0	0xbcb13a76	-0.021634322
1	0xbcb6f1bc	-0.022332065
2	0xbd171c78	-0.036892384
3	0xbc2d6bb7	-0.010584763
4	0xbcfb8d71	-0.030707093
5	0x3bda0158	0.006652992
6	0xbbd37468	-0.0064530857
7	0xbd059eb4	-0.032622054
8	0x3a9b42ba	0.0011845448
9	0x3cb25105	0.021767149
10	0xbcd3d1f3	-0.025856948
11	0x3b114fdd	0.0022172846
12	0x3a35313a	0.00069119374
13	0xbd207687	-0.039175536
14	0x3c63a983	0.013895395
15	0xbd4b93f6	-0.049701653
16	0xbb9f3783	-0.0048589124
17	0xbd329627	-0.043600228
18	0xbc27b344	-0.010235611
19	0xbd103c69	-0.03521386
20	0x3bf2aabc	0.007405607
21	0x3c13c5ef	0.009019359
22	0x3cf091d2	0.029366408
23	0xbbf1b833	-0.0073766946
24	0xbceb92dd	-0.028756553
25	0xbc99ddf8	-0.0187826
26	0x3d028d8f	0.031873282
27	0xbd034fd2	-0.032058544
28	0x3bed0473	0.0072331964
29	0xb8ea2a10	-0.00011165824
30	0xbcdf2d62	-0.02724332
31	0x3b0f5b1e	0.0021874378
32	0xbcff200e	-0.031143215
33	0xbd458765	-0.048224825
34	0xbd2b5fd3	-0.041839432
35	0xbd2be6bc	-0.041968092
36	0xbd10f6f1	-0.03539175
37	0xbcc177a9	-0.023616629
38	0xbce773d9	-0.028253483
39	0x3c0d7709	0.008634337
40	0xbce2d6eb	-0.027690371
41	0xbd5b32ea	-0.053515352
42	0x39dee103	0.00042510786
43	0xbd4d9c63	-0.05019797
44	0xbd7f5705	-0.062338848
45	0xbd514adb	-0.05109678
46	0x3c977a4e	0.018490937
47	0xbccdc15e	-0.025116619
48	0xbc7f3441	-0.015576423
49	0xbd1c96e9	-0.038229857
50	0xbd023cc8	-0.031796247
51	0xbce9aa45	-0.028523574
52	0xbce5c39f	-0.028047381
53	0xbcd40560	-0.02588147
54	0xbca86e91	-0.020560535
55	0x3bbee058	0.0058250837
56	0xbd03bf7e	-0.032165043
57	0xbd31df37	-0.043425765
58	0xbc8f2bb2	-0.01747689
59	0xbbe8dd39	-0.00710645
60	0xbc88d4f0	-0.016703099
61	0xbd238b88	-0.03992799
62	0xbc9d8e51	-0.0192329
63	0xbb1d0674	-0.0023960145
64	0xbd40b369	-0.0470461
65	0xbcb62e1c	-0.022238784
66	0xbc2a4c2a	-0.0103941355
67	0x3b8800cd	0.004150486
68	0x3cfe0063	0.031006044
69	0xbd0dd621	-0.034628037
70	0xbd550077	-0.052002396
71	0xbd5b7257	-0.05357584
72	0xbbb95e9f	-0.0056570317
73	0xbc0646ad	-0.008195561
74	0xbd344c77	-0.044018235
75	0xbcc59c02	-0.024122242
76	0xbcf0f35c	-0.029412918
77	0xbca39569	-0.019968705
78	0x3cba866e	0.02276918
79	0x3c48c78f	0.01225461
80	0xbca306d0	-0.01990071
81	0xbd03064b	-0.031988423
82	0xbbd663c8	-0.0065426566
83	0xbcac8925	-0.02106149
84	0x3c83566b	0.016032418
85	0xbc3961be	-0.011314807
86	0xbb87bb6e	-0.0041422164
87	0xbcec6277	-0.028855545
88	0xbc7082c1	-0.014679612
89	0x3bc7a039	0.006092098
90	0x3c8f2b70	0.017476767
91	0xbc805f04	-0.015670307
92	0xbcad5b38	-0.02116166
93	0xbcd85912	-0.02640966
94	0xbd498d0a	-0.04920677
95	0x3c2b4681	0.010453821
96	0xbd3f5f8e	-0.046721987
97	0x3c58b1ab	0.013225953
98	0x3b321e37	0.0027178654
99	0xbc70eaf2	-0.014704453
100	0xbd10a7b8	-0.0353162
101	0x3b9c0651	0.004761495
102	0xbb859120	-0.004076138
103	0xbd4dd871	-0.050255243
104	0x3c1295b1	0.008946822
105	0x3cc5dad5	0.024152199
106	0x3d164860	0.036690116
107	0xbcb84863	-0.022495454
108	0xbd181d2f	-0.037137207
109	0x3c6dfbc6	0.0145253595
110	0xbc4c8598	-0.012483023
111	0xbcb8dbdd	-0.022565776
112	0x3b9a5e66	0.00471096
113	0x3cf1210c	0.029434703
114	0xbc8889e5	-0.016667316
115	0xbd20fbf3	-0.039302777
116	0x3c37a27b	0.011208172
117	0x39f1c5b2	0.00046114397
118	0xbc93b62f	-0.018031208
119	0xbc8f129d	-0.01746493
120	0x3c0411c5	0.008060877
121	0xbb08dab8	-0.002088232
122	0x3c0e80f2	0.008697735
123	0xbc573445	-0.013135021
124	0xb70103ac	-7.689854e-06
125	0x3ce77824	0.02825553
126	0x3bc6fcb8	0.006072607
127	0xbc5fbef0	-0.013656363
128	0x3cd6c59b	0.026217273
129	0xbce6c3e3	-0.028169578
130	0xbcbe6394	-0.023240842
131	0x3bc4ef8c	0.0060100015
132	0x3cd46422	0.025926653
133	0x3bd51191	0.006502338
134	0xbab90b3a	-0.0014117726
135	0xbc01cf36	-0.007922938
136	0xbc6776d6	-0.014127454
137	0x3c807d73	0.015684819
138	0xbbbc6b20	-0.005750075
139	0xbc1d2ddc	-0.009593453
140	0x3be5d9dc	0.0070144963
141	0x3a61f334	0.0008619309
142	0xbc843bf1	-0.016141864
143	0x3d042971	0.032266084
144	0xbcc2e594	-0.023791112
145	0x3d11df5a	0.035613395
146	0x3b646794	0.0034851776
147	0x3c20087d	0.009767649
148	0x3c4d9b84	0.012549285
149	0xbced83c9	-0.028993504
150	0x3ce3965a	0.027781654
151	0x3be9ff50	0.0071410313
152	0xbcd751a4	-0.026284046
153	0xbd41f671	-0.047354165
154	0x3c8a0bef	0.016851394
155	0xbae4c46b	-0.0017453557
156	0x3c861da2	0.016371552
157	0xbcf64759	-0.030063318
158	0x3c3ec275	0.011643042
159	0xbcfbe46b	-0.030748567
160	0xbc2a47b1	-0.010393069
161	0x3babb6bf	0.005240291
162	0x3d1b6c17	0.03794488
163	0x3bafa268	0.0053599365
164	0xbc7c9137	-0.015415481
165	0xbc81d880	-0.015850306
166	0xbc86b395	-0.016443053
167	0xbd2c1e28	-0.042020947
168	0x3ac94872	0.0015356673
169	0xbbb74c61	-0.005593822
170	0xbd185c24	-0.037197247
171	0x3c0516a9	0.008123078
172	0x3c6f0ba4	0.014590178
173	0x3cc9382f	0.024562923
174	0xbd54de42	-0.051969774
175	0xbd127fd6	-0.035766445
176	0xbd004bad	-0.03132217
177	0xbbd00526	-0.00634827
178	0xbd698828	-0.057014614
179	0xbc357242	-0.0110746045
180	0xbc2da3aa	-0.010598103
181	0xbca70d6a	-0.020392139
182	0x3c2bfd86	0.010497456
183	0x3c724e87	0.01478923
184	0xbd111c57	-0.035427418
185	0xbbc93924	-0.006140845
186	0xbb8c62d7	-0.0042842436
187	0xbcbe3774	-0.023219801
188	0x3bafb9fd	0.0053627477
189	0xbc3a5d68	-0.011374809
190	0xbd142668	-0.03616944
191	0xbd1d871f	-0.03845894
192	0x398c2bdc	0.0002673556
193	0xbbd7eaa9	-0.006589253
194	0xbd3654af	-0.044514354
195	0xbd009ddd	-0.03140055
196	0x3af3b3fc	0.0018593068
197	0xbd58a3d3	-0.05289061
198	0xbd1363ea	-0.035983957
199	0xbc19c4e8	-0.009385325
200	0xbd3ae570	-0.045628965
201	0xbbd78f4a	-0.0065783607
202	0xbd848ec7	-0.06472545
203	0xbd7793d4	-0.060443714
204	0xbd35d91e	-0.044396512
205	0x3bf0cb41	0.0073484485
206	0xbd40a941	-0.047036413
207	0x3c2042e1	0.00978157
208	0xbd0c975e	-0.034324042
209	0x3c1e0cb5	0.009646584
210	0x3c8aec72	0.016958449
211	0xbc39b630	-0.011334941
212	0xbd52141c	-0.05128871
213	0xbc635e32	-0.013877438
214	0xbd196df6	-0.037458383
215	0xbb7196a4	-0.003686347
216	0x3c3487c9	0.011018702
217	0xbb304526	-0.0026896684
218	0x3c0803cf	0.008301689
219	0xbc83c21c	-0.01608377
220	0xbd06a403	-0.032871258
221	0xbcabee4e	-0.020987656
222	0xbd026364	-0.031833068
223	0xbba874c5	-0.005140873
224	0xbc84f00d	-0.016227746
225	0xbcc12048	-0.023574963
226	0x3c09a822	0.008401902
227	0xbcb3c69d	-0.021945292
228	0xbd52c1b3	-0.051454257
229	0xbd58f440	-0.05296731
230	0x3c3a61c0	0.0113758445
231	0x3c055b40	0.0081394315
232	0xbd4406f5	-0.047858197
233	0xbb2d1f9a	-0.002641654
234	0xbbeb70c3	-0.007185073
235	0x3cde8be6	0.027166318
236	0xbb2a4330	-0.0025979988
237	0x3c00b3f8	0.007855408
238	0x3b646707	0.0034851448
239	0x3ccce0ff	0.02500963
240	0xbbe488fd	-0.006974338
241	0xbbe1704e	-0.006879843
242	0xbc6a68ae	-0.014307184
243	0x3c0227a0	0.007944018
244	0xbd36d43b	-0.044635992
245	0xbcc1baf3	-0.023648715
246	0x3c68bae4	0.014204714
247	0xbca8e188	-0.020615354
248	0xbd17a7a2	-0.0370251
249	0x37bf80a1	2.2828872e-05
250	0x3c02d2d0	0.007984832
251	0x3c92e123	0.01792962
252	0xbc5a0457	-0.013306699
253	0x3c3f247c	0.011666413
254	0x3adfd6b0	0.0017077532
255	0xbd560e0f	-0.0522595

fc2.weight f4 [128, 256]
0	0xbd4a9b99	-0.049464796
1	0xbd949ac2	-0.0725608
2	0x3ca50844	0.020145543
3	0xbca1872f	-0.01971778
4	0xbd4f8b5b	-0.05067001
5	0x3c884eda	0.016639162
6	0xbd70d568	-0.05879727
7	0x3c977614	0.018488921
8	0xbd8d0491	-0.068856366
9	0xbd7b61ec	-0.061372682
10	0x3d7ce137	0.06173822
11	0x3d09af02	0.033614166
12	0x3ca5c2e9	0.020234542
13	0xbd48079b	-0.04883538
14	0xbc725b44	-0.014792267
15	0xbb81ae45	-0.003957542
16	0x3d047cde	0.032345645
17	0x3a9b1300	0.0011831224
18	0xbb70d17a	-0.0036745952
19	0xba09297f	-0.00052323187
20	0x3c3d5330	0.011555478
21	0xbdbc9611	-0.092083104
22	0xbcd81bb0	-0.02638039
23	0xbc8bcfea	-0.017066915
24	0x3d44de26	0.04806342
25	0xbbaf23db	-0.0053448505
26	0xbcab5c3c	-0.020918004
27	0xbd45c46a	-0.04828302
28	0x3d0458a7	0.032311108
29	0xbd69e781	-0.057105545
30	0xbc71bd98	-0.014754675
31	0x3cfb42e4	0.030671544
32	0xbce1ae30	-0.02754888
33	0x3cd4204b	0.025894305
34	0xbd17977d	-0.037009705
35	0x3d817757	0.063215904
36	0x3d207938	0.039178103
37	0xbdbc1b95	-0.09184948
38	0x3cc598d4	0.024120726
39	0xbc83f168	-0.016106322
40	0x3d84562a	0.06461747
41	0xbd47947b	-0.048725586
42	0xbb290fe0	-0.0025796816
43	0xbce64d45	-0.028113017
44	0xbd151885	-0.036400337
45	0x3b0fb683	0.0021928854
46	0xbd1e3924	-0.038628712
47	0xbd711dbc	-0.058866248
48	0x3bdbc59c	0.0067069065
49	0xbcf05925	-0.029339382
50	0xbd6516b4	-0.055929855
51	0xbd16ffd5	-0.036865074
52	0x3cc15c63	0.023603624
53	0x3b8803bc	0.004150836
54	0xbd7f1f08	-0.062285453
55	0x3d940620	0.07227731
56	0xbc9769a6	-0.018482994
57	0x3d57c9fc	0.05268286
58	0x3b9fc1b0	0.0048753843
59	0x3d53e394	0.051730707
60	0xbd39aa69	-0.04532853
61	0x3cd9bc75	0.026579121
62	0xbcf50425	-0.029909203
63	0xbd4afeb4	-0.04955931
64	0x3d631b81	0.05544615
65	0x3c2814d3	0.010258871
66	0xba2abd80	-0.0006513223
67	0x3b569500	0.003274262
68	0xbc81dc23	-0.01585204
69	0x3cfd3c04	0.030912407
70	0x3ca1bee8	0.019744352
71	0xbda0f888	-0.078599036
72	0xbd4a0d62	-0.04932917
73	0xbd80a6c3	-0.06281807
74	0xbd0e2658	-0.034704536
75	0x3ad28900	0.0016062558
76	0x3d7542fa	0.059878327
77	0xbcce3a44	-0.025174268
78	0xbcfe2d13	-0.031027352
79	0xbd537d27	-0.051633026
80	0xbd0545cd	-0.03253727
81	0xbca392bd	-0.019967431
82	0xbca1b386	-0.019738924
83	0x3cff5388	0.03116776
84	0xbd37ebc2	-0.04490257
85	0x3d1e11ec	0.03859131
86	0xbda3f0eb	-0.08004936
87	0xbc1cde98	-0.009574555
88	0xbd407d86	-0.04699471
89	0xbcb62a87	-0.022237075
90	0x3abd3d83	0.0014437888
91	0xbd98a81d	-0.0745394
92	0xbd136666	-0.035986327
93	0xbd8126b9	-0.06306214
94	0xbca20548	-0.019777909
95	0xbb64bf77	-0.003490416
96	0x3d74e3a4	0.059787408
97	0xbd1fbb59	-0.038997028
98	0xbd83f391	-0.06442941
99	0xbcb7e7e6	-0.022449445
100	0xbd64082e	-0.055671863
101	0x3d10af3c	0.035323367
102	0xb849512b	-4.7997728e-05
103	0xbd46a933	-0.048501205
104	0xbc6c4330	-0.014420316
105	0xbdbda3f3	-0.092597865
106	0xbd953f69	-0.07287485
107	0xbc92b9f4	-0.017910935
108	0xbbfe3bde	-0.0077586016
109	0xbd00d356	-0.031451546
110	0x3d5fca4a	0.054636277
111	0x3d3d8cdd	0.046276916
112	0xbd1c698c	-0.038186595
113	0xbce15aee	-0.027509179
114	0x3ceaf3e0	0.028680742
115	0xbd8b4d88	-0.06801897
116	0xbcea3934	-0.02859173
117	0x3bda7f7e	0.0066680303
118	0x3c19f31a	0.009396339
119	0xbd7d3bf1	-0.061824743
120	0x3d633c83	0.05547763
121	0xbd7fbf3a	-0.062438227
122	0x3d2e67b6	0.042579375
123	0x3c72c7ed	0.014818174
124	0xbce71503	-0.028208261
125	0xbd1e6742	-0.038672693
126	0xba97f211	-0.0011592527
127	0xbc08dace	-0.008352948
128	0xbcf45510	-0.029825717
129	0x3d9dbb61	0.07701755
130	0xbda068cf	-0.07832491
131	0x3d8a9c5d	0.06768105
132	0xbdbee947	-0.09321838
133	0xbb0496bb	-0.0020231444
134	0x3cb95923	0.022625512
135	0x3d98e7cc	0.07466087
136	0xbc4920ce	-0.012275888
137	0xbd436d1e	-0.047711484
138	0x3ce0c97d	0.027439827
139	0x3ce9051a	0.028444815
140	0xbd471f43	-0.048613798
141	0x3d12a18e	0.0357986
142	0xbda9c5fa	-0.08289714
143	0xbd4d3dfe	-0.05010795
144	0x3d00f2c7	0.03148153
145	0xbd34cd8e	-0.044141345
146	0xbdc5239a	-0.09625931
147	0x3ce9e9f6	0.028553944
148	0x3c87e4f0	0.016588658
149	0xbd20907a	-0.039200284
150	0xbd9ab33f	-0.0755372
151	0x3d36bc4d	0.04461317
152	0xbd1ea42e	-0.038730793
153	0xbc66784b	-0.014066766
154	0xbd9c0720	-0.076185465
155	0xbccc6b23	-0.02495343
156	0x3c4af7bf	0.012388169
157	0xbcf275e7	-0.029597236
158	0xbcceb56f	-0.025232999
159	0x3da1a84f	0.078934304
160	0xbd81b63b	-0.06333586
161	0x3c96669b	0.018359473
162	0x3d4e3680	0.050344944
163	0x3c752e73	0.014964688
164	0xbb81e139	-0.003963616
165	0xbd0b6db6	-0.034040175
166	0xbd58b10b	-0.052903216
167	0x3d04984e	0.03237181
168	0xbd4d06e6	-0.050055407
169	0x3cd88c35	0.026434043
170	0x3cb5415f	0.022125898
171	0xbc6e7805	-0.014554982
172	0xbb290d40	-0.002579525
173	0x3c395177	0.011310927
174	0xba7d00d0	-0.0009651305
175	0x3d938cc0	0.0720458
176	0x3d1f6499	0.038914297
177	0x3d2fd2fb	0.042925816
178	0xbbdc2f20	-0.006719485
179	0x3c1f325a	0.009716595
180	0x3cc25b55	0.023725191
181	0x3ce331ff	0.027733801
182	0x3ced523f	0.028969882
183	0xbd60614f	-0.0547803
184	0xbd563e3f	-0.052305456
185	0xbd51a4b3	-0.05118246
186	0xbd281022	-0.04103101
187	0x3c4e4085	0.012588625
188	0xbcd7a584	-0.026324041
189	0xbd6bec76	-0.057598554
190	0x3bd472f5	0.0064834305
191	0xbd93a158	-0.07208508
192	0xbd2c65eb	-0.042089384
193	0x398d05b0	0.00026897853
194	0xbc5e6ef8	-0.013576262
195	0x3c3425e6	0.010995364
196	0x3d70c1c6	0.058778547
197	0xbd89d8d8	-0.06730813
198	0x3d19ae1d	0.037519563
199	0x3cf34919	0.029697942
200	0xbcd20e4f	-0.025641588
201	0xbd91cbd9	-0.07118959
202	0x3d027842	0.031852968
203	0xbd7cc679	-0.061712716
204	0x3d3e737c	0.046496853
205	0xbc9a90d6	-0.018867891
206	0x3cc4d9d0	0.024029642
207	0x3ca47e72	0.020079825
208	0x3c91ff33	0.017821884
209	0xbca41a1a	-0.020031977
210	0xbd1e12ec	-0.038592264
211	0xbd299f7a	-0.041411854
212	0x3ba76ffd	0.0051097856
213	0x3baf3063	0.0053463443
214	0xbbcd397b	-0.0062629557
215	0x3cbfcf3e	0.02341425
216	0x3d114de7	0.035474684
217	0xbd5a40fa	-0.053284623
218	0xbc889fd1	-0.016677769
219	0xbc373ac7	-0.011183447
220	0xbd0a7db1	-0.033811275
221	0x3c9e751c	0.019342951
222	0xbbc205c6	-0.0059210984
223	0x3c402e84	0.01172984
224	0x3cd80cfd	0.02637338
225	0x39e8b300	0.00044383854
226	0xbdc8c3a8	-0.098029435
227	0x3cc64769	0.024203973
228	0x3d5d6b84	0.054057613
229	0xbd6b4116	-0.057435118
230	0x3c4503f1	0.0120248655
231	0xbd037b02	-0.03209973
232	0xbda1527f	-0.07877063
233	0x3b3fbfc0	0.002925858
234	0x3b5a08c0	0.0033269376
235	0xbd8fe1f4	-0.07025519
236	0xbcbef88b	-0.023311874
237	0xbd8f475c	-0.069960326
238	0xbd5e1e62	-0.054228194
239	0xbd1fe548	-0.03903702
240	0xbd2e1b38	-0.042506427
241	0x3c05e3a4	0.00817195
242	0xbc1b2a81	-0.009470583
243	0xbc5147d8	-0.012773477
244	0x3aed2b04	0.0018094485
245	0xbd7a5508	-0.06111625
246	0xbbd639bc	-0.006537644
247	0x3b850f0d	0.004060632
248	0x3ab9228c	0.0014124676
249	0xbd96c309	-0.07361419
250	0xbcf58859	-0.029972242
251	0xbd364e2c	-0.044508144
252	0xbcda5d72	-0.026655886
253	0x3d665031	0.05622882
254	0x3cd128f9	0.025532233
255	0x3d37b164	0.044846907

fc2.bias f4 [128]
0	0xbd10ea7a	-0.035379864
1	0xbc58208c	-0.0131913535
2	0x3c2b45b9	0.010453635
3	0xbc8a5d1a	-0.016890097
4	0x3b80dad2	0.0039323354
5	0xbd0eb617	-0.034841623
6	0x3d643eac	0.05572383
7	0x3d2cb9f5	0.04216953
8	0xbd215812	-0.03939063
9	0xbd5c1b99	-0.053737257
10	0x3d1e9a98	0.03872165
11	0x3b60dad1	0.0034310112
12	0xbe1944eb	-0.14967696
13	0xbdb72239	-0.08942074
14	0xbd362272	-0.044466443
15	0xbda82085	-0.082093276
16	0xbd41d095	-0.04731806
17	0x3d8ed7f9	0.06974787
18	0xbd24846d	-0.040165354
19	0xbddd6f56	-0.10812251
20	0xbd277225	-0.04088034
21	0xbc28dbe7	-0.010306335
22	0xbd7ed152	-0.062211342
23	0xbd94115b	-0.07229873
24	0x3c790cea	0.015200833
25	0xbda7cf39	-0.081938215
26	0xbd3f6346	-0.046725534
27	0x3d6c71b6	0.05772563
28	0x3c3638a6	0.0111219045
29	0x3caa4f14	0.02078966
30	0xbd3c1136	-0.04591485
31	0xbcaa5f0d	-0.020797277
32	0x3d85ec03	0.06539156
33	0xbd0ce14c	-0.034394547
34	0x3c277652	0.010221081
35	0x3d2f1bf0	0.042751253
36	0x3dd55799	0.104170986
37	0xbdbe8407	-0.09302526
38	0xbd54c1b8	-0.051942557
39	0xbda28264	-0.07935026
40	0x3d19bb45	0.03753211
41	0xbccfb3d8	-0.02535431
42	0x3db3cd90	0.08779442
43	0xbda8485d	-0.08216927
44	0xbd5c3499	-0.0537611
45	0x3e002fb9	0.12518205
46	0x3dd4a26e	0.103825435
47	0xbca8a563	-0.020586675
48	0xbc8f41d7	-0.01748745
49	0xbd52b462	-0.051441558
50	0x3c7aeb12	0.015314834
51	0xbbf2d255	-0.0074103274
52	0x3d842c70	0.06453788
53	0x3d2a890b	0.0416346
54	0x3cf3afa0	0.02974683
55	0x3c2f9cb8	0.010718517
56	0x3d8673eb	0.06565078
57	0xbbe67579	-0.007033047
58	0xbd615d50	-0.05502063
59	0x3b941cf4	0.004520053
60	0x3c374423	0.011185679
61	0x3d955d05	0.07293133
62	0xbd69de10	-0.05709654
63	0x3bdbbba5	0.0067057186
64	0x3d72656b	0.05917875
65	0xbde2517e	-0.110507
66	0x3c20ac5d	0.00980672
67	0xbdbc06ac	-0.0918096
68	0xbd939c1a	-0.072075084
69	0xbd363f36	-0.044493876
70	0x3d5f5344	0.054522768
71	0xbe0c446a	-0.13697973
72	0x3bd20800	0.006409645
73	0x3c833bd0	0.016019732
74	0x3c35b6ca	0.011090944
75	0xbc724c7b	-0.014788742
76	0xbd1baeb6	-0.038008414
77	0xbbcda5e4	-0.006275879
78	0xbd0900b0	-0.03344792
79	0x3d1e8ac2	0.03870655
80	0x3d2cba39	0.042169783
81	0xbdc237cb	-0.09483298
82	0xbd69461c	-0.056951627
83	0xbcf0a9c0	-0.029377818
84	0x3dae42e0	0.08508849
85	0xbd843086	-0.064545676
86	0xbda83a50	-0.08214247
87	0xbd8da2bb	-0.06915804
88	0xbd56ea58	-0.05246958
89	0xbce8fe0a	-0.028441448
90	0x3ccf1509	0.025278585
91	0xbc80350b	-0.015650293
92	0x3dc46e8e	0.09591399
93	0xbd0bb6cc	-0.034109876
94	0xbc8ff006	-0.017570507
95	0xbd23ecdd	-0.040020812
96	0x3dede1c0	0.11615324
97	0xbe02633b	-0.12733166
98	0xbc8ab2ff	-0.016931055
99	0x3d511a77	0.05105063
100	0x3b3b0ae5	0.002854043
101	0xbb9ce736	-0.0047883047
102	0xbbe6ed15	-0.0070473053
103	0xbcfa8932	-0.030582998
104	0x3da84724	0.08216694
105	0xbd77131c	-0.06032096
106	0x3dc94a77	0.09828656
107	0x3df2b794	0.11851421
108	0xbcd3e8df	-0.025867878
109	0xbe0544a4	-0.13014466
110	0xbd89b7e7	-0.0672453
111	0x3c47d7fa	0.012197489
112	0xbd4573ed	-0.04820626
113	0x3d570e72	0.05250401
114	0x3c29ce51	0.010364131
115	0x3d303b61	0.04302538
116	0xbd7581cf	-0.05993825
117	0x3d4e3f7f	0.050353523
118	0xbd9e5140	-0.07730341
119	0xbc6fe18f	-0.01464118
120	0x3d4fb4a0	0.050709367
121	0x3d86f8dc	0.06590435
122	0xbd874ddb	-0.066066466
123	0xbd5fe9dc	-0.054666385
124	0xbdad888a	-0.084733084
125	0xbd922bbd	-0.07137249
126	0x3c6529f0	0.013987049
127	0xbc480ebe	-0.012210546

fc3.weight f4 [64, 128]
0	0xbd635bef	-0.055507597
1	0xbd307111	-0.04307658
2	0x3d81d284	0.06338981
3	0xbd8d6a1f	-0.069050066
4	0x3cee7930	0.029110521
5	0x3d4deb8e	0.05027347
6	0xbd84b1f4	-0.06479254
7	0x3d50e4ae	0.050999336
8	0xbdd77367	-0.10520058
9	0x3cb4b5ed	0.022059405
10	0xbd049b90	-0.03237492
11	0x3c23127a	0.009953136
12	0xbc336505	-0.010949378
13	0xbc2c70a7	-0.010524905
14	0xbe049890	-0.12948823
15	0x3dd72c34	0.10506478
16	0x3c97b1d0	0.018517405
17	0xbcbb9029	-0.02289589
18	0x3d58098c	0.05274348
19	0xbd9c51a5	-0.0763276
20	0x3cf9fb06	0.030515205
21	0x3d68264f	0.05667716
22	0xbcfd666f	-0.030932633
23	0xbcb26c7a	-0.021780241
24	0x3e382371	0.1798227
25	0xbcec8b75	-0.028875092
26	0xbccb4189	-0.024811523
27	0x3e114736	0.14187321
28	0xbd59e4c1	-0.053196672
29	0x3cdc0bd9	0.026861118
30	0xbd827cf1	-0.06371487
31	0x3c50b2ee	0.012737973
32	0xbdb60b5c	-0.088888854
33	0xbcf2921d	-0.029610688
34	0x3e8894d1	0.26676038
35	0xbe3599d6	-0.17734465
36	0x3ce26e43	0.027640468
37	0x3c476db3	0.01217215
38	0x3cc59118	0.024117038
39	0x3d053ca2	0.032528527
40	0xbc772907	-0.015085465
41	0x3d861d6b	0.0654858
42	0xbdb247fa	-0.08705135
43	0xbd113ce9	-0.03545848
44	0x3df0fcd6	0.11766975
45	0xbd061aca	-0.03274039
46	0xbde1068c	-0.10987577
47	0x3c19d6c3	0.009389582
48	0xbd269f2e	-0.04067915
49	0xbca4260b	-0.020037672
50	0xbbd06a31	-0.0063603153
51	0x3e44c0f9	0.19214238
52	0x3d53fa2f	0.051752266
53	0x3e7ff587	0.24996005
54	0xbdae8f36	-0.08523409
55	0x3df24352	0.118292466
56	0x3e3f1d20	0.18663454
57	0xbd0df694	-0.034658983
58	0x3d805790	0.06266701
59	0x3d007fbb	0.031371813
60	0x3db62c2a	0.088951424
61	0x3d757259	0.059923504
62	0x3c99884f	0.018741755
63	0x3cc55a62	0.02409095
64	0xbd1df9cf	-0.038568314
65	0x3cd3bc34	0.025846578
66	0xbb81dc9a	-0.0039630653
67	0xbdfcac47	-0.12337547
68	0x3cb5fa72	0.022214148
69	0x3d637687	0.05553296
70	0xbdf69b67	-0.120413594
71	0xbda3892c	-0.07985148
72	0x3dab2ffe	0.08358763
73	0xbd749e7a	-0.059721448
74	0x3d8a63c4	0.0675731
75	0x3d006957	0.03135046
76	0x3d21b515	0.039479334
77	0xbddb5684	-0.10709861
78	0xbd3e81fe	-0.04651069
79	0x3d75164f	0.05983573
80	0xbdbaac07	-0.09114843
81	0x3ddf3fa4	0.1090081
82	0x3ac520f5	0.0015039729
83	0x3d17e279	0.037081216
84	0xbbd5ebed	-0.0065283687
85	0x3c8151ff	0.01578617
86	0xbe20e501	-0.15712358
87	0x3c74b473	0.014935601
88	0xbcdd642e	-0.027025308
89	0xbd29e23d	-0.041475523
90	0xbd6294df	-0.055317756
91	0xbbecae8a	-0.007222955
92	0xbd17539c	-0.03694497
93	0x3dc17565	0.09446219
94	0xbd22e80b	-0.039772075
95	0xbe2ddf4b	-0.16979711
96	0x3e9772c1	0.29579738
97	0x3d9d3355	0.076758064
98	0x3c94e123	0.01817376
99	0x3c5c163f	0.013433038
100	0x3b17adbd	0.0023144328
101	0xbc96ea73	-0.018422341
102	0xbd2d7563	-0.042348277
103	0xbc2f05d5	-0.010682543
104	0xbe15f9d2	-0.1464608
105	0xbd0b8e8f	-0.0340715
106	0xbd457359	-0.048205707
107	0xbc9c424e	-0.019074585
108	0xbd8977e4	-0.067123204
109	0xbd40faf6	-0.047114335
110	0x3e2affd5	0.16699155
111	0x3a19f4cf	0.0005872966
112	0x39c93ca0	0.00038382877
113	0x3c4d38c8	0.012525745
114	0x3e3ce4ca	0.18446651
115	0xbda13557	-0.07871502
116	0xbcd788e8	-0.0263104
117	0x3cbd56bd	0.02311265
118	0x3d6c836b	0.057742517
119	0x3e6ee0d1	0.23327948
120	0x3d867838	0.06565899
121	0x3d1180da	0.035523273
122	0x3d21c9d8	0.039499134
123	0x3d966cdc	0.07344982
124	0x3da7929e	0.08182262
125	0xbdbfadb8	-0.09359306
126	0xbd905997	-0.07048338
127	0xbd8d62a0	-0.06903577
128	0xbd25f1ef	-0.04051393
129	0xbd8d06bd	-0.06886051
130	0x3df6ac40	0.12044573
131	0x3ddec3cd	0.1087719
132	0x3c689e8f	0.01419796
133	0x3c8258bc	0.015911452
134	0x3d304a78	0.04303977
135	0xbd619e96	-0.05508288
136	0xbd0c91bb	-0.034318667
137	0x3d3790c8	0.04481581
138	0x3d131ce3	0.03591622
139	0xbc520004	-0.012817387
140	0xbdbbe341	-0.091742046
141	0x3dc6be03	0.097042106
142	0x3e0d73ab	0.13813655
143	0x3c8c42df	0.01712173
144	0xbdbe17ec	-0.092819065
145	0x3e1005e7	0.14064752
146	0xbdfed330	-0.124426246
147	0x3d7a6297	0.06112918
148	0x3dd4416d	0.103640415
149	0xbd893188	-0.066989005
150	0xbdd824b2	-0.10553874
151	0xbc48b3f9	-0.01224994
152	0xbe0b8805	-0.13626106
153	0xbe89bebd	-0.26903334
154	0xbc3269dc	-0.010889497
155	0xbc5f5732	-0.013631629
156	0x3c91ed33	0.0178133
157	0xbbb1f3f7	-0.005430694
158	0xbd37b0cb	-0.044846337
159	0xbd797162	-0.060899146
160	0xbd8634c2	-0.065530315
161	0xbdfebc50	-0.124382615
162	0xbd2c0d27	-0.04200473
163	0x3d902f69	0.07040293
164	0x3dbdf659	0.09275503
165	0x3d2b7e96	0.04186877
166	0xbddb779c	-0.10716173
167	0x3d80f71e	0.06297134
168	0xbc776a92	-0.015101092
169	0x3c2c2e9c	0.010509159
170	0x3d1ecd9c	0.038770303
171	0x3d327de4	0.04357709
172	0xbcef3803	-0.029201513
173	0x3e16061e	0.14650771
174	0x3e333f09	0.17504515
175	0x3e548fe2	0.20758012
176	0xbd8d2422	-0.068916574
177	0x3d0b9176	0.03407427
178	0x3dc78cbc	0.0974364
179	0x3de5a4d3	0.11213078
180	0x3af71efa	0.0018853836
181	0x3d84685c	0.064652175
182	0x3dfa9360	0.12235141
183	0xbdb06b6d	-0.0861424
184	0xbe17c0b9	-0.14819612
185	0xbd3eaf00	-0.04655361
186	0xbe01aad8	-0.12662828
187	0x3d90211e	0.070375666
188	0x3acce94d	0.0015633494
189	0x3e67a12c	0.22620076
190	0x3d49dc70	0.04928249
191	0x3d0aca80	0.033884525
192	0xbd1278e3	-0.035759818
193	0xbbd6f6bb	-0.0065601743
194	0xbd839c45	-0.064262904
195	0x3dae8e8f	0.08523285
196	0xbe2e0f83	-0.16998105
197	0xbd36d185	-0.044633407
198	0x3de4916c	0.111605495
199	0xbd63ac5f	-0.055584308
200	0x3b9346ff	0.0044945474
201	0x3ccb484e	0.024814751
202	0x3d355dae	0.044278793
203	0xbd30081b	-0.04297648
204	0x3d8f9071	0.07009972
205	0xbd2b7ec9	-0.04186896
206	0x3dd0b0ed	0.10189996
207	0xbe0a0506	-0.13478479
208	0xbd4b14af	-0.049580272
209	0x3cf73e81	0.030181171
210	0xbc9aad9b	-0.01888161
211	0x3da98088	0.082764685
212	0xbd9d38b5	-0.07676832
213	0xbe50d358	-0.20393121
214	0xbd8e6b11	-0.06954015
215	0xbe34973b	-0.17635815
216	0x3cf74959	0.030186342
217	0xbb80de5c	-0.0039327573
218	0x3d72e2d4	0.05929835
219	0xbd6d736b	-0.0579714
220	0xbc89d56d	-0.016825402
221	0xbc5910ce	-0.013248635
222	0xbbedca27	-0.0072567645
223	0x3e14abbd	0.14518638
224	0x3d66e3ff	0.056369778
225	0x3cbb1d31	0.022841068
226	0x3ca4af62	0.02010316
227	0xbd552075	-0.052032907
228	0xbbc33c8c	-0.0059581455
229	0x3d118ce8	0.03553477
230	0x3c3af439	0.011410766
231	0xbab51d77	-0.0013817985
232	0xbcc13f73	-0.023589825
233	0x3d10b272	0.03532643
234	0xbd1bf1a8	-0.03807226
235	0x3db7cbc1	0.0897441
236	0xbcde5fca	-0.027145285
237	0xb9b2c969	-0.00034100868
238	0xbe2a76b0	-0.16646838
239	0x3c548440	0.012970984
240	0x3d64b4af	0.055836376
241	0x3d97fe3a	0.07421537
242	0x3e3297d0	0.17440724
243	0x3d6425aa	0.05569998
244	0x3db9f5af	0.090800636
245	0x3d4fdf84	0.05075027
246	0x3caf9a2f	0.021435825
247	0xbd4b6b1c	-0.049662694
248	0x3bf8e8cb	0.0075961105
249	0x3d434f63	0.04768313
250	0x3d20f13c	0.03929256
251	0xbe11066e	-0.14162609
252	0xbd93ec16	-0.07222764
253	0x3cf2c794	0.029636182
254	0x3d861c87	0.0654841
255	0xbe2e23fd	-0.17005916

fc3.bias f4 [64]
0	0x3dfa98e1	0.122361906
1	0x3e15e321	0.14637424
2	0xbd8bd38d	-0.068274595
3	0x3d452822	0.048133977
4	0x3c04ebd4	0.008112866
5	0xbd9b5bdb	-0.075858794
6	0x3c98216d	0.018570626
7	0x3caa70e7	0.02080579
8	0xbb955000	-0.004556656
9	0xbe21e728	-0.15810835
10	0xbd459273	-0.048235368
11	0xbc8a8f65	-0.016914079
12	0xbc3921cc	-0.011299562
13	0xbd910af8	-0.0708217
14	0xbaf15025	-0.0018410726
15	0x3d5ee026	0.054412983
16	0xbdca325b	-0.09872886
17	0xbd300496	-0.042973123
18	0xbdb27b09	-0.08714873
19	0x3da4f0b7	0.08053725
20	0xbcedca0c	-0.029027008
21	0xbe028e92	-0.12749699
22	0x3b84f8e0	0.0040579885
23	0xbdf82de1	-0.12118126
24	0x3db2c360	0.08728671
25	0xbc84627e	-0.016160246
26	0xbd59d238	-0.053178996
27	0xbda9ca8b	-0.08290585
28	0xbdce4e68	-0.100735486
29	0xbdb88798	-0.090102375
30	0xbc6c7c71	-0.014433966
31	0xbd4aa1b1	-0.049470607
32	0x3cc61617	0.024180455
33	0xbd7ae519	-0.06125364
34	0xbd8769b1	-0.06611956
35	0xbdd7a122	-0.105287805
36	0xbd544971	-0.05182785
37	0xbe03265e	-0.12807605
38	0x3d9a95b3	0.07548084
39	0x3d776ba1	0.060405377
40	0xbc594236	-0.013260415
41	0x3df4840e	0.1193925
42	0xbd9b8a92	-0.075947896
43	0xbdbe297d	-0.09285257
44	0x3cee28aa	0.029072125
45	0xbdd46e3b	-0.10372587
46	0x3d608c5e	0.054821365
47	0xbd8489bd	-0.06471584
48	0xbd3d7c27	-0.04626098
49	0xbc0c05de	-0.008546321
50	0x3d47d195	0.048783857
51	0x3d502cbb	0.05082391
52	0xbc66c07e	-0.01408398
53	0xbd2fbe2e	-0.04290598
54	0xbdf77744	-0.12083295
55	0x3c964b92	0.018346582
56	0xbcfcf909	-0.030880468
57	0xbd8ab14a	-0.067720965
58	0xbce79187	-0.028267635
59	0xbdaf33da	-0.08554812
60	0xbe2fdfd1	-0.17175223
61	0xbda7cdf1	-0.08193577
62	0xbd52297e	-0.0513091
63	0x3d23d6a8	0.039999634

fc4.weight f4 [10, 64]
0	0xbd7918ad	-0.06081455
1	0xbda3a01b	-0.07989522
2	0x3d75675c	0.059913024
3	0x3cd9f980	0.026608229
4	0xbda3cf6a	-0.079985455
5	0x3d812ae0	0.06307006
6	0x3e00265c	0.12514633
7	0xbca93e86	-0.020659696
8	0xbda4c832	-0.08045997
9	0xbe2b2782	-0.1671429
10	0xbe479396	-0.19489893
11	0x3be98a4c	0.007127082
12	0xbde6c11e	-0.11267303
13	0xbd01f15c	-0.03172432
14	0x3d0a12e5	0.033709425
15	0x3d149a58	0.036280006
16	0x3c3e223e	0.011604844
17	0xbe66cdaa	-0.22539392
18	0xbd83c2b3	-0.0643362
19	0xbe16c75b	-0.14724486
20	0x3db1e451	0.08686126
21	0x3e024de2	0.12725022
22	0x3c974b92	0.018468652
23	0x3ca386b2	0.019961689
24	0xbd40f84e	-0.0471118
25	0x3de147d7	0.110000305
26	0x3e335809	0.17514051
27	0xbcd53680	-0.026026964
28	0x3d9f3cbe	0.077752575
29	0xbe111512	-0.14168194
30	0xbddea46f	-0.10871207
31	0x3d8cb010	0.06869519
32	0xbe06d08e	-0.13165495
33	0x3db8e4d1	0.09028018
34	0x3c394392	0.011307614
35	0xbdf88c07	-0.12136083
36	0xbdc2f3d6	-0.09519164
37	0xbdc672a0	-0.09689832
38	0xbe0ccff9	-0.1375121
39	0xbe237f3a	-0.15966502
40	0x3cc0aa58	0.023518726
41	0x3dde8926	0.10866003
42	0x3d6a33cf	0.057178315
43	0x3d53abd6	0.051677547
44	0xbd5fc719	-0.054633234
45	0xbe456012	-0.19274929
46	0x3cc79b3a	0.02436601
47	0xbe692868	-0.2276932
48	0xbbee4520	-0.007271424
49	0xbd396655	-0.045263607
50	0xbdee2681	-0.11628438
51	0xbdba2297	-0.09088629
52	0x3dfc5601	0.123210914
53	0x3b8ac01f	0.0042343284
54	0xbddd42ad	-0.10803733
55	0xbd53bdc0	-0.05169463
56	0x3da4c93e	0.080461964
57	0xbd3569b9	-0.044290278
58	0x3d9cdc48	0.07659203
59	0xbd03216f	-0.032014307
60	0xbd5a5735	-0.053305823
61	0x3d9273c7	0.07150989
62	0xbdd46a07	-0.103717856
63	0xbe60bafb	-0.21946327
64	0xbe13b510	-0.14424539
65	0x3de99939	0.11406178
66	0xbe14bf51	-0.14526106
67	0xbc00f875	-0.007871737
68	0x3dd51ab5	0.104054846
69	0x3c8e5e99	0.017379092
70	0xbe6aca85	-0.22928818
71	0xbe3dcace	-0.18534395
72	0xbccd7288	-0.025079027
73	0x3d9b5e3d	0.07586334
74	0x3e02a51e	0.127583
75	0xbde22486	-0.110421225
76	0x3dda8f1c	0.10671827
77	0xbdd83dac	-0.10558638
78	0xbe1ae712	-0.15127209
79	0x3d496063	0.049164187
80	0xbe1ea18e	-0.15491316
81	0xbd509b47	-0.050929334
82	0xbc9a8522	-0.01886231
83	0xbe185c12	-0.14878872
84	0x3d994592	0.074839726
85	0xbccdfa0e	-0.02514365
86	0x3e1b0ba5	0.15141161
87	0x3dee0494	0.11621967
88	0xbd495cf7	-0.049160924
89	0xbe15d986	-0.1463376
90	0xbe416afe	-0.1888847
91	0xbcf59919	-0.02998023
92	0x3dd4e7b9	0.1039576
93	0x3da9a5f7	0.082836084
94	0x3d93a3d7	0.07208984
95	0xbbbc5c5b	-0.0057483143
96	0x3d47b1b4	0.048753455
97	0xbd188969	-0.03724042
98	0x3d67bfc2	0.05657936
99	0xbcf1ab08	-0.0295005
100	0xbd8023cd	-0.062568285
101	0xbd266cb9	-0.04063103
102	0x3d2a4e24	0.041578427
103	0xbd2af47e	-0.041737072
104	0xbd839ee5	-0.06426791
105	0xbe4b9a16	-0.19882998
106	0xbdca048e	-0.0986415
107	0x3ca178b7	0.019710882
108	0xbd671e7d	-0.05642556
109	0xbdd58c4a	-0.10427149
110	0xbe0f48dd	-0.13992639
111	0x3e13a93c	0.14420027
112	0x3e03d5ab	0.12874477
113	0xbd8d65dc	-0.06904194
114	0x3ddcfc61	0.10790325
115	0xbe1dd0db	-0.15411703
116	0xbe1b4453	-0.15162782
117	0xbda47a1a	-0.080311015
118	0xbe167aff	-0.14695357
119	0x3c2bf154	0.010494549
120	0xbe2ce967	-0.16885911
121	0xbd8fb5dd	-0.070171095
122	0xbdb5bb77	-0.08873647
123	0x3cc61f34	0.0241848
124	0x3d4ee40b	0.050510447
125	0x3a9d6d7b	0.0012010777
126	0x3e3e15e2	0.18563035
127	0x3df8a365	0.1214054
128	0xbcec391a	-0.028835822
129	0xbcd0d57e	-0.025492426
130	0xbda33156	-0.079683945
131	0x3c9d512c	0.019203745
132	0x3d049b84	0.032374874
133	0x3df2a9f4	0.11848822
134	0x3e4268ad	0.18985243
135	0xbc95f1d7	-0.018303795
136	0xbb79a800	-0.003809452
137	0x3dd35a1a	0.1031992
138	0xbd8064df	-0.0626924
139	0x3dbdf620	0.0927546
140	0xbd812aad	-0.06306968
141	0xbd30c7ef	-0.04315942
142	0x3e0684c8	0.1313659
143	0x3da57045	0.08078054
144	0xbaec64cf	-0.0018035414
145	0xbc7c1764	-0.015386436
146	0xbc3fe3e1	-0.011712045
147	0xbdab88ac	-0.083756775
148	0x3dbcafbc	0.09213206
149	0xbd6f144b	-0.058368962
150	0xbbf51efb	-0.0074805
151	0x3c6a2218	0.014290355
152	0x3ddf3838	0.10899395
153	0xbddcfddb	-0.107906066
154	0xbe573560	-0.21016455
155	0x3d67edd5	0.0566233
156	0x3d5a6f12	0.05332858
157	0xbe065274	-0.13117391
158	0xbdc584b7	-0.09644454
159	0xbe430934	-0.1904648
160	0x3dff71e8	0.12472898
161	0xb990df4c	-0.0002763219
162	0x3d4aab3e	0.049479716
163	0x3d664edb	0.056227546
164	0x3cf0c44f	0.029390482
165	0xbd3be545	-0.045872945
166	0xbd95c6c0	-0.07313299
167	0xb90b396c	-0.00013277464
168	0x3d718814	0.058967665
169	0xbe0264da	-0.12733784
170	0xbdb45d20	-0.08806825
171	0x3d81a75c	0.063307494
172	0xbe4694a0	-0.19392633
173	0xbcaed8dd	-0.021343643
174	0xbd64669f	-0.05576193
175	0x3df38ba0	0.11891866
176	0x3dbff5f5	0.093730845
177	0xbe30d2b4	-0.17267877
178	0x3d370695	0.04468401
179	0xbceeb05a	-0.029136825
180	0x3c5e1326	0.01355437
181	0xbdc5b20d	-0.09653101
182	0xbd8672f8	-0.06564897
183	0xbcbc5582	-0.022989992
184	0xbde8c0d3	-0.11364903
185	0x3c6bc4a8	0.014390148
186	0xbd93ecc2	-0.07222892
187	0xbdfcce30	-0.12344015
188	0x3d338f93	0.043838095
189	0x3d31f7de	0.043449275
190	0xbe622497	-0.2208427
191	0xbb89d794	-0.004206607
192	0x3da852ab	0.08218893
193	0xbe02af3a	-0.12762156
194	0xbdd55692	-0.104169026
195	0x3e0cf808	0.13766491
196	0x3c67eaf1	0.0141551355
197	0xbc2ccea6	-0.010547316
198	0xbd836de7	-0.064174466
199	0x3e1abacb	0.15110318
200	0x3dcf2392	0.101142064
201	0x3d97a75a	0.07404967
202	0x3dd5a9c4	0.10432771
203	0xbc995c85	-0.018720875
204	0xbc66d0fd	-0.014087913
205	0xbc1a4e1a	-0.009418035
206	0xbb30e8e5	-0.0026994285
207	0x3d89f888	0.06736857
208	0x3cdcd8c7	0.026958836
209	0xbd53b34c	-0.051684663
210	0x3d692b59	0.056926105
211	0xbe48fbae	-0.19627258
212	0x3dec1360	0.11527133
213	0xbbb0b661	-0.005392835
214	0xbe151d0b	-0.1456186
215	0x3bda0f17	0.006654631
216	0xbd219d36	-0.03945657
217	0xbda8ba80	-0.08238697
218	0xbbf74b77	-0.007546838
219	0xbdc58aee	-0.09645639
220	0xbd5f9d93	-0.054593634
221	0x3d141525	0.036152977
222	0xbd58450f	-0.052800234
223	0x3c80b70e	0.015712287
224	0x3c2de6c2	0.010614099
225	0x3d8d0467	0.06885605
226	0xbdab2ed4	-0.08358541
227	0x3cd1df7a	0.025619257
228	0x3d51b61b	0.05119906
229	0x3ac49734	0.0014998675
230	0x3e0c297f	0.13687705
231	0x3cf4425c	0.029816799
232	0x3d190134	0.037354663
233	0xbe148744	-0.14504725
234	0x3ccda5b2	0.025103424
235	0x3c105836	0.008810094
236	0x3d792baf	0.060832676
237	0xbebea8ad	-0.37238064
238	0xbde241c1	-0.11047698
239	0x3d6bd2e0	0.057574153
240	0xbd370bcf	-0.044688996
241	0x3dafed5b	0.08590194
242	0x3cd18ebc	0.025580756
243	0x3df2bde2	0.118526235
244	0x3dd62197	0.104556255
245	0xbdb2b402	-0.0872574
246	0x3d8fe81d	0.07026694
247	0x3dd6f56f	0.104960315
248	0xbe53e3e8	-0.20692408
249	0x3df2655d	0.1183574
250	0xbded372c	-0.11582789
251	0x3db000b4	0.08593884
252	0xbcf58747	-0.029971732
253	0x3dffdd6c	0.12493405
254	0xbe17fafe	-0.1484184
255	0x3c6426b4	0.013925243

fc4.bias f4 [10]
0	0xbd7264ac	-0.05917804
1	0xbdf85fcb	-0.12127646
2	0xbd203956	-0.03911718
3	0x3dcd12c8	0.10013348
4	0x3dbe7e78	0.09301466
5	0xbba48314	-0.0050205085
6	0x3d60e2c9	0.05490378
7	0xbe15d979	-0.1463374
8	0x3e64f494	0.22358924
9	0x3d4dab1b	0.050212007
