src/server/global_parameters.pt (torch, 973951 bytes, 8 tensors)

fc1.weight f4 [256, 784]
0	0x3d0bf7de	0.03417193
1	0x3c9dd6d2	0.019267473
2	0x3d372a15	0.044717867
3	0x3c86e8ee	0.016468491
4	0x3c4b3736	0.0124033
5	0x3cdb84ba	0.026796687
6	0xbb1da342	-0.0024053608
7	0x3cea7383	0.028619533
8	0xbbfa32c8	-0.007635448
9	0xbc9169e4	-0.017750688
10	0x3d0bd84b	0.03414182
11	0x3ca87e8f	0.02056816
12	0x3d0b4741	0.0340035
13	0xbbbcd0af	-0.0057621817
14	0xbba2a7ae	-0.0049638366
15	0x3c64c65c	0.013963308
16	0xbbb3e642	-0.0054900954
17	0xbc886478	-0.01664947
18	0x3c8a7391	0.01690081
19	0x3cffeb6d	0.03124019
20	0x3c50013d	0.012695608
21	0x3b79e728	0.0038132165
22	0x3c1bf13e	0.009517966
23	0xbca33daf	-0.019926874
24	0x3c67f2b2	0.014156984
25	0xbb4d88da	-0.0031362087
26	0x3d0b09e0	0.033944964
27	0xbbcbc6c8	-0.006218765
28	0xbcbe1665	-0.023204038
29	0xbbdcddea	-0.0067403214
30	0xbcb1fcea	-0.021727044
31	0x3d219123	0.039445054
32	0xbcb6661a	-0.022265483
33	0xbcb89681	-0.022532703
34	0xbc6c5fc9	-0.014427134
35	0xbc2a4aac	-0.01039378
36	0xbc94808b	-0.0181277
37	0x3bade324	0.0053066183
38	0x3cf7e6f8	0.030261502
39	0x3d25a72f	0.04044264
40	0x39374e20	0.00017481344
41	0xbb337dc5	-0.0027388197
42	0x3c871ac7	0.01649226
43	0xbc3ef0b1	-0.011654065
44	0x3d0724f6	0.032994233
45	0x3d22a279	0.039705727
46	0x3bb302c0	0.0054629743
47	0xbcb0de15	-0.021590272
48	0x3c359ef5	0.011085262
49	0x3d175eea	0.03695575
50	0x3be73f4b	0.0070571057
51	0x3c207a9d	0.009794858
52	0xbc020d62	-0.007937761
53	0x3b7ac258	0.003826281
54	0x3b4af456	0.003096839
55	0x3aa15239	0.001230783
56	0x3cf27851	0.029598387
57	0x3cd99ba9	0.026563482
58	0x3b60fa61	0.0034328925
59	0xbb382d16	-0.0028103045
60	0x3d070576	0.032964192
61	0x3cd60ca5	0.026129076
62	0xbbb561b6	-0.0055353297
63	0x3cf612c3	0.030038243
64	0xbc97a13e	-0.018509503
65	0x3d200c3e	0.039074175
66	0x3d0ae365	0.033908267
67	0x3c9a1fa0	0.018813908
68	0x3d46a042	0.048492678
69	0x3c2d79da	0.010588134
70	0x3c956585	0.018236885
71	0x3d811c26	0.06304197
72	0x3cd24b9c	0.025670819
73	0xbc0e1cb2	-0.008673834
74	0x3c287764	0.010282371
75	0x3c4d77c4	0.012540761
76	0x3be44f7a	0.006967482
77	0x3ce888ff	0.028385637
78	0x3c6919ba	0.014227325
79	0xbc86b4c8	-0.016443625
80	0xbb866c62	-0.0041022757
81	0xbca5d1b0	-0.020241588
82	0x3c53b593	0.012921709
83	0xbba8bc5d	-0.005149408
84	0x3cc84a8f	0.024449615
85	0x3cb42267	0.02198906
86	0x3cbb4df6	0.022864323
87	0xbbe1863b	-0.0068824566
88	0x3cb510a4	0.022102661
89	0x3c9c383c	0.019069783
90	0x3cc09a80	0.023511171
91	0x3bd7ae20	0.0065820366
92	0x3c8fba43	0.017544871
93	0xbc25802d	-0.01010136
94	0x3cb97212	0.0226374
95	0x3d37a08a	0.044830836
96	0x3d6e50fb	0.058182698
97	0x3d0a8870	0.033821523
98	0x3cae69da	0.021290708
99	0x3d47c416	0.048770986
100	0x3b1b2b38	0.0023676883
101	0xbc0b7d4d	-0.008513761
102	0xbce784c5	-0.028261552
103	0xbbeaa4c2	-0.007160754
104	0x3cc0dd9c	0.023543172
105	0xbb9af83a	-0.004729298
106	0x3ce92a1a	0.028462458
107	0x3d24cf74	0.040236905
108	0xbcd051f2	-0.0254297
109	0x3d3eaea7	0.04655328
110	0x3c27cba6	0.010241425
111	0x3d366263	0.044527423
112	0x3d3576fe	0.044302933
113	0xbc8ef444	-0.01745046
114	0x3c22ff4e	0.009948565
115	0x3c8b3ab8	0.016995773
116	0xbbaf7f3a	-0.0053557428
117	0x3cf8b2a4	0.03035862
118	0x3ceb57d5	0.028728405
119	0x3d617aab	0.055048626
120	0x3daa472a	0.08314355
121	0x3d31ac64	0.043377295
122	0x3de4562e	0.1114925
123	0x3dc5938a	0.096472815
124	0x3dd55cc6	0.10418086
125	0x3dd73da1	0.10509802
126	0x3dcd7ee5	0.10033969
127	0x3dc51954	0.096239716
128	0x3cc328db	0.023823192
129	0x3ca43362	0.020044032
130	0xbceebdd4	-0.029143251
131	0xbcf5161b	-0.029917767
132	0xbd894127	-0.0670188
133	0xbc560690	-0.013063088
134	0xbd356183	-0.044282448
135	0x3c917567	0.017756177
136	0xbcca5c00	-0.024702072
137	0x3d1182b9	0.035525057
138	0xbb9daf0a	-0.004812126
139	0xbc549ff8	-0.012977593
140	0xbc9eefdd	-0.019401485
141	0xbbb95912	-0.00565637
142	0x3d066a81	0.032816414
143	0x3d100092	0.035156794
144	0x3ca1e48c	0.0197623
145	0x3d4b6da3	0.049665105
146	0x3d274eb2	0.040846534
147	0x3d8da01e	0.069153056
148	0x3d5f2f40	0.05448842
149	0x3cae7b28	0.02129896
150	0x3db018e0	0.085984945
151	0x3dde6f1f	0.108610384
152	0x3e0e55df	0.13899945
153	0x3e37def8	0.1795615
154	0x3e2577a4	0.1615892
155	0x3e50930a	0.20368591
156	0x3d8f3d16	0.06994073
157	0xbd7c2e2c	-0.06156747
158	0xbd50c103	-0.05096532
159	0xbd759a4f	-0.059961613
160	0xbdc7d58e	-0.09757529
161	0xbd1bf72a	-0.03807751
162	0xbd77710a	-0.060410537
163	0xbd7c2ddc	-0.061567172
164	0xbcf58bd6	-0.029973906
165	0x3cfd27c7	0.030902756
166	0x3cda035e	0.026612934
167	0x3d23f869	0.040031824
168	0xbbffc758	-0.007805746
169	0x3d3471f3	0.044053983
170	0x3ca9e650	0.020739704
171	0x3cc29ee4	0.023757406
172	0x3c83b8eb	0.016079387
173	0x3dbaae72	0.09115304
174	0x3db29b26	0.087209985
175	0x3cba5714	0.0227466
176	0xbbeba6f8	-0.007191535
177	0x3ce48f66	0.027900409
178	0xbbe60fc8	-0.0070209242
179	0x3d8594d1	0.06522525
180	0x3dbc421f	0.09192299
181	0x3dd7e0f8	0.10540956
182	0x3da6d4a2	0.08146025
183	0x3dbb3de2	0.091426626
184	0xbcb6ac10	-0.022298843
185	0xbd34aa87	-0.04410794
186	0xbdc14a39	-0.09437985
187	0xbe162083	-0.1466084
188	0xbe283021	-0.1642461
189	0xbd848bf4	-0.064720064
190	0xbdb23996	-0.0870239
191	0xbd645b55	-0.055751164
192	0xbd793aea	-0.0608472
193	0x3cb8570f	0.02250245
194	0x3c97aaab	0.018513998
195	0x3cb43632	0.021998499
196	0xb902eeb0	-0.00012486684
197	0x3c829400	0.015939713
198	0xbadc35c4	-0.0016800691
199	0x3d321432	0.04347629
200	0x3d4ec6d2	0.05048258
201	0x3daa69b8	0.083209455
202	0x3c9344e6	0.01797719
203	0xba383600	-0.00070270896
204	0xbcbe18e2	-0.023205224
205	0xbd02ae70	-0.031904638
206	0xbd542be7	-0.05179968
207	0xbccce1e4	-0.025010057
208	0xbc8711df	-0.016488014
209	0xbd597614	-0.053091124
210	0xbdae81d4	-0.085208565
211	0xbd1e45f8	-0.038640946
212	0xbd4916eb	-0.049094122
213	0xbde2daf5	-0.11076919
214	0xbdb6c6d8	-0.08924645
215	0xbe1709cc	-0.14749831
216	0xbe169bb3	-0.14707832
217	0xbdcb53e3	-0.099281095
218	0xbe030da3	-0.12798171
219	0xbdf5acfc	-0.11995885
220	0xbc76665b	-0.015039052
221	0x3cb560fc	0.022140972
222	0x3d476214	0.04867752
223	0x3d0e9a58	0.034815162
224	0xba3e7f08	-0.0007266854
225	0x3d2022a7	0.039095547
226	0x3c74f460	0.014950842
227	0x3c8c202d	0.017105186
228	0x3d69d001	0.057083134
229	0x3da225b7	0.0791735
230	0x3cd16e24	0.025565214
231	0xbc753a70	-0.014967546
232	0xbdb11fbc	-0.08648631
233	0xbdc2b195	-0.09506527
234	0xbda8fbbc	-0.082511395
235	0xbdb10ec1	-0.08645392
236	0xbb908a18	-0.0044109933
237	0x3ceeab35	0.029134372
238	0x3d399f71	0.04531807
239	0x3dbee297	0.09320562
240	0x3cace21c	0.021103911
241	0x3b6c4180	0.0036049783
242	0xbd227864	-0.039665595
243	0xbd94ac4e	-0.07259427
244	0xbe149aa3	-0.14512114
245	0xbe005c7c	-0.1253528
246	0xbda48c74	-0.08034602
247	0xbdd62575	-0.10456363
248	0xbd602f5d	-0.05473267
249	0x3c8f3eab	0.017485937
250	0x3c5534dc	0.013013091
251	0x3c8be87e	0.017078634
252	0x3cbdecb1	0.023184152
253	0x3d32c41a	0.04364405
254	0x3d0a3363	0.033740412
255	0x3b405f94	0.0029353844

fc1.bias f4 [256]
0	0xbcda5971	-0.026653977
1	0xbccfd7c2	-0.025371436
2	0xbd145d38	-0.036221713
3	0xbc2d69f8	-0.010584347
4	0xbcfb9252	-0.03070942
5	0x3c04d06c	0.008106332
6	0xbb44ffa2	-0.0030059596
7	0xbcff79fc	-0.031186096
8	0xbc5cdc4c	-0.013480257
9	0x3c3eba93	0.011641162
10	0xbc114a92	-0.008867877
11	0x3b11a4b6	0.002222342
12	0xbbdfc951	-0.0068294187
13	0xbd110565	-0.035405535
14	0x3c63a947	0.013895339
15	0xbd4d5baa	-0.050136246
16	0xbb9f37c2	-0.004858942
17	0xbd22e39e	-0.039767854
18	0xbc27b1f2	-0.010235297
19	0xbd015748	-0.03157738
20	0x3c662bfa	0.014048571
21	0x3c361fce	0.011115981
22	0x3c9f0746	0.019412648
23	0xbcda9d70	-0.0266864
24	0xbd15d0b1	-0.036575977
25	0xbc99f18e	-0.01879194
26	0x3c9a0c66	0.01880474
27	0xbcfd01b4	-0.030884601
28	0x3bed0741	0.0072335307
29	0xbcc52c0f	-0.02406886
30	0xbca7b329	-0.020471172
31	0x3a9d5dd9	0.0012006118
32	0xbd038564	-0.032109633
33	0xbd4680da	-0.048462726
34	0xbd49f902	-0.049309738
35	0xbd273cae	-0.040829353
36	0xbcce5169	-0.025185304
37	0xbce12512	-0.027483497
38	0xbd141ec1	-0.03616214
39	0x3c0d708b	0.008632789
40	0xbcb71a87	-0.022351516
41	0xbd54f606	-0.05199244
42	0x3b9cb2b0	0.0047820434
43	0xbd4d9a8e	-0.050196223
44	0xbd4b3918	-0.049614996
45	0xbd56a011	-0.052398745
46	0x3ca0d046	0.019630563
47	0xbcf6ee48	-0.030142918
48	0xbceafe34	-0.028685667
49	0xbd1c96e6	-0.038229845
50	0xbc55bc96	-0.013045451
51	0xbce61fa9	-0.028091269
52	0xbcf705ae	-0.030154075
53	0xbcc651e3	-0.024208969
54	0xbbedbe9f	-0.00725539
55	0x3bbf0c9e	0.0058303615
56	0xbce7b8a0	-0.028286278
57	0xbd24df4d	-0.04025202
58	0xbd00a22e	-0.031404667
59	0xbbfedc8e	-0.007777757
60	0xbc6f61e4	-0.014610741
61	0xbd238adc	-0.03992735
62	0xbcd6959c	-0.026194386
63	0x3a0da50c	0.0005403317
64	0xbd1b277c	-0.037879452
65	0xbcb63022	-0.022239748
66	0xbc2a4cc2	-0.010394277
67	0x3b87fab6	0.00414976
68	0x3cab9a81	0.020947697
69	0xbd0dd72e	-0.03462904
70	0xbd58cff4	-0.052932695
71	0xbd7d6af2	-0.06186957
72	0xbbc591c4	-0.0060293395
73	0x3bbb4389	0.005714838
74	0xbd2990e4	-0.041397944
75	0xbcb01211	-0.02149299
76	0xbcef70f6	-0.029228669
77	0xbca1b4e4	-0.019739576
78	0x3c858b83	0.016301876
79	0x3c22e775	0.009942879
80	0xbd03ccc6	-0.03217771
81	0xbc9a809f	-0.01886016
82	0xbc045a29	-0.0080781365
83	0xbc4d6432	-0.012536095
84	0x3c8ade44	0.016951688
85	0xbc39629c	-0.011315014
86	0xbc250026	-0.010070836
87	0xbcb19e10	-0.021681815
88	0xbce46ba7	-0.027883364
89	0xbb3d4ab9	-0.002888365
90	0x3c8f29bc	0.017475955
91	0xbcb3818f	-0.021912364
92	0xbc0a3b7a	-0.008437032
93	0xbd0f654a	-0.035008706
94	0xbd4b35b7	-0.049611773
95	0x3c2b4a4f	0.010454728
96	0xbd3f4812	-0.04669959
97	0x3c205d55	0.009787877
98	0x3c0a31c5	0.008434718
99	0xbb25b7e2	-0.0025286605
100	0xbd07ff46	-0.033202432
101	0x3bb1cc5c	0.005425973
102	0xbbffa9c3	-0.0078022196
103	0xbd46b394	-0.048511103
104	0x3c1295c0	0.008946836
105	0x3d192a14	0.037393644
106	0x3cab48ef	0.0209088
107	0xbcda5078	-0.026649699
108	0xbd18a334	-0.037265018
109	0x3c6dfbf0	0.014525399
110	0xbc4c8598	-0.012483023
111	0xbc51b283	-0.012798908
112	0x3b8f4f92	0.004373499
113	0x3c93fd84	0.018065222
114	0xbc8887de	-0.016666349
115	0xbd254e29	-0.040357742
116	0x3c60c5f4	0.013719071
117	0x39721c66	0.00023089498
118	0xbd0f49a1	-0.034982327
119	0xbcd8490c	-0.026402019
120	0x3993c680	0.0002818592
121	0xbb0963b4	-0.0020963969
122	0x3c0eca9d	0.008715299
123	0xbc571d3a	-0.013129527
124	0xb70089e6	-7.6615015e-06
125	0x3c0e1e32	0.008674191
126	0x3bc6fdce	0.0060727363
127	0x39e5c5e0	0.00043825712
128	0x3c36e145	0.011162107
129	0xbcf49896	-0.029857915
130	0xbcdaa3be	-0.026689406
131	0x3bce2a70	0.00629168
132	0x3cd93c56	0.026518028
133	0x3b832cd3	0.004003146
134	0xbad281b5	-0.0016060384
135	0xbc01ccb7	-0.007922343
136	0xbc1e435a	-0.009659613
137	0x3c22dd8f	0.009940519
138	0xbc3f263e	-0.0116668325
139	0xbc1d2e2a	-0.009593526
140	0x3c0e97f0	0.008703217
141	0x3af9f6a3	0.0019070696
142	0xbcb8f742	-0.02257884
143	0x3c8d595c	0.017254524
144	0xbbfd5068	-0.0077305324
145	0x3cd21236	0.02564345
146	0x3b2848bf	0.0025678126
147	0x3b3cf7f4	0.0028834315
148	0x3c4d99b4	0.012548853
149	0xbd215190	-0.039384425
150	0x3cac289f	0.021015463
151	0x3c82ca52	0.015965614
152	0xbca530d9	-0.020164894
153	0xbd496852	-0.049171753
154	0x3c68fc20	0.0142202675
155	0x3b64af67	0.0034894587
156	0x3c3c0895	0.0114766555
157	0xbcca1338	-0.024667367
158	0x3c3ec319	0.011643195
159	0xbca5e6ae	-0.020251598
160	0xbba708d9	-0.0050974903
161	0x3c56641c	0.013085391
162	0x3cac431d	0.021028096
163	0x3c21d208	0.0098767355
164	0xbc607863	-0.013700577
165	0xbc62e3bb	-0.0138482405
166	0xbc86b54c	-0.016443871
167	0xbd2eee0e	-0.042707495
168	0x38035bc0	3.1318283e-05
169	0xba8b7d40	-0.0010642186
170	0xbd2436f0	-0.040091455
171	0xbc282d32	-0.010264682
172	0x3c6f0ba4	0.014590178
173	0x3c0c1571	0.008550034
174	0xbd54ddf4	-0.051969483
175	0xbd113a15	-0.035455782
176	0xbd004aca	-0.031321324
177	0xbbd00d0c	-0.0063492116
178	0xbd236220	-0.0398885
179	0xbc409a6c	-0.011755567
180	0xbc2da754	-0.010598976
181	0xbcd0a1ba	-0.025467742
182	0x3c2bfcea	0.010497311
183	0x3c4a9909	0.012365588
184	0xbd111c2c	-0.035427257
185	0xbbc93830	-0.0061407313
186	0xbc6fd909	-0.014639148
187	0xbcbc48d3	-0.022983944
188	0x3baf9310	0.0053581074
189	0xbc08b3c0	-0.008343637
190	0xbd01c39d	-0.031680692
191	0xbd2f29b4	-0.04276438
192	0x3b99a25a	0.0046885433
193	0xbc2793cd	-0.01022811
194	0xbd3a0c95	-0.045422155
195	0xbce40228	-0.02783306
196	0x3af31afc	0.0018547471
197	0xbd58a41f	-0.052890893
198	0xbd13641a	-0.035984136
199	0xbc4f7fc9	-0.012664744
200	0xbd3ff812	-0.046867438
201	0xbbff9dca	-0.0078007923
202	0xbd6d7420	-0.057972074
203	0xbd2a0a7d	-0.04151391
204	0xbd38954a	-0.04506425
205	0x3c6a85fb	0.01431417
206	0xbd1f96d8	-0.038962215
207	0x3c724516	0.014786979
208	0xbd297d1e	-0.041379087
209	0x3bbb4425	0.0057149106
210	0x3be00b7c	0.0068373065
211	0xbae88de0	-0.0017742477
212	0xbd5215f2	-0.05129046
213	0xbc1d4a99	-0.009600305
214	0xbd294306	-0.041323684
215	0xbc2ec164	-0.010666225
216	0x3c9067fb	0.017627707
217	0xbb1ec00c	-0.0024223356
218	0x3c4c9464	0.012486551
219	0xbc623a6c	-0.013807874
220	0xbc58ca40	-0.013231814
221	0xbcac16d2	-0.021006975
222	0xbd04f932	-0.032464214
223	0xbc77f7cc	-0.015134763
224	0xbc84ef34	-0.016227342
225	0xbc3617a4	-0.011114035
226	0x3cc07b90	0.02349642
227	0xbcb3c540	-0.021944642
228	0xbd5000b4	-0.05078192
229	0xbd55a6a0	-0.05216086
230	0x3bd7cb45	0.006585511
231	0x3c055bee	0.0081395935
232	0xbd440577	-0.047856774
233	0x3be80b6c	0.0070814397
234	0xbc02427d	-0.007950422
235	0x3cc334f1	0.023828955
236	0xbb651cb7	-0.0034959742
237	0x3c6f63b3	0.0146111725
238	0xbb59fd0e	-0.0033262405
239	0x3cd02ae8	0.025411084
240	0xbbc42ecb	-0.0059870235
241	0xb9c574f0	-0.00037661893
242	0xbc6a6d2e	-0.014308257
243	0x3c9454a2	0.018106762
244	0xbd36d500	-0.044636726
245	0xbce90e94	-0.028449334
246	0x3b4519d0	0.00300752
247	0xbcc15702	-0.023601059
248	0xbcc36f20	-0.0238567
249	0x3ab70b63	0.0013965185
250	0x3c02c876	0.007982364
251	0x3c7874b2	0.015164541
252	0xbc9d053b	-0.019167533
253	0x3cab7920	0.02093178
254	0x3bd85f99	0.006603193
255	0xbd1770b6	-0.036972724

fc2.weight f4 [128, 256]
0	0xbd6543f6	-0.055973016
1	0xbd74c8bf	-0.05976176
2	0x3ca50844	0.020145543
3	0xbca18434	-0.01971636
4	0xbd2abf20	-0.041686177
5	0x3c370fbf	0.011173188
6	0xbd8defbc	-0.06930491
7	0x3c977639	0.01848899
8	0xbdb6cefa	-0.089261964
9	0xbd3d0e60	-0.046156287
10	0x3d5dc0ce	0.05413895
11	0x3d2e89c8	0.042611867
12	0x3c6c18d6	0.014410218
13	0xbd339d08	-0.04385093
14	0xbc725b26	-0.014792239
15	0x3c4874fa	0.012234921
16	0x3d047cd2	0.0323456
17	0x3a9b1300	0.0011831224
18	0xbb7098c6	-0.0036712154
19	0x3dda59ab	0.10661634
20	0xbb5f0f18	-0.0034036096
21	0xbe41c99c	-0.18924564
22	0xbcb74b4c	-0.022374772
23	0xbbb452b0	-0.005503021
24	0x3db37272	0.08762063
25	0xbcbf4c17	-0.023351712
26	0xbc07921f	-0.008274584
27	0xbcc34ec2	-0.023841266
28	0x3d045888	0.032310992
29	0x3d8295b0	0.06376207
30	0xbd8ce597	-0.06879728
31	0x3cfb42e4	0.030671544
32	0xbce1ae40	-0.02754891
33	0xbc197573	-0.009366381
34	0x3d898d43	0.06716397
35	0xba5787c0	-0.00082218274
36	0x3d207938	0.039178103
37	0xbcfea7fa	-0.031085957
38	0x3d07b733	0.033133697
39	0xbc83f318	-0.016107127
40	0x3db3ca94	0.08778873
41	0xbe3c829e	-0.18409202
42	0xbc98dc88	-0.018659845
43	0xbce64d5b	-0.028113058
44	0xbdf15c78	-0.11785215
45	0xbc819c80	-0.015821695
46	0xbcef2842	-0.029194001
47	0xbe0116c6	-0.12606344
48	0x3b69ae5e	0.003565691
49	0xbcf05c86	-0.029340994
50	0xbe0a474a	-0.13503757
51	0x3d3a7b30	0.045527637
52	0xbbc345ca	-0.0059592472
53	0x3ce34e6a	0.027747352
54	0xbd7f2083	-0.062286865
55	0x3d940870	0.07228172
56	0xbc491b48	-0.012274571
57	0x3d57c9fc	0.05268286
58	0x3c2b2328	0.010445394
59	0x3d53e394	0.051730707
60	0xbd4fa0a2	-0.0506903
61	0x3cd9bc59	0.026579069
62	0xbd236ecd	-0.03990059
63	0xbe51c5c4	-0.20485598
64	0x3a970350	0.0011521373
65	0x3c28144a	0.010258744
66	0xba2abd80	-0.0006513223
67	0x3b56b08d	0.003275904
68	0xbc9630b6	-0.018333774
69	0x3cb37c98	0.021909997
70	0x3a7499c0	0.0009330772
71	0xbd5eb6ec	-0.054373667
72	0xbd4a0d5c	-0.049329147
73	0xbd97e472	-0.07416619
74	0xbb6083c4	-0.0034258226
75	0xbbf26d4e	-0.007398284
76	0x3d2b7de2	0.041868098
77	0xbd0b20d6	-0.03396686
78	0xbcc61a7c	-0.02418255
79	0xbd021dd2	-0.03176672
80	0xbd2f8afe	-0.042857163
81	0xbca5a74e	-0.020221379
82	0x3bfeeb9c	0.0077795517
83	0xbc86c59e	-0.016451653
84	0xbd37ebc2	-0.04490257
85	0x3d1e11f0	0.038591325
86	0xbe0e9c79	-0.13926877
87	0xbafcb9b8	-0.0019281423
88	0xbd021161	-0.031754855
89	0xbc59aeee	-0.013286335
90	0xbc87b9a5	-0.016568014
91	0xbd73bdfe	-0.059507363
92	0xbdf431f8	-0.11923593
93	0xbd430b6e	-0.047618322
94	0xbca20548	-0.019777909
95	0xbcb028c8	-0.021503821
96	0x3d8cd5ac	0.06876692
97	0xbca8a1dc	-0.020584993
98	0xbd7b1480	-0.061298847
99	0xbde653ff	-0.1124649
100	0xbd64085c	-0.055672035
101	0x3d10af3c	0.035323367
102	0xb849d5e8	-4.812135e-05
103	0xbdfc0e86	-0.123074576
104	0xbd04da32	-0.03243465
105	0xbe1249e3	-0.14285998
106	0xbd419368	-0.04725972
107	0xbd5052ad	-0.050860096
108	0xbc8940b2	-0.016754482
109	0xbd4a9dba	-0.049466826
110	0x3d5fca4a	0.054636277
111	0xbd8adb93	-0.06780162
112	0xbd1c698c	-0.038186595
113	0xbc655781	-0.013997913
114	0x3ceaf3e0	0.028680742
115	0xbd8b4d90	-0.06801903
116	0x3cd916ba	0.026500095
117	0x3cb2da39	0.021832572
118	0x3c964778	0.018344626
119	0xbdd4fad8	-0.10399407
120	0x3d0028d4	0.031288937
121	0xbd7fbf3c	-0.062438235
122	0x3d53483c	0.05158256
123	0x3bd95b7d	0.0066332207
124	0xbce71446	-0.02820791
125	0xbd014133	-0.03155632
126	0xba97ea9d	-0.0011590306
127	0xbd0a8a7e	-0.033823483
128	0xbc8ef7be	-0.017452117
129	0x3d71ac67	0.059002306
130	0xbda987f0	-0.08277881
131	0x3d4b6f16	0.049666487
132	0xbd2178a9	-0.03942171
133	0xbb0496bf	-0.0020231453
134	0x3c5f5ecb	0.01363344
135	0x3d680dc5	0.056653757
136	0xbbed9592	-0.007250496
137	0xbda3e8b6	-0.080033705
138	0xbd458e9b	-0.048231702
139	0x3ce9044c	0.028444432
140	0xbcb7bcf9	-0.022428976
141	0x3db356bc	0.08756778
142	0xbd84d051	-0.06485046
143	0xbc477461	-0.012173743
144	0x3d1ab394	0.037768915
145	0xbcfccf5b	-0.030860594
146	0xbdad9632	-0.08475913
147	0x3c9efb40	0.019406915
148	0x3c87e7de	0.016590055
149	0xbd284b95	-0.041087706
150	0xbd7e3440	-0.06206155
151	0x3dac7a25	0.08421735
152	0xbcdb47ab	-0.026767572
153	0xbd03656a	-0.032079138
154	0xbd7aaf21	-0.061202172
155	0x3d7d03a7	0.06177106
156	0x3c97faec	0.018552266
157	0xbcfb4f26	-0.03067739
158	0xbcceb58e	-0.025233056
159	0x3d0f75ee	0.035024576
160	0xbdf9479e	-0.12171863
161	0xbbe8a74e	-0.0071000224
162	0x3d74d76a	0.059775747
163	0x3d942698	0.07233924
164	0xbb76f920	-0.0037685111
165	0xbd6a2fcd	-0.057174493
166	0xbd58b160	-0.052903533
167	0x3c6b55cc	0.014363717
168	0xbd290514	-0.04126461
169	0x3c880649	0.01660456
170	0x3c70e576	0.014703145
171	0x3dbaf36e	0.09128462
172	0xbb290d40	-0.002579525
173	0x3d038e5b	0.032118183
174	0xba7d25fa	-0.0009656843
175	0x3d2ddbbe	0.04244589
176	0x3d1f641e	0.03891384
177	0x3d2fd23a	0.042925097
178	0xbbdc2f20	-0.006719485
179	0xbce31456	-0.027719658
180	0x3bbb5740	0.005717188
181	0x3d465886	0.048424266
182	0x3d4035d1	0.046926323
183	0xbd2310e0	-0.039811015
184	0xbd564eba	-0.052321173
185	0xbd51a4bc	-0.051182494
186	0xbd1a5674	-0.037680104
187	0x3c4e4054	0.012588579
188	0xbcd7a584	-0.026324041
189	0xbde7f57c	-0.11326119
190	0xbd856c74	-0.065148264
191	0xbd67bbdf	-0.056575652
192	0x3c4edf5a	0.012626493
193	0x3c0f0fe5	0.008731817
194	0xbc5e6ef8	-0.013576262
195	0xbdcdc2de	-0.100469336
196	0x3d8ab696	0.06773107
197	0xbd89d8c0	-0.06730795
198	0x3d19aec5	0.03752019
199	0x3cafdc74	0.021467425
200	0xbd266eec	-0.040633127
201	0xbdec8752	-0.11549248
202	0x3d027842	0.031852968
203	0xbd7a28b4	-0.061073974
204	0x3d6344aa	0.055485405
205	0xbc6d9b57	-0.014502368
206	0x3c3e1c8e	0.011603488
207	0xbab6c058	-0.0013942821
208	0x3cec3292	0.028832708
209	0xbca41afc	-0.020032398
210	0xbdaf0e69	-0.085476704
211	0xbd9323aa	-0.07184537
212	0xbb7d12a3	-0.0038615845
213	0xbd6a438d	-0.057193328
214	0xbd88c8e6	-0.06678943
215	0xbd267f78	-0.040648907
216	0xbd154314	-0.036440924
217	0xbd2a23a6	-0.041537903
218	0xbd0e17eb	-0.03469078
219	0x3d07e510	0.033177435
220	0xbdaaf963	-0.08348348
221	0x3ce833cb	0.02834501
222	0xbbc2d654	-0.00594596
223	0xbc1a378c	-0.0094126575
224	0x3cd80cc8	0.026373282
225	0xbd26f6f2	-0.04076285
226	0xbd77254a	-0.060338296
227	0x3cc64645	0.024203429
228	0x3d5d6b84	0.054057613
229	0xbda0bf86	-0.0784903
230	0x3e4b35c6	0.19844732
231	0xbd037e62	-0.03210295
232	0xbda14874	-0.078751475
233	0x3ca9c194	0.020722188
234	0x3c83c3d6	0.016084593
235	0xbdb96c2e	-0.09053837
236	0xbcbfab69	-0.023397164
237	0xbdc3f5e4	-0.09568384
238	0xbdac7de8	-0.08422452
239	0xbdc02efd	-0.09383962
240	0xbd5249d8	-0.051339954
241	0xbcae7d9c	-0.02130013
242	0xbce0d749	-0.027446406
243	0xbd1d85dc	-0.038457736
244	0x3ca253ae	0.019815292
245	0xbc4463c2	-0.011986675
246	0x3b97229a	0.004612279
247	0x3cd2268a	0.025653142
248	0xbce219a4	-0.027600117
249	0xbd96c328	-0.07361442
250	0xbd1fa4c9	-0.03897551
251	0xbd00db09	-0.03145889
252	0x3c118dfc	0.008883949
253	0x3dd4fb94	0.10399547
254	0x3d8ac213	0.06775298
255	0xbc9d9c4c	-0.019239567

fc2.bias f4 [128]
0	0xbd1c1358	-0.038104385
1	0xbba34ec2	-0.004983754
2	0xbce70864	-0.028202243
3	0xbc5941f6	-0.013260355
4	0x3baf416a	0.005348374
5	0xbd24a4da	-0.040196277
6	0x3d864976	0.0655698
7	0x3d52a35a	0.051425315
8	0xbce8d476	-0.028421622
9	0xbdf0e0d4	-0.117616326
10	0x3cb8edd6	0.022574347
11	0x3d6c2eef	0.057661947
12	0xbd929d8d	-0.07158957
13	0xbce0ac0b	-0.027425786
14	0xbd3f7bd7	-0.046748962
15	0xbd673e30	-0.05645579
16	0xbd0e3f94	-0.0347286
17	0x3aa29300	0.0012403429
18	0xbc28b911	-0.0102980295
19	0xbd84cddc	-0.06484577
20	0xbc56b818	-0.013105415
21	0x3c31655e	0.0108273905
22	0xbd9bab6a	-0.07601054
23	0xbd948d64	-0.072535306
24	0x3ba2def1	0.0049704243
25	0xbd855d69	-0.06511957
26	0xbd6266a3	-0.055273663
27	0x3c3e59dc	0.011618104
28	0xbc080d27	-0.008303917
29	0x3d31afed	0.043380667
30	0xbdaa3b83	-0.08312132
31	0xbc845860	-0.016155422
32	0x3c7ca094	0.015419144
33	0xbcccb721	-0.024989666
34	0xbc072c84	-0.008250359
35	0x3caebab9	0.02132927
36	0x3d5a057d	0.05322789
37	0xbd6bda51	-0.05758125
38	0xbd1d9da4	-0.038480416
39	0xbda34cea	-0.079736546
40	0x3cbad8f0	0.022808522
41	0xbd0d2e98	-0.034468263
42	0x3d12f689	0.035879645
43	0xbdd0454b	-0.101694666
44	0xbd9d22d7	-0.07672661
45	0x3dc51dce	0.096248254
46	0x3d55b328	0.05217281
47	0xbc96339c	-0.018335156
48	0xbd6edf59	-0.05831847
49	0xbd8bb266	-0.06821136
50	0xbcdad9f4	-0.026715256
51	0xbcd78272	-0.026307318
52	0xbc77d5a8	-0.015126623
53	0x3cca762c	0.024714552
54	0x3ce974b0	0.028498024
55	0x3c649e31	0.013953731
56	0x3d5a0e9e	0.053236596
57	0x3c13a10a	0.009010563
58	0xbd7d020e	-0.061769538
59	0x3d1b3b2c	0.037898228
60	0xbbfbc625	-0.007683533
61	0x3db45d47	0.08806854
62	0xbd8e3720	-0.06944108
63	0x3c23079e	0.009950547
64	0x3cc535ce	0.024073508
65	0xbdb053a2	-0.08609702
66	0x3d59e2dc	0.053194866
67	0xbd65652f	-0.0560047
68	0xbd603413	-0.05473716
69	0xbd38c577	-0.045110192
70	0x3d2f23e6	0.042758845
71	0xbd933d45	-0.071894206
72	0x3d24c634	0.040228084
73	0x3d1b7009	0.037948642
74	0x3cafb2ec	0.021447621
75	0xbc543658	-0.01295241
76	0x3d32750d	0.04356866
77	0x3c87357c	0.016504996
78	0xbc8fc364	-0.017549224
79	0x3cb23dec	0.021758042
80	0x3d9773c1	0.07395125
81	0xbd718252	-0.058962174
82	0xbd6a89ed	-0.057260443
83	0x3bf86538	0.0075804256
84	0x3de74ece	0.11294328
85	0xbd6c9630	-0.057760417
86	0xbd3f16fc	-0.04665278
87	0xbda43a80	-0.080189705
88	0xbdb175ff	-0.08665084
89	0xbd20074d	-0.039069463
90	0xbc3f7355	-0.011685212
91	0xbca62d23	-0.020285195
92	0x3c50c99c	0.01274338
93	0xbdad6d25	-0.08468083
94	0xbd7996da	-0.06093488
95	0xbd279276	-0.04091116
96	0x3db5576e	0.088545665
97	0xbdea2cc4	-0.114343196
98	0xbc6042b4	-0.013687778
99	0x3c29c48a	0.0103618
100	0x3c3b5a76	0.011435142
101	0x3cc26f18	0.023734614
102	0x3c2b1880	0.010442853
103	0xbd81dd44	-0.06341031
104	0x3d5a8c28	0.05335632
105	0xbd9970aa	-0.07492192
106	0x3dcd3468	0.10019761
107	0x3d7ee750	0.062232316
108	0xbc85b387	-0.016320957
109	0xbdb7d546	-0.089762256
110	0xbd8ae3c4	-0.06781724
111	0x3bb474bb	0.0055070794
112	0xbd441574	-0.04787202
113	0x3c39d22c	0.011341613
114	0xbc95b122	-0.01827294
115	0x3d3ddbd0	0.046352208
116	0xbd5ad270	-0.053423345
117	0x3cf9d760	0.030498207
118	0xbd9a83bf	-0.0754466
119	0xbcc0f9ac	-0.023556553
120	0x3d10a5bb	0.035314303
121	0x3c2b7ee6	0.010467267
122	0xbd8be021	-0.068298586
123	0xbca28442	-0.019838456
124	0xbd796448	-0.06088665
125	0xbd2b4c9f	-0.04182112
126	0x3c10eeb1	0.008845971
127	0x3c986ae4	0.018605657

fc3.weight f4 [64, 128]
0	0xbd7b2020	-0.061309934
1	0xbd3dc7be	-0.046333067
2	0x3d60fe72	0.054930158
3	0xbc8882a4	-0.016663857
4	0x3c94af2a	0.018149931
5	0x3c21ebac	0.009882849
6	0xbd4b8fa0	-0.04969752
7	0x3df5dca6	0.12004976
8	0xbdd35fed	-0.10321031
9	0x3c28ae2d	0.010295433
10	0xbc3d7f56	-0.011566004
11	0x3d342d2a	0.043988384
12	0xbc218ac4	-0.009859744
13	0xbdadd22f	-0.08487355
14	0xbded1052	-0.115753785
15	0x3da46940	0.08027887
16	0x3c8d0c90	0.017217904
17	0xbd1c031b	-0.0380889
18	0x3c968682	0.018374685
19	0xbc509964	-0.012731884
20	0xbb2fd8d0	-0.0026832111
21	0xbba79e8c	-0.005115336
22	0x3ccddf84	0.025130995
23	0x3d7c6f1c	0.0616294
24	0x3de6e1f3	0.11273565
25	0xbd99a4da	-0.07502146
26	0xbcb4c466	-0.022066306
27	0x3dae024b	0.08496531
28	0xbd88f7ac	-0.06687865
29	0x3c81801e	0.015808161
30	0xbd87e3d1	-0.066352494
31	0x3c79afc9	0.015239664
32	0xbde54374	-0.11194506
33	0xbcbfbdd4	-0.023405947
34	0x3e43eacf	0.19132541
35	0xbde81e9b	-0.113339625
36	0x3b532720	0.0032219365
37	0x3d56bdb4	0.05242701
38	0x3c6eafdd	0.014568296
39	0x3dc1fb7a	0.094717935
40	0xbc79cd7e	-0.015246747
41	0x3dd74a8c	0.105122656
42	0xbd5ec843	-0.054390203
43	0xbcf21a14	-0.02955345
44	0x3df9f7e6	0.12205486
45	0xbd2afe28	-0.04174629
46	0xbdd2093b	-0.10255667
47	0x3c2ef070	0.010677442
48	0x3d4f48b7	0.050606456
49	0xbda12c95	-0.078698315
50	0xbd1b27b6	-0.03787967
51	0x3d041b32	0.032252498
52	0x3dce9845	0.10087637
53	0x3e4672c4	0.19379717
54	0xbd8852ef	-0.06656443
55	0x3dbcbaa1	0.09215284
56	0x3cdd3fe8	0.027008012
57	0xbd57220e	-0.05252271
58	0x3ded3182	0.115817085
59	0x3cab6d03	0.020926004
60	0x3d89c176	0.06726353
61	0xbce96531	-0.028490635
62	0x3c9c0721	0.019046368
63	0x3d305752	0.043052025
64	0xbd503e6a	-0.050840773
65	0x3cd3bc34	0.025846578
66	0xbbeb8e6b	-0.0071886084
67	0xbdf2603c	-0.118347615
68	0xbc7e81f2	-0.015533911
69	0x3dd5cdc3	0.104396366
70	0xbd6ef56b	-0.058339518
71	0xbd59f49f	-0.053211804
72	0x3dc8a8ac	0.097977966
73	0x3caa9e20	0.020827353
74	0x3d9ed1bc	0.077548474
75	0x3d49e696	0.04929217
76	0x3d870ca1	0.06594206
77	0xbda90e36	-0.08254664
78	0xbd3e00ab	-0.046387356
79	0x3a7b0f80	0.00095772
80	0xbda2912e	-0.07937847
81	0x3d3117a2	0.04323543
82	0xbd3d0c47	-0.046154287
83	0x3d425068	0.047439963
84	0xbd387e20	-0.045042157
85	0x3d44d550	0.048054993
86	0xbdc41e40	-0.09576082
87	0xbbe81a1d	-0.007083191
88	0xbd616850	-0.05503112
89	0xbad1d3a0	-0.0016008504
90	0xbcb591fa	-0.022164334
91	0x3ca7d1a1	0.020485701
92	0xbd3db770	-0.046317518
93	0x3dddfff7	0.10839837
94	0xbd80adf8	-0.06283182
95	0xbd9f4454	-0.077767044
96	0x3ce21f0c	0.027602695
97	0x3c41666a	0.011804203
98	0xbbe5e85a	-0.007016224
99	0xbd211123	-0.039322983
100	0x3db58a3b	0.08864256
101	0xbcd81a1e	-0.026379641
102	0xbbc27286	-0.0059340624
103	0x3cc7aadf	0.02437347
104	0xbdd19af2	-0.102346316
105	0xbccb583f	-0.024822352
106	0xbccf1fb8	-0.02528368
107	0xbcff485c	-0.031162433
108	0xbd36664d	-0.044531155
109	0xbc9a75cd	-0.018855
110	0x3db246ca	0.08704908
111	0x3d5bebfb	0.053691845
112	0x3beaab5f	0.0071615423
113	0x3a725130	0.0009243665
114	0x3dfb8e92	0.122830525
115	0xbc3de184	-0.011589412
116	0xbd2c80ae	-0.042114906
117	0x3d281603	0.041036617
118	0x3d2a2698	0.041540712
119	0x3e09b6c8	0.13448632
120	0x3cc70918	0.024296328
121	0x3da94aa4	0.0826619
122	0x3d4352fe	0.04768657
123	0x3dacdf46	0.084410235
124	0xbc5422e0	-0.012947768
125	0xbdb9632a	-0.09052117
126	0xbd9ca030	-0.07647741
127	0xbd729abc	-0.059229597
128	0xbd23f7ee	-0.040031366
129	0xbdb607f8	-0.08888239
130	0x3dfd17a4	0.12358025
131	0x3d986747	0.074415736
132	0x3cb2fc3d	0.021848792
133	0x3b10dea0	0.002210535
134	0x3d01f705	0.031729717
135	0xbe15d66a	-0.14632574
136	0xbce5408d	-0.027984882
137	0x3d69b541	0.057057623
138	0x3d76ea68	0.06028214
139	0xbcea3995	-0.02859191
140	0xbe1f17cd	-0.15536423
141	0x3d882803	0.06648257
142	0x3db4b909	0.08824355
143	0x3c362ef7	0.011119596
144	0xbd7dffad	-0.06201141
145	0x3de1aaf2	0.11018933
146	0xbdee09db	-0.116229735
147	0x3ced8c45	0.02899755
148	0x3db829ba	0.08992334
149	0xbdb1126c	-0.08646092
150	0xbdbdede4	-0.0927389
151	0xbc08546a	-0.008320907
152	0xbdc88a72	-0.09792031
153	0xbe35cbc6	-0.17753515
154	0xbcc0fd70	-0.023558348
155	0x3b03d184	0.0020113895
156	0xbce8ebf0	-0.028432816
157	0xbb608792	-0.0034260494
158	0xbd04a646	-0.032385133
159	0xbd720b1c	-0.059092626
160	0xbde35b7c	-0.11101434
161	0xbde082b9	-0.10962433
162	0xbd02c0af	-0.03192204
163	0x3d7562f4	0.059908822
164	0x3d82d522	0.06388308
165	0xbc7ef0cc	-0.01556034
166	0xbd9db094	-0.07699695
167	0x3cd197ba	0.025585044
168	0xbc8ba0b5	-0.017044405
169	0xbc46d0c4	-0.012134735
170	0x3d0bf83c	0.03417228
171	0x3d5eae71	0.05436558
172	0xbd29c1c1	-0.041444544
173	0x3da7da98	0.0819599
174	0x3e130d6d	0.1436059
175	0x3e04a29e	0.12952659
176	0xbd5e63c4	-0.054294363
177	0xbc3b4056	-0.011428913
178	0x3d9798fb	0.074022256
179	0x3de8cc3e	0.11367081
180	0x3bbdbf54	0.0057906304
181	0x3c0df570	0.008664474
182	0x3dcbe24c	0.09955272
183	0xbd7c5dc1	-0.06161285
184	0xbd8d1d31	-0.068903334
185	0xbb6c27c0	-0.0036034435
186	0xbdc6eb62	-0.097128645
187	0x3d89f9bd	0.06737087
188	0x3cd66aa8	0.026173905
189	0x3e13f5f3	0.14449291
190	0x3d65278f	0.05594593
191	0x3c659087	0.014011509
192	0xbd0a768b	-0.033804458
193	0xbcf0a454	-0.029375233
194	0xbdfaf2f6	-0.12253372
195	0x3c9d9c90	0.019239694
196	0xbdc20d8a	-0.094752386
197	0xbcec8264	-0.028870769
198	0x3d8d1569	0.06888849
199	0xbcb73373	-0.0223634
200	0xbd17d7bb	-0.03707097
201	0x3c74fc4c	0.01495273
202	0x3cf521ab	0.02992328
203	0xbccc8a3d	-0.02496826
204	0x3d577df1	0.05261034
205	0xbdc98d41	-0.09841395
206	0x3dcee44e	0.101021394
207	0xbe0cf554	-0.1376546
208	0xbdd4a4c7	-0.10382991
209	0x3d4290c2	0.047501333
210	0xbc9cb1e1	-0.019127788
211	0x3d874532	0.06604995
212	0xbd996573	-0.07490053
213	0xbe1af9b9	-0.15134324
214	0xbd27dabb	-0.040980082
215	0xbdbbafef	-0.09164416
216	0x3d22bd1f	0.03973114
217	0xbd67f7f8	-0.056632966
218	0x3d554f26	0.052077435
219	0xbd500ba6	-0.05079236
220	0xbd82d55d	-0.06388352
221	0x3c1492a5	0.009068166
222	0xbc963788	-0.018337026
223	0x3de07e6e	0.109616145
224	0x3d963bbb	0.073356114
225	0xb910e040	-0.0001381645
226	0x3c494d8c	0.012286555
227	0xbd74c58a	-0.0597587
228	0xbd00b5eb	-0.03142349
229	0xbc56cada	-0.013109887
230	0xbd36d17f	-0.044633385
231	0x3c8a410a	0.016876716
232	0xbcecae08	-0.028891578
233	0xbccc3eb2	-0.02493224
234	0xbd87d976	-0.06633274
235	0x3d2edf8a	0.042693652
236	0xbcfbb604	-0.03072644
237	0x3ce167e2	0.027515355
238	0xbde42e03	-0.111415885
239	0xbca1d0a7	-0.019752814
240	0x3d62b785	0.0553508
241	0x3bfc59d0	0.007701136
242	0x3db72370	0.08942306
243	0xbca65682	-0.020304922
244	0x3dbb70a2	0.091523424
245	0x3d2bbfac	0.04193084
246	0xbc49171d	-0.012273577
247	0xbcd3ad56	-0.025839489
248	0x3bf916ac	0.0076015797
249	0x3d1bd266	0.03804245
250	0x3d19cf7b	0.037551384
251	0xbe086377	-0.13319193
252	0xbd9e4e98	-0.07729834
253	0x3bf0b950	0.0073463097
254	0x3cc72dcc	0.02431383
255	0xbe283497	-0.16426311

fc3.bias f4 [64]
0	0x3dc017ea	0.09379561
1	0x3da20d36	0.07912676
2	0xbd779434	-0.060444072
3	0x3d72c104	0.059266105
4	0x3caaab48	0.020833626
5	0xbda466aa	-0.08027394
6	0xbc91a302	-0.017777923
7	0x3ce04458	0.027376339
8	0xbc8f709e	-0.017509755
9	0xbe0eed22	-0.13957646
10	0xbd909c27	-0.07061034
11	0xbc8a5f8c	-0.016891263
12	0x3d2f1678	0.042746037
13	0xbd87311b	-0.06601163
14	0xbccd10e4	-0.025032468
15	0x3cca5956	0.024700802
16	0xbdc92ef8	-0.09823412
17	0xbce2c156	-0.02768008
18	0xbd98a92f	-0.07454144
19	0x3d8898ba	0.06669755
20	0xbd7c2aa5	-0.061564106
21	0xbd6e9e1c	-0.058256254
22	0xbab6944e	-0.0013929696
23	0xbd8e7263	-0.06955411
24	0x3d3102f9	0.043215726
25	0xbcaba42e	-0.02095231
26	0xbdd9c57a	-0.10633369
27	0xbd8dfa2c	-0.06932482
28	0xbdcf11d0	-0.10110819
29	0xbdb32fd5	-0.087493576
30	0x3bd481f5	0.0064852186
31	0xbd0f150a	-0.034932174
32	0x3ce1f7f1	0.027584048
33	0xbda87d70	-0.0822705
34	0xbdb02587	-0.08600908
35	0xbdd5bf0e	-0.104368314
36	0xbd4e044d	-0.05029707
37	0xbe11ce8a	-0.14238945
38	0x3d229fba	0.03970311
39	0x3d551312	0.05202014
40	0xbd088894	-0.033333376
41	0x3e1687a0	0.14700174
42	0xbd58de68	-0.052946478
43	0xbd880f18	-0.06643504
44	0x3c84da76	0.016217452
45	0xbdd9c2d6	-0.10632865
46	0x3d09e3c0	0.033664465
47	0xbd626514	-0.055272177
48	0xbd1cbcf6	-0.038266145
49	0xbc01ef6f	-0.007930621
50	0x3daf205e	0.085510954
51	0xba88f7a0	-0.0010449775
52	0xbc20266a	-0.009774784
53	0xbd16c892	-0.036812373
54	0xbdd23290	-0.1026355
55	0x3d9f2399	0.077704616
56	0xbd3e51d8	-0.04646477
57	0xbd964dc0	-0.073390484
58	0x3cf67f3e	0.03008997
59	0xbcc834c4	-0.024439223
60	0xbe031b5a	-0.12803403
61	0xbdaf3e18	-0.08556765
62	0xbdb063b1	-0.086127646
63	0x3d685512	0.056721754

fc4.weight f4 [10, 64]
0	0xbddb5cb1	-0.10711039
1	0xbdd10280	-0.10205555
2	0x3dadf10f	0.08493244
3	0x3d373395	0.044726927
4	0xbe031fde	-0.12805125
5	0x3d560c43	0.052257787
6	0x3d8fac10	0.0701524
7	0x3c49524e	0.012287689
8	0xbd85b288	-0.06528193
9	0xbe246b8c	-0.16056651
10	0xbe21f238	-0.15815055
11	0x3be99668	0.0071285255
12	0xbe1db8e2	-0.15402558
13	0x3d5d61ba	0.054048277
14	0x3d213eca	0.03936652
15	0x3c026c90	0.007960454
16	0x3cc36562	0.023852054
17	0xbe62a2de	-0.22132441
18	0xbd5e1f82	-0.054229267
19	0xbe0da329	-0.13831772
20	0x3d94d789	0.072676726
21	0x3decfe58	0.1157195
22	0x3b83f423	0.004026906
23	0x3d019af7	0.031641927
24	0xbd077d7a	-0.03307865
25	0x3dc9a158	0.09845227
26	0x3dcf4736	0.10121004
27	0xbd0b8b9a	-0.03406868
28	0x3dd97368	0.10617715
29	0xbe419f82	-0.18908504
30	0xbe2456ab	-0.16048686
31	0x3dddf11c	0.108370036
32	0xbe082e30	-0.13298869
33	0x3d9e44fd	0.07728002
34	0x3c905f79	0.01762365
35	0xbdfc3d40	-0.1231637
36	0xbddc4253	-0.10754838
37	0xbdea2ea9	-0.11434681
38	0xbe0bbb51	-0.13645674
39	0xbe299452	-0.16560486
40	0x3ca6545a	0.020303894
41	0x3dcbf52c	0.09958872
42	0x3db13728	0.08653098
43	0x3d19b914	0.03753002
44	0xbc6c4df3	-0.014422881
45	0xbe0ee86a	-0.13955846
46	0x3b7b5680	0.0038351119
47	0xbe10c248	-0.14136612
48	0x3cdc36e9	0.026881652
49	0xbd1f931e	-0.03895866
50	0xbdf86ba8	-0.12129909
51	0xbdac4b84	-0.08412841
52	0x3df9eb5c	0.12203094
53	0xbcc8e7cd	-0.024524594
54	0xbda732dd	-0.08163998
55	0xbde6faca	-0.11278303
56	0x3d9c1b75	0.076224245
57	0xbd280956	-0.04102453
58	0x3d073b63	0.03301562
59	0xbd151dd6	-0.036405407
60	0xbd85d805	-0.06535343
61	0x3d8ef8bf	0.06981038
62	0xbd7211ca	-0.059098996
63	0xbe20f147	-0.1571704
64	0xbd785d58	-0.060635895
65	0x3d1c2228	0.03811851
66	0xbe310cee	-0.17290089
67	0xbd8d99f0	-0.06914127
68	0x3d9a6cbb	0.0754027
69	0xbcd6a4d6	-0.026201647
70	0xbdd4da58	-0.10393208
71	0xbe485552	-0.19563797
72	0xbcdc3c5a	-0.026884247
73	0x3da25c1c	0.07927725
74	0x3de3a06a	0.11114581
75	0xbdbd201a	-0.092346385
76	0x3e0371d4	0.1283639
77	0xbd30bd6c	-0.043149397
78	0xbdf899d4	-0.121387154
79	0xbd120a66	-0.035654448
80	0xbe32a7a8	-0.17446768
81	0xbd66845a	-0.056278564
82	0xbd3eb114	-0.046555594
83	0xbe0a02aa	-0.13477579
84	0x3d26c54a	0.040715493
85	0xbd8ea37b	-0.06964775
86	0x3e08b182	0.13348964
87	0x3e18b040	0.14910984
88	0xbd03fe73	-0.032225084
89	0xbd95a7f9	-0.07307429
90	0xbe460cb2	-0.1934078
91	0xbca529a7	-0.020161463
92	0x3df11272	0.11771096
93	0x3dc9801f	0.0983889
94	0x3dcd4c6a	0.100243405
95	0xbdaaf784	-0.08347991
96	0x3d6141b0	0.054994285
97	0xbd332252	-0.043733902
98	0x3d506d86	0.0508857
99	0xbcdf23d2	-0.02723876
100	0xbd870d49	-0.06594331
101	0xbdad3c17	-0.08458727
102	0x3d9f3e64	0.07775572
103	0xbdc78648	-0.09742409
104	0xbd360725	-0.044440407
105	0xbe599202	-0.21247104
106	0xbe54d4dc	-0.20784324
107	0xbc9c0b54	-0.01904837
108	0xbcc6af0e	-0.024253394
109	0xbd6bc5de	-0.057561748
110	0xbe23747c	-0.15962404
111	0x3e097d22	0.1342664
112	0x3def69f6	0.11690132
113	0xbcfb15fa	-0.030650128
114	0x3e087f1b	0.13329737
115	0xbdffcfb2	-0.124907866
116	0xbe138378	-0.1440562
117	0xbc8e05d2	-0.01733676
118	0xbe1436f5	-0.1447409
119	0x3d0d981b	0.034568887
120	0xbe4467e2	-0.19180253
121	0xbd43c688	-0.047796756
122	0xbe1c3e66	-0.15258178
123	0x3d224e13	0.03962524
124	0x3d885cd8	0.066583335
125	0xbd0499b6	-0.032373153
126	0x3e0570be	0.13031289
127	0x3dfd4118	0.12365931
128	0xbdb74be9	-0.089500256
129	0xbc83a7f9	-0.016071307
130	0xbd8ee1df	-0.06976675
131	0x3bcbc67c	0.0062187295
132	0x3d13ad5c	0.036054
133	0x3e094286	0.13404283
134	0x3e046828	0.12930357
135	0x3d0e2686	0.034704708
136	0xbcc0b988	-0.023525968
137	0x3de7cc56	0.11318271
138	0xbd4694c4	-0.048481718
139	0x3dbdfe6d	0.092770435
140	0xbda0b5b9	-0.07847161
141	0x3cf37c59	0.02972238
142	0x3dca1a24	0.09868267
143	0x3d856f0a	0.0651532
144	0x3d21b16d	0.039475847
145	0xbc67e4ee	-0.014153702
146	0xbb854077	-0.0040665227
147	0xbd4ded48	-0.050275117
148	0x3d8c58d2	0.06852879
149	0xbd13700a	-0.03599552
150	0x3d411f14	0.04714878
151	0xbb46b148	-0.003031807
152	0x3d993f29	0.0748275
153	0xbd895f00	-0.06707573
154	0xbe166c3c	-0.14689726
155	0x3c7ba54f	0.015359237
156	0x3d90254c	0.07038364
157	0xbe0e9bf4	-0.13926679
158	0xbde4d0fc	-0.11172673
159	0xbe2bacb5	-0.16765101
160	0x3e117a07	0.14206706
161	0xbb89abb2	-0.004201376
162	0x3db31952	0.08745064
163	0x3d599ca0	0.053127885
164	0x3d048d7e	0.0323615
165	0xbd361067	-0.044449236
166	0xbceb4406	-0.02871896
167	0x3c69dd75	0.014273991
168	0x3d72b210	0.059251845
169	0xbddd4e4e	-0.10805951
170	0xbe0a3f72	-0.13500765
171	0x3d4786ce	0.048712544
172	0xbdf0b566	-0.11753349
173	0x3d422788	0.04740098
174	0xbce15517	-0.027506394
175	0x3dc71cf9	0.09722323
176	0x3da5db76	0.080984995
177	0xbe006f50	-0.12542462
178	0x3d749f6c	0.05972235
179	0xbd093bc0	-0.033504248
180	0xbcc3f16a	-0.023918826
181	0xbdbe7b17	-0.09300821
182	0xbdb9074e	-0.090345964
183	0xbd990f9b	-0.0747368
184	0xbdadf301	-0.08493615
185	0x3d955f5a	0.072935775
186	0xbdb41482	-0.08792974
187	0xbe060e40	-0.13091373
188	0x3d9c6be8	0.07637769
189	0x3cb75e9a	0.022383977
190	0xbe8a5654	-0.27018988
191	0xbaf91fe0	-0.0019006692
192	0x3dc172f6	0.09445755
193	0xbd89e5d7	-0.067332916
194	0xbdb59042	-0.088654056
195	0x3e08c166	0.13355026
196	0x3d42e7f5	0.047584493
197	0x3bf1b8bc	0.0073767584
198	0xbde203a2	-0.11035849
199	0x3dfb245f	0.122627966
200	0x3dcdd54b	0.10050448
201	0x3d98279a	0.074294284
202	0x3dc0754e	0.09397374
203	0xbcb82fd0	-0.022483736
204	0xbbb9a8ba	-0.0056658657
205	0xbcc79348	-0.024362221
206	0xbc893785	-0.016750107
207	0x3d86e110	0.06585896
208	0x3cde6d0e	0.02715161
209	0xbdd47c9d	-0.103753306
210	0x3d50f770	0.051017225
211	0xbe31a9f9	-0.17349996
212	0x3dc85ca8	0.09783298
213	0xbd26bd0b	-0.04070763
214	0xbda26304	-0.07929042
215	0x3c532d43	0.012889209
216	0xbd44a5a6	-0.048009537
217	0xbdc2d11b	-0.0951254
218	0xbd8858a9	-0.066575356
219	0xbb7702c0	-0.0037690848
220	0xbdbce8c9	-0.09224088
221	0x3da3b318	0.07993144
222	0xbd797708	-0.060904533
223	0x3c14a501	0.009072543
224	0xbc922d6a	-0.01784392
225	0x3da56fc0	0.08077955
226	0xbde7c09a	-0.11316033
227	0x3c9816e6	0.018565606
228	0x3d996a21	0.074909456
229	0x3c2e2964	0.0106299855
230	0x3daa7d73	0.08324709
231	0x3c839066	0.016060065
232	0x3b81e972	0.0039645964
233	0xbe030789	-0.12795843
234	0x3d14883c	0.036262736
235	0x3cacafb8	0.021079883
236	0x3ce6bbd5	0.028165737
237	0xbe1ff641	-0.15621282
238	0xbdedbdf0	-0.11608493
239	0x3d09e772	0.03366799
240	0xbd2e2312	-0.042513914
241	0x3daa59e6	0.08317928
242	0x3c8951d7	0.016762657
243	0x3dcc5f8f	0.09979164
244	0x3ddaaed4	0.10677877
245	0xbd942c8c	-0.07235059
246	0x3d85cbe8	0.06533033
247	0x3dfe7740	0.12425089
248	0xbe43ad28	-0.19109023
249	0x3dacb7ce	0.084334955
250	0xbd92c51d	-0.071665026
251	0x3d252c18	0.040325254
252	0x3bd0efb6	0.006376232
253	0x3e0012d1	0.12507178
254	0xbe07a75b	-0.13247435
255	0xbd1938ca	-0.037407674

fc4.bias f4 [10]
0	0xbd5e2b75	-0.054240663
1	0xbe077fbb	-0.13232319
2	0xbd1d60fe	-0.038422577
3	0x3da7ebb6	0.08199255
4	0x3dbb1680	0.09135151
5	0xbc749c35	-0.014929821
6	0x3dab7803	0.083725
7	0xbe0f137e	-0.1397228
8	0x3e5d207e	0.21594426
9	0x3d7ca28e	0.06167846
