src/server/global_parameters.pt (torch, 973831 bytes, 8 tensors)

fc1.weight f4 [256, 784]
0	0xbc199b8e	-0.009375466
1	0x3c33d1e8	0.0109753385
2	0x3b9b0018	0.004730236
3	0x3c5fd1e8	0.013660885
4	0xbcf1e20a	-0.02952673
5	0xbc03c8ea	-0.008043507
6	0xbc9ed743	-0.019389754
7	0x3ba60db0	0.0050675496
8	0xbcd7386c	-0.026272021
9	0x3cc7ec5e	0.0244047
10	0x398a5400	0.00026383996
11	0x3ccabb9a	0.024747659
12	0xbcbb6d3c	-0.022879235
13	0xbc635c52	-0.013876991
14	0xbbd09af0	-0.0063661262
15	0x3bbfdbc0	0.0058550537
16	0x3c172748	0.009225674
17	0x3a84e460	0.0010138862
18	0xbc62b0a6	-0.013836062
19	0x3cf0e9f6	0.029408436
20	0x3b881aa8	0.0041535683
21	0x3b1343e0	0.0022470877
22	0x3c876af4	0.016530491
23	0x3cd775e0	0.026301324
24	0xbcc92b63	-0.024556821
25	0xbbb6c6c0	-0.005577892
26	0x3cf66b9e	0.030080613
27	0x3ae01240	0.0017095283
28	0x3ccfa952	0.025349293
29	0x3a615b40	0.0008596666
30	0xbd0a8fcc	-0.03382854
31	0xbc704c26	-0.014666593
32	0xbd09f89c	-0.033684358
33	0x3c5189f4	0.012789238
34	0x3cce4f2a	0.025184233
35	0xbc592d2a	-0.013255397
36	0x3bd8ba60	0.0066140145
37	0x3c73ba88	0.0148760155
38	0xbc7c42e6	-0.015396809
39	0x3cabe47e	0.020982977
40	0xbd057e54	-0.03259118
41	0xbadac760	-0.0016691498
42	0x3c6c2c9c	0.014414933
43	0xbc0f862e	-0.008760018
44	0xbcc1f763	-0.023677533
45	0xbcfa1281	-0.030526401
46	0xbcb0854e	-0.02154794
47	0xbd05cb3e	-0.03266453
48	0x3d121873	0.035667848
49	0xbc8df29a	-0.017327596
50	0xbc9c8f07	-0.01911117
51	0x3c694038	0.014236502
52	0x3cbf4a38	0.02335082
53	0xbbd8b940	-0.0066138804
54	0xbce914b5	-0.028452257
55	0x3cb1cde2	0.021704618
56	0x3cf02f9e	0.02931958
57	0x3b5d8f60	0.0033807382
58	0x3ccfc1b8	0.025360927
59	0x3d068f33	0.03285141
60	0xbd07e75b	-0.033179622
61	0xbc29ca98	-0.0103632435
62	0x3cf1b4a2	0.029505078
63	0x3d09d71b	0.033652406
64	0x3c404e84	0.01173747
65	0x3d01d5b9	0.031697962
66	0x3b57fa30	0.003295552
67	0xbb2e9530	-0.0026639216
68	0x3c1d00fc	0.009582754
69	0xbc69bbc0	-0.0142659545
70	0xbbe63748	-0.007025633
71	0xba6da8c0	-0.0009065978
72	0x3ca1a01c	0.019729666
73	0x3cceddec	0.025252305
74	0xbd0886af	-0.03333157
75	0xbcb7bbfa	-0.022428501
76	0x3bb623c8	0.0055584647
77	0xbc9420e0	-0.018082082
78	0xbcfd3d3e	-0.030912992
79	0x3c1e9a08	0.009680279
80	0x3cf1bac6	0.029508006
81	0x3c573bf8	0.013136856
82	0xbb8dcd10	-0.004327424
83	0xbccd4cbe	-0.025061008
84	0xbbdc3148	-0.006719742
85	0x3cf3a20e	0.02974036
86	0x3983af00	0.00025116652
87	0x3cf1ebf6	0.02953146
88	0x3c6dc23c	0.014511641
89	0xbca046e3	-0.019565051
90	0xbc9eaf37	-0.019370658
91	0x3d0259b1	0.031823818
92	0x3c82f808	0.015987411
93	0x3d104b51	0.035228077
94	0x3cf7b9d6	0.03023998
95	0x3c4093f0	0.011754021
96	0xbcd66af3	-0.026174044
97	0x3bc1a388	0.005909387
98	0x3c96aade	0.018392023
99	0x3cba5dfc	0.022749893
100	0xbc9057be	-0.017619964
101	0x3cddd2be	0.027078029
102	0x3d09ac33	0.033611488
103	0x3c7a51a4	0.015278254
104	0x3d05b927	0.03264728
105	0x3c8ec8de	0.017429765
106	0xbcc8e778	-0.024524435
107	0xbc7c177c	-0.0153864585
108	0xbc8787b0	-0.016544193
109	0xbb9251e4	-0.0044653285
110	0x3c9b6ba8	0.018972233
111	0xbc27036e	-0.010193689
112	0x3cdf3206	0.027245533
113	0x3ca04f4c	0.019569062
114	0xbc9e82fa	-0.019349564
115	0x3c205bc0	0.0097875
116	0xbc83d917	-0.016094727
117	0x3c94b1cc	0.018151186
118	0xbcb50cd8	-0.022100851
119	0x3c892284	0.016740091
120	0xbbe33238	-0.006933477
121	0xbd0bf8f0	-0.034172952
122	0x3cdd1466	0.026987266
123	0xbc5ba112	-0.013405101
124	0xbcaa2aa0	-0.020772278
125	0xbcbae213	-0.022812879
126	0xbd07414a	-0.03302125
127	0x3ca2f186	0.019890558
128	0xbc4e26c0	-0.012582481
129	0xbc6b6672	-0.014367687
130	0x3c803248	0.015648976
131	0xbc03022e	-0.007996125
132	0xbca73b50	-0.020414025
133	0xbceb6b21	-0.028737606
134	0x3c1f75a8	0.009732641
135	0xbcc01e5e	-0.02345198
136	0x3cf69d92	0.030104432
137	0x3c54e750	0.012994602
138	0x3b426560	0.0029662475
139	0xbcef509a	-0.029213239
140	0x3b6e61d0	0.0036374219
141	0x3c4a7ff8	0.012359612
142	0xbc8d2a4a	-0.017232079
143	0x3cfb4c82	0.03067613
144	0x3bf64d30	0.0075165257
145	0x3cf65d8e	0.030073907
146	0x3c0e7b84	0.008696441
147	0x3c63b3c0	0.013897836
148	0xbc016d2a	-0.007899562
149	0xbc24e6ce	-0.010064794
150	0x3c3f63b8	0.01168149
151	0xbc447278	-0.011990182
152	0xbcb6beca	-0.022307772
153	0xbc75566a	-0.014974216
154	0xbca7f6ac	-0.020503365
155	0xbc1c6a00	-0.009546757
156	0xbbb0e7a4	-0.0053987075
157	0xbc5e5a78	-0.013571374
158	0xbc561740	-0.013067067
159	0xbbdf0248	-0.006805692
160	0xbcb8a2ec	-0.022538625
161	0xbcc53edc	-0.024077825
162	0xbcb61000	-0.022224426
163	0xbc2769bc	-0.01021808
164	0xbbfffcc0	-0.0078121126
165	0x3d0c2879	0.034218285
166	0xbc63cd8a	-0.013903985
167	0xbd0e80c7	-0.03479078
168	0x3bf65aa8	0.0075181313
169	0xbaae29e0	-0.0013287626
170	0xbcd0049a	-0.02539282
171	0xbcd2bf1c	-0.025725894
172	0x3be103b8	0.0068668984
173	0xbc4645a0	-0.012101561
174	0xbcc7d6a8	-0.024394348
175	0xbce14400	-0.027498245
176	0x3cb5846c	0.02215787
177	0xbb77aee0	-0.0037793443
178	0xbb8afe88	-0.0042417683
179	0xbc9569fc	-0.018239014
180	0x3ced422a	0.028962214
181	0x3cb607ac	0.022220455
182	0xbc6fba58	-0.01463183
183	0xbcd2672c	-0.025683962
184	0xbc8376e7	-0.016047908
185	0xbd105d4c	-0.035245225
186	0x3c6a7c54	0.014311869
187	0x3c89c334	0.016816713
188	0x3cde3256	0.027123611
189	0xbcccbb2a	-0.02499159
190	0x3bdbd408	0.0067086257
191	0x3c907bf0	0.017637223
192	0x3cd37ca8	0.025816277
193	0xbd05190d	-0.032494593
194	0x3b80ffe8	0.0039367564
195	0xbcb8bac5	-0.022549996
196	0xbd0d2cf3	-0.034466695
197	0xbc7cc49c	-0.015427735
198	0x39de2480	0.00042370334
199	0xbcd19d2e	-0.025587644
200	0xbba787f0	-0.0051126406
201	0x3c2f94c8	0.010716625
202	0x3ce1aa0e	0.027546909
203	0xbcef23a3	-0.029191798
204	0xbce87431	-0.028375717
205	0x3c8ce064	0.017196842
206	0xbcb839dc	-0.022488527
207	0x3c75c470	0.015000448
208	0xbd10444d	-0.035221387
209	0x3cffafb6	0.031211715
210	0x3d065979	0.03280017
211	0xbc4de7d8	-0.012567483
212	0x3c877770	0.016536444
213	0xbb6de880	-0.003630191
214	0x3ca8369a	0.020533849
215	0x3cb9fe26	0.022704195
216	0x3c202978	0.009775512
217	0x3c5fd308	0.013661154
218	0xbc7ebeee	-0.015548451
219	0x3d000807	0.031257655
220	0xbbe77dd4	-0.0070645604
221	0xbc70b878	-0.014692418
222	0x3c1066a0	0.00881353
223	0x3ca822c0	0.020524383
224	0xbcdf456e	-0.027254786
225	0x3c8e30fa	0.017357338
226	0xbce3c783	-0.027805096
227	0xbcf6e29c	-0.030137353
228	0xbcec8688	-0.028872743
229	0x3d0de64f	0.034643468
230	0x3c4a9ce4	0.012366507
231	0x3baea040	0.005329162
232	0xbd117827	-0.035514977
233	0xbd062a02	-0.032754906
234	0x3c86e930	0.016468614
235	0x3c23b0c0	0.009990871
236	0x3cb386ac	0.021914802
237	0xbd0ae1b0	-0.03390664
238	0x3c83e524	0.016100474
239	0x3ca89bbc	0.020582072
240	0xbc8252de	-0.015908655
241	0x3b06b850	0.0020556636
242	0xbcf6d9c8	-0.030133143
243	0x3cb2dd1c	0.021833949
244	0x3d0f1499	0.034931753
245	0xbbfd1a30	-0.007724069
246	0x3c334dc0	0.01094383
247	0x3cc1dacc	0.0236639
248	0xbd11411f	-0.035462495
249	0xbcd23c20	-0.025663435
250	0x3d122c43	0.035686743
251	0x3c3696dc	0.011144366
252	0x3cfc0c52	0.030767594
253	0x3bd4df10	0.0064963177
254	0x3d104729	0.035224114
255	0xbd1209ec	-0.035653993

fc1.bias f4 [256]
0	0xbc3c28ea	-0.011484364
1	0x3d02ebd7	0.031963196
2	0xbd0055ac	-0.031331703
3	0x3d0886cb	0.033331674
4	0xbbd56214	-0.006511936
5	0x3c8a17c8	0.016857043
6	0x3c36ba60	0.011152834
7	0x3cde66c2	0.027148608
8	0x3c0b2110	0.008491769
9	0x3c0b7278	0.008511178
10	0x3c0638c4	0.008192245
11	0xbcc8dbec	-0.02451893
12	0x3c016d08	0.00789953
13	0xbc45672e	-0.012048526
14	0xbd0ef37d	-0.034900177
15	0x3cc19382	0.023629908
16	0xbcb8abea	-0.022542913
17	0xbcf2f1aa	-0.02965625
18	0xbcf6a588	-0.030108228
19	0xbcf60d78	-0.03003572
20	0xbc1649c6	-0.009172862
21	0x3d03cabf	0.032175776
22	0x3ca1822c	0.019715391
23	0xbcc5ea75	-0.02415965
24	0x3c513bc8	0.012770601
25	0x3cc81bd0	0.024427325
26	0x3c38b008	0.011272438
27	0x3c8188a4	0.015812226
28	0xbcc23dfa	-0.023711193
29	0xbce9735a	-0.028497387
30	0xbb88dad8	-0.004176479
31	0x3cf625d2	0.030047331
32	0x3caa1bd6	0.020765226
33	0xbb888518	-0.0041662566
34	0x3c081f90	0.008308306
35	0x3c0472fc	0.008084055
36	0xbc73310e	-0.0148432385
37	0x3cc3d8e2	0.023907129
38	0x3c1c6c64	0.009547327
39	0x3b10d0a0	0.0022097006
40	0xbc340a4e	-0.010988785
41	0x3c24a184	0.010048274
42	0xbc6067fc	-0.013696667
43	0x3cc5dacc	0.024152182
44	0xbca7c50c	-0.020479701
45	0xbc5b872e	-0.013398929
46	0x3c6652f4	0.0140578635
47	0xbcfb46f3	-0.03067348
48	0xbbeb3a48	-0.0071785785
49	0x3bbd9f68	0.005786825
50	0x3cb74750	0.022372872
51	0xbc90113e	-0.017586347
52	0xbc06d51c	-0.00822952
53	0x3cf31946	0.029675137
54	0xbcc241ea	-0.02371307
55	0x3cc7d866	0.024395179
56	0xbcf3cd78	-0.029761061
57	0x3ca77100	0.020439625
58	0xbb873c88	-0.004127089
59	0x3bd92668	0.006626893
60	0xbd0673e5	-0.03282537
61	0x3cc13822	0.023586337
62	0x3c84b3a2	0.016198937
63	0xbceba71e	-0.028766211
64	0x3c894aae	0.016759243
65	0xbca9f9ee	-0.020749059
66	0x3c40ef68	0.011775829
67	0x3ba309b8	0.004975524
68	0xbcecdf55	-0.028915087
69	0x3cad6d0a	0.021170158
70	0x3d123ddb	0.03570352
71	0xbcbde180	-0.023178816
72	0x3ce99c22	0.028516833
73	0x3d0b7f93	0.03405721
74	0xbc912fdc	-0.017723016
75	0x3c06edd8	0.008235417
76	0xbcd6af95	-0.02620677
77	0xbc2635ea	-0.01014469
78	0x3c9762a2	0.018479649
79	0x3ce6fd92	0.028197084
80	0x3cb6856c	0.022280417
81	0xbc9fd2f7	-0.019509776
82	0xbc5357aa	-0.012899319
83	0x3a99aaa0	0.0011723824
84	0x3c8654b4	0.016397811
85	0x3c6fa894	0.0146275945
86	0x3c3324c0	0.010934055
87	0x3ae36840	0.0017349795
88	0x3c63f9f4	0.013914574
89	0xbccc6fda	-0.024955679
90	0xbb284a00	-0.0025678873
91	0x3c659f58	0.014015041
92	0xbd0b3f1e	-0.03399574
93	0xbc7a8f5c	-0.015292969
94	0x39820680	0.00024800375
95	0x3c9849e6	0.018589925
96	0xbc8c3a80	-0.017117739
97	0x3b43af20	0.0029859021
98	0xbbedb880	-0.00725466
99	0xbcea91fc	-0.028634064
100	0x3bbad3c0	0.005701512
101	0xbc9b5a8c	-0.018964075
102	0xbcb7609a	-0.02238493
103	0x391df300	0.00015063211
104	0x3c8a0d6a	0.0168521
105	0x3cb6b22a	0.022301752
106	0x3c88977e	0.0166738
107	0x3d031a35	0.032007415
108	0xbc7581e6	-0.0149845835
109	0xbca1c66c	-0.019747935
110	0x3c92295c	0.017841987
111	0x3cac9c8c	0.021070741
112	0xbc84d45a	-0.016214538
113	0x3ca1316e	0.01967689
114	0xbd05f16e	-0.03270095
115	0xbcf658c5	-0.030071625
116	0xbbf82c94	-0.0075736735
117	0xbced55b1	-0.028971525
118	0xbce012da	-0.02735274
119	0xbc932f75	-0.017966965
120	0x3c3948dc	0.011308875
121	0x3cca27e8	0.024677232
122	0x3b4a8790	0.0030903555
123	0xbc1e6e0e	-0.009669794
124	0x3b3240a0	0.0027199164
125	0xbce3f1f5	-0.027825335
126	0xbbd95a80	-0.006633103
127	0x3cc6701a	0.024223376
128	0x39dcc900	0.00042111427
129	0xbbec25f8	-0.0072066747
130	0xbc8d6a0e	-0.017262485
131	0x3c552338	0.013008885
132	0x3bdcfc48	0.0067439415
133	0xbcc1094e	-0.023564007
134	0xbbb83fc0	-0.005622834
135	0x3c9f57a8	0.019450977
136	0x39e84f00	0.00044309348
137	0x3d0dc63b	0.034612875
138	0x3c8a74ac	0.016901337
139	0xbd0ff445	-0.035145063
140	0xbc7624a0	-0.0150233805
141	0x3cb0a010	0.021560699
142	0x3c901b54	0.017591156
143	0x3ce12f4e	0.027488377
144	0xbca278dc	-0.01983302
145	0x3c7544b0	0.01496999
146	0xbc5bab20	-0.013407499
147	0xbb5115a0	-0.0031903759
148	0x3cb5664a	0.022143502
149	0x3d0464c5	0.032322664
150	0x3cc12bf8	0.023580536
151	0xbc801eca	-0.015639681
152	0xbd06846a	-0.032841124
153	0xbc9a93f3	-0.018869376
154	0x3a9fffa0	0.001220692
155	0xbd0f4ac8	-0.034983426
156	0xbcbac8ca	-0.022800822
157	0xbcae5040	-0.0212785
158	0xbb4d8410	-0.0031359233
159	0x3b940fc0	0.004518479
160	0xbb9a661c	-0.0047118794
161	0xbc2cab58	-0.010538898
162	0x3b29ca80	0.0025908053
163	0xbc2f4e46	-0.010699814
164	0xbced90ea	-0.028999764
165	0xbd06f408	-0.03294757
166	0xbceee55e	-0.029162105
167	0xbcf0e0ee	-0.02940413
168	0x3cd60fc8	0.026130572
169	0xbcb55d9e	-0.022139367
170	0xbccfe6ea	-0.025378663
171	0xbc18ea32	-0.00933318
172	0x3b8d2ac8	0.0043080784
173	0xbc9656a3	-0.018351858
174	0x3b667020	0.0035162047
175	0xbce6fa48	-0.028195515
176	0xbcbc17da	-0.022960592
177	0xbcda2588	-0.026629224
178	0xbbd7c314	-0.0065845344
179	0x3bc7bfb0	0.006095849
180	0x3ba672f0	0.0050796196
181	0xb9d40680	-0.00040440634
182	0x3c8e85d8	0.017397806
183	0x3c9408b6	0.01807056
184	0x3d0da027	0.03457656
185	0xbb62cbe0	-0.0034606382
186	0x3cc34872	0.023838256
187	0x3cc87786	0.024471056
188	0xbc78eece	-0.015193654
189	0xbcb3aa03	-0.021931654
190	0xbcaffc78	-0.021482691
191	0xbc063700	-0.008191824
192	0xb9ec5500	-0.00045076758
193	0x3b142da0	0.0022610202
194	0xbca81193	-0.020516193
195	0x3c4fe708	0.0126893595
196	0xbd01c5e4	-0.031682864
197	0x3d0668bb	0.032814723
198	0xbcf6cf6e	-0.030128207
199	0xba693940	-0.00088967755
200	0x3c49dca4	0.012320671
201	0xbbcee394	-0.0063137505
202	0xbc54e746	-0.012994593
203	0xbd083feb	-0.033264082
204	0xbcf36f55	-0.029716173
205	0xbcc54a35	-0.024083236
206	0x3c1656b4	0.009175945
207	0x3c1c1654	0.009526808
208	0xbc6870f2	-0.0141870845
209	0x3cc85cf8	0.024458393
210	0x3cc46e08	0.023978248
211	0xbc2f8ac6	-0.0107142385
212	0xbca79b48	-0.020459786
213	0x3c0fb294	0.008770604
214	0xbc6668ee	-0.014063103
215	0x3d0d0ce3	0.034436118
216	0x3c7a3220	0.01527074
217	0xbcf12278	-0.029435381
218	0x3c5e0728	0.013551511
219	0xba613880	-0.0008591488
220	0x3cf4c616	0.029879611
221	0xbcabbd90	-0.020964414
222	0x3ccde9fe	0.02513599
223	0x3c4ac1b8	0.012375288
224	0x3c274794	0.010209937
225	0x3ca5b976	0.020230036
226	0xbc03c160	-0.00804171
227	0xbcd75cf0	-0.026289433
228	0x3ce2bc8e	0.0276778
229	0xbbab7dd4	-0.0052335057
230	0x3c19e754	0.009393532
231	0xbc90ef1a	-0.017692138
232	0x3c4dcb58	0.012560688
233	0x3c5e6054	0.013572771
234	0x3d031949	0.032006536
235	0x3b218fa0	0.0024652258
236	0xbcdbacba	-0.02681576
237	0x3cbafbdc	0.022825174
238	0xbcfc54e3	-0.030802196
239	0xbce8d805	-0.028423319
240	0x3be51850	0.0069914237
241	0xbca9d113	-0.020729577
242	0x3c278a98	0.010225914
243	0xbccfa7cc	-0.025348566
244	0xbbdad3b0	-0.006678067
245	0xbb2f3c80	-0.0026738942
246	0xbc51d8ca	-0.012808034
247	0xbceca7b1	-0.028888555
248	0xbca4ed9e	-0.020132836
249	0x3aba5500	0.0014216006
250	0x3cc115cc	0.023569964
251	0xbc8a162a	-0.016856272
252	0xba423400	-0.00074082613
253	0x3cf4a8de	0.029865678
254	0x3d0f08b9	0.034920428
255	0xbada38c0	-0.0016648993

fc2.weight f4 [128, 256]
0	0x3cb75cf8	0.022383198
1	0xbcd1ec14	-0.025625266
2	0xbc346628	-0.011010684
3	0xbd5b8656	-0.05359491
4	0xbcbafc48	-0.022825375
5	0x3c8bf8dc	0.017086439
6	0x3c86c47c	0.016451113
7	0x3d271916	0.04079541
8	0xbcd8ed60	-0.026480377
9	0xbc87e144	-0.016586907
10	0xbd37360e	-0.044729285
11	0x3ce68c70	0.028143138
12	0x3b5156c0	0.0031942576
13	0x3d2b05b4	0.041753486
14	0xbd7c09c2	-0.061532743
15	0xbc5855c0	-0.013204038
16	0x3b98a9c0	0.0046589077
17	0x3d45adf0	0.048261583
18	0x3d524e0e	0.05134397
19	0x3c2272f8	0.009915106
20	0x3c987b78	0.018613562
21	0x3d269c82	0.0406766
22	0xbd4a0ee8	-0.049330622
23	0x3d5f9780	0.05458784
24	0x3c1b72f0	0.009487852
25	0xbd6741a4	-0.056459084
26	0xbc5938f0	-0.013258204
27	0x3b8d2950	0.0043079033
28	0x3d549016	0.051895224
29	0xbd75f1ea	-0.06004516
30	0x3b782260	0.0037862286
31	0x3cae8c98	0.021307275
32	0x3d4c07f2	0.049812265
33	0xbd5a900c	-0.05336003
34	0x3d5670a2	0.05235351
35	0xbd23b0ba	-0.03996346
36	0xbcae45a8	-0.021273449
37	0xbc9ac0a0	-0.018890679
38	0xbc00ddf0	-0.007865414
39	0xbd17aacc	-0.03702812
40	0x3c5eb8a0	0.013593823
41	0x3d5dd07a	0.054153897
42	0x3d73dd76	0.059537373
43	0xbd4ffe66	-0.050779723
44	0xbd383a08	-0.044977218
45	0xbd6b9a3a	-0.05752013
46	0x3b963890	0.0045843795
47	0xbcaa7b24	-0.020810671
48	0x3cbd8eec	0.02313944
49	0xbc95ca9c	-0.018285088
50	0x3d554222	0.052065022
51	0x3cbd5274	0.023110606
52	0xbccb02ac	-0.024781547
53	0xbcfe3f60	-0.031036079
54	0x3d796aa6	0.060892724
55	0xbd4ddac0	-0.050257444
56	0xbcc8a8b0	-0.024494499
57	0xbb2355a0	-0.0024922863
58	0x3d7d7c26	0.061885975
59	0x3c347c50	0.011015967
60	0x3d5e3948	0.054253846
61	0xbc3e5dd8	-0.011619054
62	0xbb81a050	-0.0039558783
63	0x3a559b80	0.00081484765
64	0xbd4da6e2	-0.05020798
65	0x3d1ad5ca	0.03780154
66	0xbc669fe0	-0.014076203
67	0xbd3cc2f6	-0.046084367
68	0x3ca88e48	0.020575657
69	0x3d2fde80	0.042936802
70	0x3d063f36	0.032775126
71	0x3ceaae40	0.028647542
72	0x3d0fc738	0.0351021
73	0x3c7e7ec8	0.015533157
74	0x3d0af880	0.033928394
75	0x3d60c7fe	0.054878227
76	0xbc8758cc	-0.016521834
77	0xbc5e7758	-0.013578258
78	0x3d558308	0.052126914
79	0xbc7c0938	-0.015383057
80	0x3ca9a000	0.020706177
81	0xbcab1a9c	-0.020886712
82	0xbd713960	-0.058892608
83	0x3d0162d2	0.031588383
84	0x3c71a760	0.014749378
85	0xb9d97e00	-0.00041483343
86	0xbc99aa68	-0.018758014
87	0xbc36c3c8	-0.011155076
88	0x3ca87d94	0.020567693
89	0x3b038640	0.0020069033
90	0x3d77edc4	0.060529485
91	0xbd6e39d6	-0.058160625
92	0xbc13b308	-0.009014852
93	0x3cf14df4	0.029456116
94	0xbd70d6ca	-0.05879859
95	0xbbe46de0	-0.006971106
96	0x3cb601a0	0.022217572
97	0xbbd7f5a0	-0.00659056
98	0x3d20c486	0.03924992
99	0xbc21b5b0	-0.009869978
100	0xbd226c78	-0.039654225
101	0xbd3db1ba	-0.04631207
102	0x3d4cf99a	0.050042726
103	0xbc95b750	-0.018275887
104	0x3ce1285c	0.027485065
105	0xbd2a4e26	-0.041578434
106	0x3d59a8dc	0.053139552
107	0x3d76bda6	0.060239457
108	0x3b442cc0	0.00299339
109	0x3d6290f2	0.055314012
110	0x3d44075c	0.04785858
111	0x3d0c0fac	0.034194633
112	0x3d204ca0	0.039135575
113	0xbcc39350	-0.023873955
114	0xbb697a40	-0.0035625845
115	0x3d00f846	0.031486772
116	0xbca0caf8	-0.019628033
117	0xbd5b213e	-0.0534985
118	0x3ab83500	0.0014053881
119	0xbd3c57e8	-0.04598227
120	0xbc7d6e78	-0.015468232
121	0xbb1046a0	-0.0022014752
122	0xbd05ef82	-0.032699116
123	0xbd4e065c	-0.050299034
124	0x3a178980	0.0005780682
125	0x3cddf46c	0.027094088
126	0xbd0f0cba	-0.034924246
127	0xbd2dc13a	-0.042420603
128	0xbc7788f0	-0.015108332
129	0xbbd56670	-0.0065124556
130	0x3c6dd3f8	0.014515869
131	0x3cd2f638	0.025752172
132	0x3ca8f834	0.020626165
133	0x3c834c3c	0.016027562
134	0xbd07c79c	-0.033149347
135	0x3c9c00ec	0.019043408
136	0x3cd295d4	0.02570621
137	0xbc80ee58	-0.015738651
138	0x3d4b90ac	0.049698517
139	0x3bdf5510	0.00681556
140	0x3b0863e0	0.0020811483
141	0x3d5e4d6c	0.054273054
142	0xbd135fe2	-0.035980113
143	0x3c537bd0	0.012907937
144	0x3cb9a278	0.022660479
145	0xbc4473e8	-0.011990525
146	0xbd5b7336	-0.05357667
147	0xbd1dedf2	-0.038557
148	0x3d2d84bc	0.042362913
149	0xbd0e8e6a	-0.034803785
150	0x3d03f54c	0.032216355
151	0x3d4e5380	0.0503726
152	0x3c804124	0.015656061
153	0x3c7d13a8	0.015446581
154	0xbd2558fc	-0.040368065
155	0xbc1545d8	-0.00911089
156	0x3cc0975c	0.023509674
157	0x3d34942c	0.04408662
158	0x3c9e5238	0.019326314
159	0x3c8d76ac	0.017268501
160	0x3d5abffc	0.053405747
161	0xbd5f4084	-0.054504886
162	0xbd13b96a	-0.036065497
163	0x3c820010	0.01586917
164	0xbcaf4e3c	-0.02139961
165	0xbc05be20	-0.008163005
166	0xbd652740	-0.055945635
167	0x3d4b9b56	0.049708687
168	0x3cd9e8c0	0.026600242
169	0x3d039fc6	0.032134794
170	0xbc57a490	-0.013161793
171	0x3d7d2d38	0.061810702
172	0x3d7ef372	0.062243886
173	0x3c1acdf0	0.009448513
174	0x3d1a03c2	0.03760124
175	0xbcbbdc48	-0.022932187
176	0xbcea8088	-0.028625742
177	0x3c587b80	0.013213038
178	0x3d504342	0.050845392
179	0x3d0ea42a	0.034824528
180	0xbcea9934	-0.028637506
181	0x3d674b38	0.05646822
182	0x3bdda670	0.0067642257
183	0xbcc4962c	-0.023997389
184	0xbd57dcda	-0.052700855
185	0xbd71b984	-0.059014812
186	0xbd123ee8	-0.035704523
187	0xbc093bd0	-0.008376077
188	0x3d61266a	0.054968275
189	0x3bd51910	0.006503232
190	0xbcf9593c	-0.030438058
191	0x3b551f80	0.0032519996
192	0xbcc0ece0	-0.02355045
193	0x3c13b258	0.009014688
194	0x3d228d50	0.039685547
195	0x3d128e18	0.035780042
196	0x3d2b5eb6	0.04183837
197	0x3c5f7390	0.013638392
198	0xbd0cb512	-0.03435237
199	0xbd3a2888	-0.04544881
200	0xbd155b12	-0.036463805
201	0xbbf1c830	-0.0073786005
202	0x3cc438bc	0.023952834
203	0xbd61da24	-0.055139676
204	0xbd270d86	-0.04078438
205	0x3cd4129c	0.02588778
206	0x3cf2a2e8	0.029618695
207	0xbc62a640	-0.013833582
208	0x3a0a1500	0.00052674115
209	0xbd342276	-0.043978177
210	0xbd72420a	-0.05914501
211	0xbd602baa	-0.05472914
212	0xbd5495de	-0.051900737
213	0xbd00bd5c	-0.031430587
214	0x3d64b042	0.055832155
215	0xbcaacdf4	-0.02085016
216	0xbba4da20	-0.0050308853
217	0xbd4db322	-0.050219662
218	0x3d437f5e	0.04772889
219	0x3b9ea550	0.004841484
220	0xbbe5b030	-0.0070095286
221	0x3c465068	0.012104131
222	0xbc236378	-0.009972446
223	0x3d1a2e86	0.037642024
224	0x3cc3aa10	0.023884803
225	0xbd50a26c	-0.050936148
226	0x3cac517c	0.021034949
227	0xbd625c78	-0.055263966
228	0x3d6b09d8	0.057382435
229	0x3c4270d0	0.011867717
230	0xbc9a4df4	-0.018836
231	0xbd46d3e2	-0.04854191
232	0xbd46fa90	-0.0485788
233	0xbd3c0daa	-0.04591147
234	0x3d3f7a6e	0.046747617
235	0xbb497ae0	-0.0030743405
236	0x3d65da7c	0.056116566
237	0x3c0d7fb8	0.008636408
238	0xb73a2000	-1.10939145e-05
239	0x3d285ca0	0.04110396
240	0xbc9f0978	-0.019413695
241	0xbd744e40	-0.059644938
242	0x3cd56180	0.026047468
243	0xbd0b91d2	-0.034074612
244	0x3d3d742a	0.04625336
245	0x3d0db494	0.03459604
246	0xbd2e16fa	-0.04250238
247	0x3d073152	0.03300602
248	0x3c4d0750	0.0125139505
249	0x3d383aa4	0.0449778
250	0xbb8a7fb0	-0.0042266473
251	0x3d1de496	0.038548075
252	0x3bc255e0	0.0059306473
253	0x3d1392ca	0.03602866
254	0x3d4eb138	0.050461978
255	0x3d2d858c	0.04236369

fc2.bias f4 [128]
0	0xbcffe264	-0.031235881
1	0xbd2c2d26	-0.042035244
2	0x3cf4c790	0.029880315
3	0xbd206904	-0.03916265
4	0xbc480530	-0.012208268
5	0x3c2ffee0	0.010741919
6	0xbce979ec	-0.02850052
7	0x3d7353da	0.05940614
8	0x3d4d6e82	0.050154217
9	0x3d03be78	0.032164067
10	0xbb7ae2a0	-0.0038282052
11	0x3cdf0610	0.02722457
12	0xbd74ffba	-0.059814192
13	0x3cf23a74	0.029568888
14	0x3d63c9b6	0.05561229
15	0xbcd49f84	-0.02595497
16	0xbd6ba47a	-0.057529904
17	0xbd5f4bde	-0.054515712
18	0x3d2d9974	0.042382672
19	0xbd669678	-0.056295842
20	0xbc9dc338	-0.019258127
21	0x3c384140	0.011246026
22	0xbccca320	-0.024980128
23	0x3c448c08	0.011996277
24	0xbd5eb726	-0.054373883
25	0xbd76360e	-0.060110144
26	0xbc379430	-0.011204764
27	0xbc845738	-0.01615487
28	0x3d075e38	0.03304884
29	0xbd60dd3c	-0.054898486
30	0x3d570bd6	0.052501522
31	0xbd3f37b0	-0.046683967
32	0xbd65ab54	-0.056071594
33	0x3c736078	0.014854543
34	0x3abaa2c0	0.0014239177
35	0xbd769236	-0.06019803
36	0x3bc58290	0.006027527
37	0xbce37760	-0.027766883
38	0xbd6481d4	-0.055787876
39	0x3d71bea2	0.059019692
40	0x3c2aee48	0.010432787
41	0xbc8946f0	-0.016757458
42	0xbd4ed7f4	-0.050498918
43	0xbbd3d260	-0.0064642876
44	0x3cec893c	0.028874032
45	0xbd4c4b84	-0.049876705
46	0x3c813440	0.015771985
47	0x3d08ae5a	0.0333694
48	0x3d3fec26	0.046856068
49	0x3d69a37c	0.057040676
50	0xbcb11bd8	-0.021619722
51	0xbd4c6a18	-0.049905866
52	0xbd4a2d30	-0.0493595
53	0x3d2f3e2a	0.042783894
54	0xbd26d1ba	-0.040727355
55	0x3d7ce428	0.061741024
56	0xbd22a81c	-0.039711103
57	0x3d6d5da6	0.05795064
58	0x3d2ae532	0.041722484
59	0x3d59f7f0	0.053214967
60	0xbd2df07c	-0.042465672
61	0xbd5193b2	-0.051166244
62	0xb96ec400	-0.00022770464
63	0xb9f48b00	-0.0004664287
64	0x3d27f33c	0.04100345
65	0xbc1be5b0	-0.009515211
66	0xbcafb728	-0.02144964
67	0xbd577b2e	-0.052607708
68	0x3d41a42c	0.047275707
69	0x3c679810	0.014135376
70	0xbd07796c	-0.03307478
71	0xbd25cdaa	-0.04047934
72	0xbbb8de80	-0.0056417584
73	0xbd364dd2	-0.04450781
74	0xbd6aec54	-0.057354286
75	0x3ce25394	0.027627744
76	0xbd3896e0	-0.04506576
77	0xbc913e80	-0.017729998
78	0x3d4ce58c	0.0500236
79	0xbc0c80e0	-0.008575648
80	0xbbc24950	-0.0059291497
81	0xbcba47c4	-0.022739299
82	0xbaeb8980	-0.0017970055
83	0xbd02fbfc	-0.031978592
84	0xbd4f92e2	-0.050677188
85	0x3d234936	0.03986474
86	0xbcbbc760	-0.022922218
87	0xbc2d4aa0	-0.010576874
88	0x3be61fe0	0.0070228428
89	0xbd328718	-0.043585867
90	0x3cf880cc	0.030334853
91	0xbd12ee4e	-0.035871796
92	0x3ced44d0	0.028963476
93	0x3d205ca6	0.039150856
94	0xbd05832e	-0.032595806
95	0x3d0ffb86	0.03515198
96	0x3cf97558	0.030451462
97	0x3d534832	0.051582523
98	0x3c57e710	0.013177648
99	0xbd777300	-0.060412407
100	0xbcfa1ab4	-0.030530311
101	0x3c47b5f0	0.012189373
102	0x3d7c8220	0.061647534
103	0x3cb3bfb8	0.021942005
104	0x3d63bc1a	0.05559931
105	0x3d618af8	0.05506417
106	0xbd2e37aa	-0.042533554
107	0xbc898b28	-0.016789988
108	0x3ca3d890	0.020000726
109	0x3cbc3a0c	0.022976898
110	0x3d041874	0.032249883
111	0x3d30c228	0.04315391
112	0xbc35d5e8	-0.0110983625
113	0xbd6767f0	-0.056495607
114	0xbcfc00e0	-0.030762136
115	0x3d5dcf0a	0.054152526
116	0xbcaa68e4	-0.020801969
117	0xbca97228	-0.020684317
118	0x3d166104	0.036713615
119	0xbd4f8bd4	-0.05067046
120	0xbd2d4198	-0.042298883
121	0x3bf27200	0.0073988438
122	0xbd703518	-0.058644384
123	0xbd655100	-0.05598545
124	0xbc9c2f68	-0.019065574
125	0xbc870b90	-0.016485006
126	0xbc916820	-0.017749846
127	0x3d3564f8	0.044285744

fc3.weight f4 [64, 128]
0	0xbd25c706	-0.040473007
1	0x3d255bb2	0.04037065
2	0xbd7eca3f	-0.062204596
3	0xbd0fa182	-0.035066135
4	0x3cef1608	0.02918531
5	0x3d257422	0.040393956
6	0x3d0343d0	0.032047093
7	0xbd829388	-0.063757956
8	0x3d443d7e	0.047910206
9	0xbda5b6af	-0.08091485
10	0xbd98449d	-0.07434962
11	0xbc516fa8	-0.012782969
12	0x3d882e97	0.06649511
13	0xbc17c8d0	-0.009264186
14	0x3d46c2ce	0.048525624
15	0x3d96d237	0.07364314
16	0x3d116812	0.03549964
17	0xbc4c91f8	-0.012485974
18	0xbcd198fc	-0.025585644
19	0x3c723128	0.014782228
20	0x3d961669	0.07328493
21	0xbd9c10a3	-0.07620361
22	0xbd887cb2	-0.06664409
23	0xbda89c99	-0.08232994
24	0xbd1f5824	-0.038902417
25	0x3d1e71c2	0.038682707
26	0x3d9dfd47	0.077143244
27	0x3d823523	0.06357791
28	0x3c0c8a18	0.008577846
29	0x3d9d79e7	0.07689267
30	0xbdaf97bd	-0.08573864
31	0x3af15080	0.0018410832
32	0xbc84b54c	-0.01619973
33	0xbd908f42	-0.07058574
34	0x3bd88da0	0.00660868
35	0xbb38d3c0	-0.0028202385
36	0xbc995d0c	-0.018721126
37	0xbcdea934	-0.027180292
38	0xbd514b45	-0.051097173
39	0x3c6ca468	0.014443494
40	0x3d412c86	0.0471616
41	0xbd29658e	-0.041356616
42	0x3cbdf980	0.02319026
43	0xbd5f53ac	-0.054523155
44	0x3d1350d0	0.03596574
45	0x3d2750ee	0.040848665
46	0xbd5590bc	-0.052139983
47	0x3d9ae9b5	0.07564107
48	0xbd013bd9	-0.031551216
49	0xbb9b6b20	-0.004742995
50	0x3d19c61e	0.037542455
51	0xbd99d9ff	-0.075122826
52	0x3d4c544a	0.04988507
53	0xbdafe6f5	-0.085889734
54	0xbd004dc0	-0.03132415
55	0xbda22d4c	-0.07918796
56	0xbd3415fe	-0.043966286
57	0xbb5a5f00	-0.0033320785
58	0xbd90105a	-0.07034369
59	0xbd236f88	-0.039901286
60	0x38a50c00	7.870048e-05
61	0xbd7d94e3	-0.061909568
62	0x3d6ce35a	0.057834007
63	0xbd0e1973	-0.03469224
64	0xbc3c4470	-0.011490926
65	0x3c7fb850	0.015607908
66	0xbdb1f523	-0.08689334
67	0x3d6f3276	0.058397733
68	0x3d737fa2	0.059447892
69	0xbbf09fa0	-0.0073432475
70	0xbbfd7ba0	-0.0077356845
71	0x3d72ceaa	0.05927912
72	0x3db1b65f	0.08677363
73	0xbda9653a	-0.082712606
74	0xbc9a4b1c	-0.018834643
75	0x3d0a2cee	0.033734255
76	0x3d96ad63	0.0735729
77	0xbd149719	-0.03627691
78	0x3d1b878e	0.037971072
79	0xbd113ef5	-0.03546043
80	0xbcc1bef0	-0.023650616
81	0x3d9384c3	0.07203057
82	0xbbf38ea0	-0.0074327737
83	0x3bc6e730	0.00607004
84	0x3da6e1f3	0.08148565
85	0x3da48d05	0.0803471
86	0xbabeacc0	-0.0014547333
87	0xbda98587	-0.082774214
88	0x3d4a8d0e	0.049450926
89	0xbd84d8da	-0.06486674
90	0x3a610100	0.0008583218
91	0xbd9ba642	-0.076000705
92	0xbdb412c5	-0.087926425
93	0x3d533e9a	0.051573373
94	0x3d5d4d2e	0.054028682
95	0xbc0b8ea0	-0.008517891
96	0x3c808108	0.015686527
97	0xbaab3200	-0.0013061166
98	0xbdad3ec8	-0.0845924
99	0x3dacd78d	0.084395505
100	0x3ceea2f0	0.029130429
101	0xbd1f3498	-0.038868517
102	0xbbed5b60	-0.0072435588
103	0xbc8454b8	-0.016153678
104	0x3da0b781	0.078475006
105	0xbd57b18f	-0.052659567
106	0x3d3660de	0.044525973
107	0xbbf5a640	-0.007496625
108	0xbd908986	-0.070574805
109	0x3d51b2b6	0.051195823
110	0xbcfd92da	-0.030953813
111	0x3cce4344	0.02517856
112	0xbd19d425	-0.037555832
113	0xbba33060	-0.004980132
114	0xbda86101	-0.08221627
115	0x3cf5d158	0.03000705
116	0xbd30a28a	-0.04312376
117	0x3d8d1685	0.06889061
118	0x3ce26384	0.027635343
119	0x3d67894a	0.056527413
120	0x3d6ff0a6	0.05857911
121	0xbd6d0e6f	-0.057875093
122	0xbca81b24	-0.020520754
123	0xbd2c28ea	-0.042031206
124	0xbd51545a	-0.051105835
125	0xbc34f228	-0.011044063
126	0x3b3f9400	0.0029232502
127	0x3daff18d	0.08590994
128	0xbd0ad335	-0.03389283
129	0xbd5d5d26	-0.05404391
130	0x3dab16a9	0.083539315
131	0x3b0a1780	0.0021071136
132	0xbd77d35e	-0.06050431
133	0xbd3a8c6f	-0.045544084
134	0x3d3b3a72	0.045710035
135	0xbaefc640	-0.0018293336
136	0xbda9ffa7	-0.08300715
137	0x3d41bfd2	0.047302075
138	0x3c869034	0.016426183
139	0x3db0519b	0.08609315
140	0x3d024aa8	0.03180948
141	0xbcc765cc	-0.024340533
142	0xbbff2b90	-0.0077871755
143	0x3d8239af	0.063586585
144	0x3c17c108	0.009262331
145	0x3cf57ad4	0.029965796
146	0xbb6641a0	-0.003513433
147	0xbda539cd	-0.08067665
148	0x3d32c38e	0.043643527
149	0x3d2e4756	0.0425485
150	0x3dad62e1	0.08466125
151	0x3d3c07b2	0.045905776
152	0xbccdfeec	-0.02514597
153	0xbcd32904	-0.025776394
154	0x3d3fdb26	0.046839856
155	0xbcca8cf4	-0.024725415
156	0xba3e9f00	-0.00072716177
157	0x3d121310	0.03566271
158	0xbd2c94e7	-0.04213419
159	0x3cede33c	0.029039018
160	0x3da18873	0.07887354
161	0x3c98fca4	0.018675156
162	0xbd49a627	-0.04923072
163	0x3d605aee	0.054774217
164	0xbcf9233e	-0.030412313
165	0xbbdbbb20	-0.0067056566
166	0x3cbe3dcc	0.023222826
167	0x3da021d7	0.078189544
168	0xbd1ff663	-0.039053332
169	0x3d8f0acf	0.069844835
170	0x3d8b6249	0.06805856
171	0xbd745a9c	-0.059656724
172	0x3d350852	0.044197388
173	0xbcf526f4	-0.0299258
174	0x3cdfad3c	0.027304284
175	0xbd7f7476	-0.062366925
176	0x3c22dc48	0.009940214
177	0x3d109626	0.035299443
178	0xbd281d3f	-0.041043516
179	0x3b2cc2c0	0.0026361197
180	0xbd6243ae	-0.055240326
181	0xbd1a084e	-0.037605576
182	0x3ce7eda8	0.028311566
183	0xbc712b08	-0.014719732
184	0x3ca0308c	0.019554399
185	0x3d2f61d6	0.042817913
186	0xbd02d1b1	-0.03193826
187	0x3c8ef30c	0.017449878
188	0x3d2354e6	0.039875887
189	0xbc9f2e5c	-0.019431286
190	0x3db424ab	0.08796056
191	0xbd5790bf	-0.052628275
192	0x3d3c86a6	0.04602685
193	0x3d79518e	0.060868792
194	0x3cc2d970	0.023785323
195	0xbcade074	-0.021225192
196	0x3da86c9f	0.08223843
197	0x3d97fc91	0.0742122
198	0xbd522c73	-0.05131192
199	0xbc6e1040	-0.0145302415
200	0x3b0e0da0	0.0021675602
201	0xbd4f25fe	-0.05057334
202	0xbda5b626	-0.08091383
203	0xbd11a2b6	-0.035555564
204	0xbd6acbf7	-0.057323422
205	0xbd52f2c3	-0.051501047
206	0x3d22251a	0.039586164
207	0xbc305c08	-0.010764129
208	0xbd97e38e	-0.074164495
209	0xbd8d6159	-0.06903333
210	0x3c618608	0.013764866
211	0x3ab3d600	0.0013720393
212	0x3d4ca69e	0.049963586
213	0xbd4b710b	-0.049668353
214	0xbd428cd5	-0.04749759
215	0xbd7ad75a	-0.06124053
216	0xbd970950	-0.07374823
217	0xbd302a68	-0.04300919
218	0xbd6f6064	-0.058441535
219	0x3cd2fd9c	0.025755696
220	0x3d5da152	0.054108925
221	0x3d6c0b12	0.057627745
222	0xbdad474a	-0.08460863
223	0x3d42532e	0.047442608
224	0x3da35071	0.07974327
225	0x3d75b702	0.059988983
226	0xbd80152c	-0.06254038
227	0x3d74b022	0.059738286
228	0xbcd1310c	-0.025536083
229	0x3b844730	0.0040368065
230	0x3c05c178	0.008163802
231	0xbd8b8428	-0.06812316
232	0x3d0024b8	0.031285018
233	0x3da20b21	0.07912279
234	0x3d37500a	0.044754066
235	0x3c623f98	0.013809107
236	0xbcfb1e20	-0.030654013
237	0xbd2eb7ff	-0.04265594
238	0xbd90b5e4	-0.07065943
239	0x3c2dd7b8	0.010610513
240	0xbd989f38	-0.074522436
241	0x3d9aea19	0.07564182
242	0x3b8af120	0.00424017
243	0x3d150678	0.036383122
244	0xbcd63886	-0.02615
245	0x3d9d63dd	0.07685063
246	0x3da9d495	0.082925
247	0xbd8c13da	-0.06839724
248	0x3b8f12a0	0.004366234
249	0xbdacca57	-0.08437031
250	0xbcab4664	-0.020907588
251	0x3d81095d	0.06300614
252	0x3c783cc8	0.01515121
253	0xbd36ca70	-0.044626653
254	0xbd03c1bc	-0.03216718
255	0xbd8ebfaa	-0.06970151

fc3.bias f4 [64]
0	0xbd45f4d4	-0.04832919
1	0x3d72b77e	0.059257023
2	0xbdadd79b	-0.08488389
3	0x3d2c37e2	0.04204548
4	0x3d6a41b2	0.05719156
5	0xba48bf00	-0.0007657856
6	0x3d6e7daa	0.05822531
7	0xbd05f4bf	-0.03270411
8	0x3ca7e29c	0.020493798
9	0xbd648185	-0.055787582
10	0x3dae69ab	0.08516248
11	0x3d869699	0.06571693
12	0xbd534803	-0.051582348
13	0xbcff8f9e	-0.031196412
14	0xbd937c12	-0.07201399
15	0x3d72d996	0.059289537
16	0x3d91e47b	0.07123657
17	0xbda5ab5e	-0.08089326
18	0xbc28d858	-0.010305487
19	0x3d2042fe	0.03912639
20	0x3d949e97	0.07256811
21	0x3d7dcd92	0.061963625
22	0x3ce33838	0.027736768
23	0x3d3ffd3a	0.046872355
24	0x3d94f71f	0.07273697
25	0x3c5c4ac8	0.013445564
26	0x3da3ab2d	0.079916336
27	0x3d5914e2	0.05299843
28	0xbcfb8efa	-0.030707825
29	0xbdb3ff50	-0.08788931
30	0x3da2df17	0.07952707
31	0xbd9122a0	-0.07086682
32	0xbd8f2d0e	-0.069910154
33	0x3da7f6ad	0.082013465
34	0xbdab9a03	-0.08378985
35	0xbd106b4a	-0.03525857
36	0xbbcfc120	-0.006340161
37	0xbcc33560	-0.023829162
38	0xbc24c128	-0.010055818
39	0x3d9f4689	0.077771254
40	0x3d98e509	0.0746556
41	0x3c552368	0.01300893
42	0xbc594e20	-0.013263255
43	0x3cdf5ca8	0.027265862
44	0xbda1cb9c	-0.079001635
45	0x3d9ebdcb	0.07751044
46	0xbd83fa0f	-0.06444179
47	0xbd8a15ff	-0.06742477
48	0x3da82625	0.082104005
49	0xbd81111c	-0.063020915
50	0xbd57c3cd	-0.052676965
51	0x3cd92d98	0.026510999
52	0x3d3fc7c6	0.04682138
53	0x3da9d06d	0.08291707
54	0xbd9fc392	-0.07800974
55	0x3da89cb3	0.08233013
56	0x3d81d17d	0.06338785
57	0xbda744a1	-0.08167387
58	0x3d99a7a5	0.07502679
59	0xbbadf7d0	-0.0053090826
60	0x3cba6df8	0.022757515
61	0xbd580b95	-0.05274542
62	0x3cc92f94	0.02455882
63	0x3c1acec8	0.009448715

fc4.weight f4 [10, 64]
0	0xbda002d6	-0.07813041
1	0xbd5ea1c4	-0.05435349
2	0xbd3f8a88	-0.046762973
3	0x3c931378	0.01795362
4	0x3c30fec0	0.010802925
5	0xbdf81bac	-0.12114653
6	0x3db330dc	0.087495536
7	0x3d9ea5ec	0.07746491
8	0x3c42e770	0.011895999
9	0xbda90090	-0.082520604
10	0xbd8b4142	-0.06799556
11	0xbd007304	-0.031359687
12	0x3de1986a	0.11015399
13	0x3d9b1a5a	0.075733855
14	0xbdd6b180	-0.10483074
15	0xbdae5750	-0.08512747
16	0xbdeae470	-0.11469352
17	0x3d822782	0.06355192
18	0x3dadfb66	0.08495216
19	0x3d428e98	0.04749927
20	0x3cae3da8	0.021269634
21	0xbd97de30	-0.07415426
22	0x3d16d638	0.03682539
23	0x3d7f8778	0.062385052
24	0xbd7e6e78	-0.06211707
25	0x3cfb7228	0.030694082
26	0xbdb13b68	-0.08653909
27	0x3ca53ce0	0.020170629
28	0xbdeb523a	-0.11490293
29	0xbd281084	-0.041031376
30	0xbdd65314	-0.10465065
31	0x3dbe7e62	0.09301449
32	0x3de51f66	0.111876294
33	0x3ce1c528	0.027559832
34	0x3daad7a0	0.083419085
35	0x3da3d63a	0.07999845
36	0xb80a6000	-3.299117e-05
37	0x3db329d8	0.087482154
38	0x3d466abc	0.048441634
39	0xbdb7c4d8	-0.08973092
40	0x3d8a77b6	0.06761114
41	0xbd0cfbc4	-0.03441979
42	0x3d5153e8	0.05110541
43	0xbdd1ebee	-0.10250078
44	0x3d435048	0.047683984
45	0xbdecf7da	-0.115707114
46	0x3dcdf5e6	0.10056667
47	0x3d9ebb3e	0.07750557
48	0x3d9fd57a	0.07804389
49	0x3c9d0150	0.019165665
50	0x3c23f790	0.010007754
51	0x3c7c0ce0	0.015383929
52	0x3ba9c040	0.0051803887
53	0x3d82dc3c	0.063896626
54	0xbca49b58	-0.020093605
55	0x3cb10278	0.021607623
56	0xbd4f62f8	-0.050631493
57	0xbcb76fc8	-0.022392169
58	0xbdb9a592	-0.09064783
59	0x3daa5ccc	0.08318481
60	0x3d542e50	0.05180198
61	0x3c346750	0.01101096
62	0x3c65da40	0.014029086
63	0x3d9b0226	0.07568769
64	0xbdee4998	-0.11635131
65	0xbdfa40e2	-0.12219407
66	0x3c9c9e28	0.019118384
67	0xbc8baff0	-0.017051667
68	0x3dbe81fc	0.09302136
69	0xbdf46f6e	-0.11935316
70	0x3d9e3154	0.07724252
71	0xbdc080c6	-0.093995616
72	0xbc1ca9f0	-0.009562001
73	0x3d3f7fec	0.046752855
74	0x3d3bbf38	0.045836657
75	0x3c1a83a0	0.009430796
76	0x3df7a342	0.12091686
77	0x3de0d35a	0.10977812
78	0xbd81c8b6	-0.06337111
79	0xbdf346c8	-0.11878735
80	0x3d9934c6	0.07480769
81	0x3cb1c3e0	0.021699846
82	0xbdea11cc	-0.11429176
83	0xbc86ce28	-0.016455725
84	0xbded7488	-0.11594492
85	0x3d612f74	0.054976895
86	0x3cc1bc20	0.023649275
87	0x3d5f1a90	0.05446869
88	0x3dd56540	0.104197025
89	0x3db4e988	0.08833605
90	0x3dfb8ffa	0.12283321
91	0xbcc7ecf8	-0.024404988
92	0x3dbc358e	0.09189902
93	0xb9957400	-0.0002850592
94	0xbd8320f2	-0.06402768
95	0xbdf43382	-0.11923887
96	0x3d16cd80	0.036817074
97	0x3d967f90	0.07348549
98	0xbcddd890	-0.027080804
99	0x3cb3e1e0	0.021958292
100	0xbd9b0044	-0.0756841
101	0xbc7dc210	-0.015488163
102	0xbcfc9d60	-0.030836761
103	0xbac0e700	-0.0014717281
104	0x3de54d0a	0.11196335
105	0xbc4e08a0	-0.012575299
106	0x3d28b360	0.04118669
107	0x3dac2e00	0.08407211
108	0x3cad67a8	0.021167591
109	0x3c517100	0.012783289
110	0x3d73fd58	0.05956778
111	0xbd914d4e	-0.07094823
112	0xbdf0dae4	-0.117605
113	0xbd9bfc80	-0.0761652
114	0x3d2ed470	0.042683065
115	0xbd875e66	-0.06609802
116	0x3c1155d0	0.008870557
117	0xbdbfbb80	-0.09361935
118	0x3d54b9a0	0.05193484
119	0xbceb4c98	-0.028723046
120	0xbd955016	-0.07290666
121	0x3c3413d0	0.010991052
122	0xbdb86a2e	-0.09004627
123	0xbcb3d780	-0.021953344
124	0x3db614d2	0.0889069
125	0x3dc6f8d0	0.09715426
126	0x3dc674fc	0.09690282
127	0x3dcb77ee	0.09934984
128	0xbde0eb38	-0.109823644
129	0xbd852928	-0.065019906
130	0xbc368100	-0.011139154
131	0xbb4df640	-0.0031427294
132	0xbdf67aa0	-0.120351076
133	0x3d6adaa0	0.057337403
134	0x3c583aa0	0.013197571
135	0xbd05c084	-0.0326543
136	0x3d7c1e98	0.061552614
137	0xbdccd98e	-0.10002433
138	0xbdd7656e	-0.10517393
139	0xbdca4b78	-0.09877676
140	0x3dcb589c	0.0992901
141	0xbc9f01f0	-0.019410104
142	0x3d0c0b48	0.034190446
143	0x3db3698a	0.08760364
144	0xbd90d294	-0.070714146
145	0xbdf689ee	-0.12038027
146	0xbd67dcf0	-0.056607187
147	0x3cf59858	0.02997987
148	0xbbc5d640	-0.0060375035
149	0x3c24dee0	0.010062903
150	0xbdc27fdc	-0.094970435
151	0x3d988dc2	0.07448913
152	0xbd84b9ca	-0.06480749
153	0xbd615e00	-0.055021286
154	0x3cdf3538	0.027247056
155	0xbddd5d9e	-0.10808872
156	0x3cc55408	0.02408792
157	0x3d8a1b38	0.06743473
158	0x3ceb4cb8	0.028723106
159	0x3db854ce	0.0900055
160	0xbdcb9a48	-0.09941536
161	0x3c754660	0.014970392
162	0xbdc90dd0	-0.09817088
163	0xbd3b7420	-0.045765042
164	0x3d8e9ae0	0.06963134
165	0x3d6d5214	0.057939604
166	0x3da5d2ce	0.080968484
167	0xbc11fa30	-0.008909747
168	0x3dc9b148	0.09848267
169	0x3c0e7ff0	0.008697495
170	0x3def7d7a	0.11693855
171	0x3dc43276	0.09579937
172	0xbd527004	-0.051376358
173	0x3da8279e	0.082106814
174	0x3cea6f80	0.02861762
175	0xbc0f7140	-0.008755028
176	0xbd9bec18	-0.07613391
177	0x3db29c7e	0.08721255
178	0x3dbf38e4	0.09337023
179	0x3be10f00	0.006868243
180	0xbdfe1b96	-0.12407605
181	0xbdd581cc	-0.104251474
182	0xbda2fc70	-0.07958305
183	0xbd1506ec	-0.036383554
184	0x3da01166	0.078158185
185	0xbd7bc1fc	-0.061464295
186	0x3cc62238	0.024186239
187	0xbce99f10	-0.02851823
188	0x3de56790	0.112013936
189	0xbd5066dc	-0.050879344
190	0xbd5bf464	-0.053699866
191	0x3c89d258	0.016823933
192	0x3c3fda10	0.011709705
193	0xbd59e2b4	-0.053194717
194	0x3d261ce4	0.040554896
195	0x3d9460c6	0.072450206
196	0xbc3706a0	-0.011171013
197	0xbd161f7c	-0.03665112
198	0xbdfd1b22	-0.12358691
199	0x3da70642	0.081554905
200	0x3db01bd6	0.08599059
201	0xbd822552	-0.063547745
202	0x3cfa7210	0.030571967
203	0x3ca279b8	0.01983343
204	0xbd4ec020	-0.050476193
205	0xbd400d70	-0.046887815
206	0xbdef7b24	-0.11693409
207	0x3d8c3f0e	0.06847964
208	0xbc8d9138	-0.01728116
209	0x3d25d04c	0.04048185
210	0xbdb2453c	-0.08704612
211	0x3d91b0da	0.0711381
212	0xbdd99a64	-0.10625151
213	0xbd258e28	-0.040418774
214	0x3d050cfc	0.032483086
215	0xbdd15104	-0.10220531
216	0x3dc2512c	0.094881386
217	0x3dfc0328	0.123052895
218	0x3d6d8474	0.057987645
219	0xbdbdb862	-0.09263684
220	0xbd8e4f94	-0.06948772
221	0x3d3f2654	0.046667412
222	0x3dd755e0	0.10514426
223	0x3d9189bc	0.07106349
224	0xbcecc7f8	-0.028903946
225	0x3cf47ca0	0.029844582
226	0xbdfab670	-0.122418284
227	0xbd50ddb8	-0.050992697
228	0xbde7ff56	-0.11327998
229	0xbd8e4656	-0.06947009
230	0xbbf2a6c0	-0.007405132
231	0xbcbe95b0	-0.023264736
232	0x3df48868	0.1194008
233	0xbd03aee8	-0.032149225
234	0x3d1ff91c	0.03905593
235	0x3d92adf4	0.07162085
236	0x3d704dd8	0.058667988
237	0x3d435dc0	0.04769683
238	0xbd884184	-0.06653121
239	0xbcd31160	-0.025765121
240	0xbdcc7e16	-0.099849865
241	0xba806780	-0.000979647
242	0x3cc98700	0.024600506
243	0x3cd54318	0.02603297
244	0x3def3070	0.116791606
245	0xbd126038	-0.035736293
246	0x3db7941a	0.08963795
247	0xbda753de	-0.08170293
248	0xbddb643a	-0.10712476
249	0xbd5d7d30	-0.054074466
250	0xbd761f70	-0.060088575
251	0x3df0388e	0.11729537
252	0xbdf1f5ca	-0.11814459
253	0xbda8e40a	-0.0824662
254	0x3de13f44	0.10998395
255	0x3dbfb458	0.0936057

fc4.bias f4 [10]
0	0xbd3886cc	-0.045050427
1	0x3ddae710	0.10688603
2	0xbdbcbc50	-0.09215605
3	0xbdf47db6	-0.1193804
4	0xbd459dec	-0.04824631
5	0x3c654100	0.013992548
6	0x3dbed17c	0.093173
7	0xbdf031a4	-0.11728218
8	0x3dcdd82e	0.10050999
9	0x3db4d730	0.08830106
