v2_src/server/377887843007520.pt (torch, 973831 bytes, 8 tensors)

fc1.weight f4 [256, 784]
-0.04568562 -0.029855981 -0.037511654 -0.04063324 0.016719483 -0.034235865 -0.038358703 -0.028594706
0.019756552 -0.041676603 -0.04146976 -0.010804145 -0.03391112 -0.025252342 0.0048809834 -0.03455083
-0.019180458 -0.022185694 0.016082656 0.0018642608 0.018883403 0.0023878957 -0.0005371276 0.006850266
-0.02589029 -0.022768058 0.017032988 -0.0053160815 -0.035034917 0.010519095 -0.001428853 -0.040386736
-0.0050555645 -0.025624406 -0.02189194 -0.005761884 -0.046304904 0.0020742405 -0.03221342 -0.032613065
0.021701489 -0.03653374 -0.023529073 -0.0058944556 -0.04704362 -0.01577529 -0.00092989823 -0.017553257
-0.003930079 -0.034435943 -0.01047598 -0.030533329 -0.022291511 0.02134164 -0.012349162 -0.0020932422
0.0022053148 0.015803525 0.016019057 -0.031641237 -0.013893359 -0.028358836 0.0060756067 -0.025494814
-0.035145372 -0.023402348 -0.008778895 -0.00689808 -0.014320755 -0.04022222 0.013382679 -0.03458047
-0.030041324 -0.033262897 -0.017910032 0.006205975 -0.024090415 -0.041356664 -0.026086755 0.0034157792
-0.0136025045 0.0091829365 -0.02674799 0.005797304 -0.0314542 0.015334457 -0.019080162 -0.045713555
-0.012180671 -0.041878343 0.0058087395 -0.040637013 -0.004310106 -0.025430355 0.025808023 -0.03707647
-0.0071562626 -0.015633589 -0.051493764 -0.05036374 -0.057240035 -0.0016075245 -0.028630883 -0.017176285
-0.031090094 0.031115443 -0.024306858 0.0073898537 -0.012543937 0.008883141 0.007259893 -0.0011822607
-0.014495904 -0.0039640553 0.020182682 0.010935188 0.008798345 -0.051027853 -0.05092079 -0.0306354
-0.0006115774 -0.05872101 -0.008918909 0.012399472 -0.0143361315 -0.010516713 0.0020992914 0.08362392
0.059028 0.11679353 0.058980826 0.0010117448 0.06215992 0.06679198 0.005818845 0.026527647
0.03903179 0.021341883 0.00058758137 0.013489339 -0.01224767 0.007460435 -0.0036853608 -0.0015181212
0.008302802 0.003917806 -0.03924228 -0.041462574 0.02690121 -0.0077367295 0.040569507 0.07663273
0.052041866 0.10577085 0.10099987 0.042547747 0.13495561 0.20798208 0.22707447 0.15566018
0.15902805 0.11249311 0.09643319 0.047692593 0.04956192 0.00826367 -0.019965876 -0.03474018
-0.035103537 0.004369512 -0.02732479 0.01630084 -0.010667585 -0.027136864 -0.033746436 0.018028136
0.03521631 0.011911668 0.07179389 0.055339634 0.11192538 0.077470094 0.18852302 0.2150002
0.21480794 0.21434848 0.2513942 0.2579471 0.25696805 0.1857151 0.18968062 0.10757232
0.10155482 0.07016848 0.026135381 0.0061130156 0.0019495876 -0.042370867 -0.02380729 -0.030482909
-0.02179181 -0.010892211 0.033618808 0.034918446 0.06872447 0.047505535 0.056955047 0.10621938
0.1499441 0.18709409 0.26316127 0.24883227 0.18368965 0.155237 0.24344636 0.2671662
0.19949171 0.16003907 0.15947379 0.09695326 0.057190444 0.08192796 0.0024626094 0.019905493
0.0024778568 -0.038309533 -0.018322589 -0.028582076 0.0010311406 -0.018634306 -0.03514599 0.034411002
0.020102354 0.03585276 0.013865694 0.11457181 0.24708459 0.21144742 0.14734578 0.096163265
0.089731045 0.09437607 0.15705813 0.17101118 0.10915816 0.024744637 0.038980544 0.08709844
0.0724454 0.049543586 -0.028448338 0.016922327 0.01891803 0.008599045 0.008837019 0.021905264
00000000: d820 3bbd 8894 f4bc d2a5 19bd 0a6f 26bd
00000010: 4cf7 883c e83a 0cbd 041e 1dbd 723f eabc
00000020: 7ed8 a13c 16b5 2abd 32dc 29bd de03 31bc
00000030: 63e6 0abd 00de cebc a8f0 9f3b 2c85 0dbd
00000040: 5620 9dbc c6be b5bc c6bf 833c 365a f43a
00000050: 5eb1 9a3c 3e7e 1c3b 06ce 0cba 3278 e03b
00000060: e017 d4bc 1484 babc c488 8b3c 8632 aebb
00000070: c680 0fbd 4858 2c3c 5a48 bbba 906c 25bd
00000080: 26a9 a5bb 46ea d1bc ba56 b3bc 30ce bcbb
00000090: 36aa 3dbd fbef 073b 38f2 03bd 4795 05bd
000000a0: 52c7 b13c 67a4 15bd 0bc0 c0bc 4726 c1bb
000000b0: d0b0 40bd 2e3b 81bc 6ac4 73ba d9cb 8fbc
000000c0: e4c7 80bb b40c 0dbd 72a3 2bbc 0821 fabc
000000d0: b09c b6bc aad4 ae3c 2454 4abc c72e 09bb
000000e0: 0b87 103b 6576 813c 663a 833c 3e9a 01bd
000000f0: f9a0 63bc ca50 e8bc e215 c73b 80da d0bc
00000100: 98f4 0fbd 48b6 bfbc 5bd5 0fbc 4a09 e2bb
00000110: 9aa1 6abc 0ec0 24bd 0643 5b3c 40a4 0dbd
00000120: 3919 f6bc ad3e 08bd 0fb8 92bc 7e5b cb3b
00000130: 4359 c5bc 9b65 29bd e4b3 d5bc 44db 5f3b
00000140: 0add 5ebc 0774 163c 9a1e dbbc 50f7 bd3b
00000150: 1fd6 00bd 603d 7b3c 004e 9cbc 233e 3bbd
00000160: 7091 47bc a088 2bbd 3d57 be3b ff72 26bd
00000170: ca3b 8dbb 5253 d0bc 596b d33c 7fdd 17bd
00000180: 157f eabb 0312 80bc 20eb 52bd 364a 4ebd
00000190: 8774 6abd 92b3 d2ba 508b eabc 48b5 8cbc
000001a0: a7b0 febc d0e5 fe3c 2d1f c7bc 9626 f23b
000001b0: 1685 4dbc 988a 113c 66e4 ed3b 16f6 9aba
000001c0: 3a80 6dbc e8e4 81bb 2756 a53c 8129 333c
000001d0: ef26 103c 9502 51bd 5192 50bd 17f7 fabc
000001e0: 4452 20ba 7185 70bd 9e20 12bc 2827 4b3c
000001f0: 18e2 6abc 4b4e 2cbc 4494 093b 0543 ab3d
00000200: 58c7 713d 7231 ef3d e195 713d 869c 843a
00000210: 669b 7e3d 3cca 883d 02ac be3b 8250 d93c
00000220: ccdf 1f3d 2cd5 ae3c eb07 1a3a 6302 5d3c
00000230: 74aa 48bc aa76 f43b 1886 71bb b2fb c6ba
00000240: 7a08 083c f060 803b 83bc 20bd a9d4 29bd
00000250: ed5f dc3c 6484 fdbb 362c 263d 9ff1 9c3d
00000260: da29 553d 639e d83d 05d9 ce3d 8c46 2e3d
00000270: ce31 0a3e 41f9 543e 3686 683e 6265 1f3e
00000280: 40d8 223e ca62 e63d c47e c53d 4f59 433d
00000290: 7101 4b3d 5864 073c 7a8f a3bc b84b 0ebd
000002a0: bac8 0fbd 202e 8f3b 3dd8 dfbc 5789 853c
000002b0: 18c7 2ebc 214e debc b439 0abd beaf 933c
000002c0: fa3e 103d 2829 433c ad08 933d d0ab 623d
000002d0: 2239 e53d a4a8 9e3d 2e0c 413e 0329 5c3e
000002e0: 9df6 5b3e 2b7e 5b3e beb6 803e a411 843e
000002f0: 5191 833e 192c 3e3e a33b 423e e04e dc3d
00000300: f9fb cf3d 7eb4 8f3d de19 d63c b14f c83b
00000310: 4e89 ff3a 138d 2dbd 8107 c3bc 4bb7 f9bc
00000320: bd84 b2bc 3f75 32bc e0b3 093d a506 0f3d
00000330: 6abf 8c3d 2a95 423d b249 693d 8c89 d93d
00000340: f28a 193e 9895 3f3e 13bd 863e e3cd 7e3e
00000350: 2419 3c3e 73f6 1e3e 014a 793e 02ca 883e
00000360: 8e47 4c3e 48e1 233e 194d 233e 6e8f c63d
00000370: 8740 6a3d d9c9 a73d bb63 213b d810 a33c
00000380: 8a63 223b 75ea 1cbd 4119 96bc f524 eabc
00000390: 5627 873a f9a6 98bc 3ef5 0fbd 8df2 0c3d
000003a0: b1ad a43c 58da 123d f02c 633c a0a4 ea3d
000003b0: be03 7d3e ac85 583e d0e1 163e 3ff1 c43d
000003c0: e9c4 b73d 3e48 c13d d9d3 203e 8e1d 2f3e
000003d0: 508e df3d 44b5 ca3c 10aa 1f3d ab60 b23d
000003e0: 415e 943d 37ee 4a3d 7d0c e9bc b1a0 8a3c
000003f0: fcf9 9a3c 02e3 0c3c 25c9 103c ab72 b33c

fc1.bias f4 [256]
0.02880314 -0.018808924 -0.05267038 0.03653666 0.0044789296 -0.008364017 -0.023325711 0.023939114
-0.04309305 -0.045745242 -0.0155331455 -0.0014791245 -0.03589229 -0.016887464 -0.020261664 0.006682284
-0.023027612 0.011573176 -0.021301445 -0.04406575 -0.043147534 -0.036417663 -0.026595246 -0.016095927
-0.016042525 0.020938506 -0.038772065 -0.037640102 0.01283581 -0.041817714 -0.03169588 -0.036756095
0.015268384 -0.012915051 -0.0039769304 -0.025555775 0.012853656 -0.035248533 0.0067319544 -0.027521431
-0.014926401 -0.014045151 0.034458395 -0.025754005 -0.02441569 -0.019435069 0.0063025355 0.008903681
-0.008727937 -0.04841 -0.0019823364 -0.025639566 0.0068085073 0.0020526103 -0.016953027 -0.0005118078
0.00013071728 0.02065278 0.025241211 -0.0085884975 0.014041227 -0.046168733 0.014687584 0.009091525
-0.044567034 -0.029153513 0.03130063 -0.04699209 0.0058078505 0.020637445 -0.00071589014 0.0092481
-0.010940119 -0.041150503 -0.015982218 0.0054497737 -0.006106821 -0.029033791 -0.015067272 0.0104993805
0.018432265 0.0119341165 -0.04941519 0.006736941 -0.011005585 -0.009017221 -0.04938483 -0.029440567
-0.018337216 -0.03720562 0.043437764 -0.015257118 0.016757648 -0.032080587 -0.040429875 0.015852224
-0.010139983 -0.005492235 -0.015505755 0.0055771647 0.0031229455 -0.03695648 -0.014671488 -0.0007264453
-0.04224474 -0.030672511 -0.02791255 0.025431385 -0.031121785 -0.017833058 -0.0585279 -0.027040185
-0.029400516 0.029284442 0.013127646 0.012634066 -0.033573017 -0.052888554 0.021158468 -0.04221569
-0.007037251 -0.032241788 0.00962653 -0.03894759 -0.0013854484 -0.0010828043 -0.005425273 -0.033488158
-0.053075533 -0.0140781365 -0.044882637 -0.011552115 -0.016471574 0.0036936349 -0.017366918 -0.034710407
-0.028881129 -0.0046162494 0.035262983 0.001602247 -0.038754933 0.013796547 -0.031088883 -0.0033359479
-0.04716502 0.012620538 0.015285457 -0.020037659 -0.032108344 -0.040454004 -0.013040188 -0.0019345167
-0.022419242 -0.010909548 -0.022884317 0.00875509 -0.020951033 0.023060415 -0.031646643 -0.012655562
0.0011642094 0.0048911055 -0.044400513 -0.028360967 -0.038711783 -0.00066784717 0.008304218 -0.035493862
-0.029769337 0.049364917 0.009008085 0.0022250793 -0.028691866 0.0040858625 -0.038844258 -0.011222422
-0.005371679 -0.042228237 -0.01305705 -0.04267167 0.013308259 0.011648936 -0.0067238123 -0.018928282
-0.020863602 -0.052889742 -0.0101504745 -0.03683269 -0.012408421 -0.0075769057 -0.014656431 0.0017865421
-0.0074020103 -0.054944742 -0.03576253 -0.015266452 -0.026985152 0.01061079 -0.025905374 -0.027722957
-0.020342166 -0.02348705 0.010444981 -0.01129045 -0.017564354 -0.006671122 -0.022570005 -0.04548397
-0.024987558 -0.052283518 0.0024704812 0.011485648 -0.0043080654 -0.049548592 -0.030225947 0.0044772443
0.007692463 -0.018522851 0.025105149 -0.047745947 -0.004887194 -0.0053781057 -0.009800807 -0.018264696
0.005830204 -0.04754274 0.00958858 -0.014889562 0.008549374 -0.06199099 -0.012823834 0.029803593
0.010434784 -0.03691468 -0.040849727 -0.03518962 -0.046718158 0.019354371 0.018864186 -0.0064819027
-0.04962746 -0.020412313 0.018623576 -0.04066325 0.0011905083 -0.026769478 -0.021941386 0.0025588074
0.021043979 -0.04358778 0.0021933082 0.02200512 -0.049678005 -0.017113289 0.024105875 -0.005428057
00000000: 90f4 eb3c 2c15 9abc e5bc 57bd 77a7 153d
00000010: fcc3 923b 3b09 09bc 9015 bfbc f61b c43c
00000020: 5782 30bd 5d5f 3bbd bc7e 7ebc 2fdf c1ba
00000030: cb03 13bd 9457 8abc cafb a5bc 10f7 da3b
00000040: 67a4 bcbc 6b9d 3d3c 5e80 aebc 4a7e 34bd
00000050: 78bb 30bd b02a 15bd 46de d9bc 9bdb 83bc
00000060: 9d6b 83bc 3b87 ab3c 75cf 1ebd 822c 1abd
00000070: 4a4d 523c 0d49 2bbd 8ad3 01bd 8f8d 16bd
00000080: 3e28 7a3c a699 53bc e950 82bb 585a d1bc
00000090: 2498 523c c460 10bd ba97 dc3b a074 e1bc
000000a0: dd8d 74bc a21d 66bc 3f24 0d3d 10fa d2bc
000000b0: 6a03 c8bc 4b36 9fbc 8085 ce3b bfe0 113c
000000c0: 9fff 0ebc 9049 46bd 16ea 01bb 110a d2bc
000000d0: e619 df3b 1685 063b 13e1 8abc d72a 06ba
000000e0: 2711 0939 0530 a93c a8c6 ce3c c5b6 0cbc
000000f0: 2d0d 663c 6d1b 3dbd 31a4 703c 9ff4 143c
00000100: ec8b 36bd 59d3 eebc 1735 003d c77a 40bd
00000110: c84f be3b dc0f a93c 93aa 3bba 5885 173c
00000120: 2f3e 33bc 6e8d 28bd 24ed 82bc 0494 b23b
00000130: ba1b c8bb 46d8 edbc b8dc 76bc 9805 2c3c
00000140: 43ff 963c 5087 433c 9567 4abd 8fc1 dc3b
00000150: c550 34bc f7bc 13bc bf47 4abd 582d f1bc
00000160: ee37 96bc ec64 18bd cceb 313d fef8 79bc
00000170: 5647 893c ef66 03bd cc99 25bd 86dc 813c
00000180: 2c22 26bc 35f8 b3bb da0b 7ebc a6c0 b63b
00000190: 55aa 4c3b ae5f 17bd ae60 70bc eb6e 3eba
000001a0: d208 2dbd eb44 fbbc dca8 e4bc 7b55 d03c
000001b0: 1df3 febc a216 92bc f4ba 6fbd 6183 ddbc
000001c0: 5ad9 f0bc ede5 ef3c 5715 573c 1dff 4e3c
000001d0: dc83 09bd aba1 58bd 8654 ad3c 5cea 2cbd
000001e0: bd98 e6bb f70f 04bd 98b8 1d3c 8287 1fbd
000001f0: ef97 b5ba e2ec 8dba 7dc6 b1bb e12a 09bd
00000200: bb65 59bd fca7 66bc dbd6 37bd 1545 3dbc
00000210: 65ef 86bc e910 723b 1145 8ebc 802c 0ebd
00000220: 1e98 ecbc e843 97bb eb6f 103d 7d02 d23a
00000230: 7ebd 1ebd ea0a 623c 1dae febc eb9f 5abb
00000240: 1c30 41bd 5fc6 4e3c da6f 7a3c 0426 a4bc
00000250: 0a84 03bd 19b3 25bd 83a6 55bc 9c8f fdba
00000260: 8fa8 b7bc f6bd 32bc e477 bbbc 8271 0f3c
00000270: 80a1 abbc 32e9 bc3c e99f 01bd 4659 4fbc
00000280: 6398 983a 9145 a03b 50dd 35bd 4255 e8bc
00000290: 3f90 1ebd 7712 2fba 6a0e 083c 0362 11bd
000002a0: d3de f3bc de32 4a3d a696 133c a3d2 113b
000002b0: 340b ebbc b3e2 853b 281b 1fbd 40de 37bc
000002c0: e904 b0bb 84f7 2cbd 3ded 55bc 7dc8 2ebd
000002d0: e20a 5a3c 2edb 3e3c 6d53 dcbb 7c0f 9bbc
000002e0: 25ea aabc eaa2 58bd 2d4e 26bc e0dd 16bd
000002f0: b14c 4bbc b147 f8bb 8721 70bc 682a ea3a
00000300: 908c f2bb bd0d 61bd bb7b 12bd 2420 7abc
00000310: f70f ddbc e1d8 2d3c 8237 d4bc 411b e3bc
00000320: 9da4 a6bc ea67 c0bc 6d21 2b3c 94fb 38bc
00000330: 1fe3 8fbc 6d99 dabb bbe4 b8bc 664d 3abd
00000340: b5b2 ccbc 3e27 56bd cce7 213b 4d2e 3c3c
00000350: ac2a 8dbb 77f3 4abd 689c f7bc d9b5 923b
00000360: 0f11 fc3b 3cbd 97bc 50a9 cd3c 4191 43bd
00000370: c124 a0bb d23a b0bb 9093 20bc d89f 95bc
00000380: 4c0b bf3b 2dbc 42bd 6b19 1d3c 59f3 73bc
00000390: ac12 0c3c 44ea 7dbd 0f1b 52bc aa26 f43c
000003a0: a8f6 2a3c d933 17bd 0b52 27bd fe22 10bd
000003b0: 8a5b 3fbd 0f8d 9e3c 1189 9a3c 2466 d4bb
000003c0: 2a46 4bbd b937 a7bc 7890 983c 828e 26bd
000003d0: d40a 9c3a aa4b dbbc 6cbe b3bc aab1 273b
000003e0: 6c64 ac3c 1a89 32bd 9bbd 0f3b 1544 b43c
000003f0: 2a7b 4bbd 2b31 8cbc af79 c53c d8dd b1bb

fc2.weight f4 [128, 256]
0.03256991 -0.02415878 -0.012035199 -0.16885778 0.02833283 0.058426466 0.08017512 -0.059328135
-0.04672739 0.07237942 0.013945131 0.033336975 0.024598354 0.027431969 0.015770895 0.019003883
-0.00424763 -0.1454472 -0.016575854 -0.008804746 0.006541662 -0.025985036 -0.023237124 -0.05574174
0.014183272 0.06987562 -0.06634336 -0.036614142 -0.0039142994 -0.0053672856 -0.014234766 -0.039336976
-0.0038333442 0.038669962 0.047004834 -0.056688298 -0.041768316 -0.022588031 -0.009911552 -0.037285917
0.015730232 0.07866465 -0.0052021067 -0.026867056 0.042425238 -0.028136013 -0.12695265 -0.026400248
-0.01222421 0.15648055 0.04530573 -0.032258935 -0.01019147 0.073636025 -0.0074079125 -0.0005552051
-0.08210957 -0.046574596 0.09233779 -0.2187572 0.06550222 0.013571424 -0.015069165 0.025411723
-0.015936486 0.017837591 0.13085102 0.036822647 -0.05612272 0.09306837 -0.031352647 0.038336586
0.057468615 -0.016630532 -0.07475768 0.07016958 -0.112393945 0.080658816 0.08762114 0.073240735
0.024422474 0.0031618136 -0.024048394 -0.049987283 0.049225517 0.03539746 0.11629123 0.079621635
-0.05875861 -0.003383348 0.04016649 -0.007901811 -0.01254343 -0.0144118965 0.03275263 -0.05795357
-0.083306104 -0.010874764 -0.21902828 -0.005859855 -0.007777495 0.002562688 0.033791263 -0.010093943
-0.026677942 -0.016644113 -0.043269582 -0.065025 -0.0783533 -0.004960819 -0.059778556 -0.014360548
-0.008807296 -0.04131137 -0.025067043 0.022990823 -0.072074585 -0.016033867 -0.0012499022 0.025192156
0.00050099497 0.09665703 -0.04965101 0.0071222503 0.055079702 -0.030066531 0.051414292 0.0287126
-0.06471479 -0.10469237 0.028702842 -0.04665121 -0.059406683 -0.14157002 0.03203021 -0.15265022
0.006555401 -0.017099168 0.09188399 0.05014763 -0.028670572 -0.05506715 0.033308897 0.048499033
-0.28159449 0.029691579 -0.05068898 -0.06840866 0.0039187996 -0.035097912 0.06762801 0.06386244
-0.06835632 0.036626317 -0.06440821 0.011432558 0.08044026 0.1393997 -0.23667645 0.1236334
-0.0528415 0.016113294 -0.04317335 -0.016008666 0.005186491 0.045056377 -0.031356875 -0.029597143
-0.22566319 0.016715202 0.055553272 -0.021202425 0.007569448 -0.022250868 -0.057215948 0.044116944
-0.060918044 -0.16807692 -0.05887852 0.0067581874 0.029060375 0.028197723 -0.013105324 0.011605438
-0.063209385 -0.017761543 0.067868024 -0.0230497 0.08678197 -0.010017577 0.045100093 -0.097920276
0.053276483 0.02910087 0.0042741946 0.011995068 0.009335841 0.07299738 -0.016453842 0.017104153
0.0213734 0.006470276 -0.067290194 0.024365285 0.001721541 -0.010937448 -0.03242234 0.007829659
0.04557858 -0.065640695 0.012229807 -0.01709958 -0.020358851 0.009067409 0.079862304 0.07684522
-0.003095671 -0.056575153 -0.011566108 0.036622494 -0.026312394 0.013277325 0.022560269 -0.05242512
-0.022787683 -0.06865832 0.07026605 -0.03949699 0.012576599 0.03234833 0.04361472 -0.0069916807
0.025467645 -0.023293743 0.03737305 0.02349232 -0.03332078 -0.118569404 0.07213083 -0.018574059
0.054120794 -0.00812792 -0.018238395 0.033446334 -0.060904652 0.06332926 -0.0014196169 -0.05054864
0.0635581 0.06316346 0.024373597 0.04406772 0.0132393055 -0.03588935 -0.0070696087 0.07033517
00000000: 0768 053d a2e8 c5bc 492f 45bc 0ee9 2cbe
00000010: 401a e83c 9750 6f3d da32 a43d 0f02 73bd
00000020: 3865 3fbd a93b 943d 1e7a 643c 5a8c 083d
00000030: 7d82 c93c 02b9 e03c f731 813c 08ae 9b3c
00000040: b42f 8bbb 1cf0 14be 16ca 87bc c841 10bc
00000050: 705b d63b 92de d4bc c85b bebc 7351 64bd
00000060: f460 683c f31a 8f3d 07df 87bd b6f8 15bd
00000070: 8643 80bb 0ee0 afbb f038 69bc cf1f 21bd
00000080: d838 7bbb 6564 1e3d 2488 403d fd31 68bd
00000090: 4115 2bbd 890a b9bc 1064 22bc 1eb9 18bd
000000a0: b0dc 803c ef1a a13d 6f76 aabb 4d18 dcbc
000000b0: 16c6 2d3d 7f7d e6bc e0ff 01be 5545 d8bc
000000c0: 0e48 48bc 703c 203e 8092 393d f221 04bd
000000d0: 20fa 26bc 7cce 963d 13be f2bb 2f8b 11ba
000000e0: 1029 a8bd 01c5 3ebd 981b bd3d e301 60be
000000f0: 0726 863d ae5a 5e3c a9e4 76bc 3f2c d03c
00000100: 3c8d 82bc 2420 923c cffd 053e 58d3 163d
00000110: f0e0 65bd a19a be3d a26b 00bd d306 1d3d
00000120: 3664 6b3d c13c 88bc 8e1a 99bd 12b5 8f3d
00000130: cc2e e6bd 7330 a53d b672 b33d 3dff 953d
00000140: a411 c83c 6e36 4f3b 2301 c5bc 77bf 4cbd
00000150: b2a0 493d edfc 103d 192a ee3d ab10 a33d
00000160: deac 70bd 29bb 5dbb 9e85 243d 9976 01bc
00000170: f582 4dbc e01f 6cbc 9f27 063d b960 6dbd
00000180: 649c aabd 112c 32bc f348 60be 0704 c0bb
00000190: 5bda febb c5f2 273b b568 0a3d 1161 25bc
000001a0: b38b dabc 3c59 88bc 723b 31bd d42b 85bd
000001b0: b277 a0bd 5e8e a2bb 5cda 74bd 8148 6bbc
000001c0: 7a4c 10bc 1c36 29bd 6659 cdbc 4057 bc3c
000001d0: d79b 93bd 7559 83bc c2d3 a3ba c85f ce3c
000001e0: 3455 033a 1ff4 c53d dc5e 4bbd c461 e93b
000001f0: 419b 613d 164e f6bc cb97 523d b036 eb3c
00000200: 3089 84bd f468 d6bd 3922 eb3c 5715 3fbd
00000210: 6c54 73bd bbf7 10be 1c32 033d 5750 1cbe
00000220: b0ce d63b 8e13 8cbc ac2d bc3d 9a67 4d3d
00000230: 8cde eabc 188e 61bd e96e 083d eca6 463d
00000240: 272d 90be c13b f33c 3f9f 4fbd d719 8cbd
00000250: 4669 803b d4c2 0fbd 8e80 8a3d 50ca 823d
00000260: 66fe 8bbd 7a05 163d 74e8 83bd a04f 3b3c
00000270: ddbd a43d ccbe 0e3e 505b 72be 8233 fd3d
00000280: 5470 58bd 0700 843c 8ad6 30bd 9b24 83bc
00000290: 71f3 a93b 098d 383d 1170 00bd b575 f2bc
000002a0: 4014 67be 52ee 883c d48b 633d b5b0 adbc
000002b0: 2209 f83b 7447 b6bc 455b 6abd f8b3 343d
000002c0: 3385 79bd 5b1c 2cbe 9a2a 71bd c973 dd3b
000002d0: 0610 ee3c e9fe e63c b6b7 56bc bc24 3e3c
000002e0: ec73 81bd a880 91bc 64fe 8a3d b9d2 bcbc
000002f0: bfba b13d c320 24bc e0ba 383d 6d8a c8bd
00000300: 7138 5a3d f364 ee3c 8b0e 8c3b f686 443c
00000310: 5bf5 183c a67f 953d 35ca 86bc 021e 8c3c
00000320: 4517 af3c 9c04 d43b 71cf 89bd b599 c73c
00000330: 55a5 e13a fb32 33bc 4acd 04bd f847 003c
00000340: 9bb0 3a3d a16e 86bd 875f 483c 6b14 8cbc
00000350: 9bc7 a6bc 788f 143c d98e a33d 0761 9d3d
00000360: bee0 4abb 59bb 67bd c67f 3dbc 7801 163d
00000370: 178d d7bc 2389 593c 50d0 b83c b9bb 56bd
00000380: 3cad babc bc9c 8cbd a6e7 8f3d 99c7 21bd
00000390: 140e 4e3c af7f 043d 59a5 323d 781a e5bb
000003a0: 86a1 d03c 85d2 bebc 7c14 193d f772 c03c
000003b0: 5f7b 08bd 84d4 f2bd 54b9 933d a028 98bc
000003c0: c4ad 5d3d f82a 05bc b068 95bc 06ff 083d
000003d0: 2877 79bd c5b2 813d 7012 baba 170c 4fbd
000003e0: c02a 823d d85b 813d 23ab c73c 5b80 343d
000003f0: ace9 583c b600 13bd 2da8 e7bb e30b 903d

fc2.bias f4 [128]
0.07610924 0.14153732 -0.024182508 -0.04971219 -0.0688507 0.041453473 -0.0760826 -0.076495335
-0.08509926 -0.036077347 -0.06015909 0.05768569 -0.0951751 -0.018948177 -0.073805965 0.03416763
0.0057590296 -0.05410935 0.03019055 0.02089905 -0.03612129 -0.095150635 0.0101615945 -0.068585955
0.027008219 0.052871328 0.105407886 0.030926768 0.11737414 0.04206557 -0.122079134 -0.1589907
-0.01841109 -0.020379217 0.018403627 -0.046596486 0.017854357 -0.0026721803 0.017000042 -0.033401407
-0.043808844 -0.08626571 -0.082587816 0.0050705243 -0.130588 0.0074094 -0.022871044 -0.019220147
0.026113365 0.0042186356 -0.0886009 -0.0055950996 -0.012908332 -0.06975805 -0.059208438 -0.024883477
-0.14369786 -0.024049716 0.053670075 -0.004655986 -0.04723622 -0.00623585 -0.07162025 0.0889154
-0.014099838 0.028444028 -0.010049082 -0.011784122 -0.078025684 -0.008201241 0.04478586 -0.013855341
0.0018092797 -0.063582145 -0.0069785486 0.055908285 -0.054001316 -0.00924407 -0.058873903 -0.028398301
-0.035331402 -0.024134183 -0.041335076 -0.10604372 -0.0030433342 0.07136273 -0.023339992 0.009193842
0.021047935 0.02651804 -0.09265496 -0.06260373 -0.014469961 0.0535343 -0.06608006 0.012823108
0.0018896915 0.068972595 -0.09120478 -0.020455344 -0.09198461 -0.076309204 -0.076286115 -0.07200778
-0.045692917 -0.009099548 -0.0034833206 -0.025023336 -0.010676746 0.025219696 -0.071081124 -0.010872001
-0.10861923 0.12655768 -0.12906344 -0.014204232 -0.0850196 0.010728534 0.018327149 0.026386984
-0.017689582 -0.09177755 0.02313086 -0.04889767 -0.07108733 -0.0030181701 -0.048453037 -0.09994639
00000000: 29df 9b3d 29ef 103e 651a c6bc 029f 4bbd
00000010: 9901 8dbd 1ecb 293d 32d1 9bbd 96a9 9cbd
00000020: 8548 aebd d7c5 13bd 6169 76bd d447 6c3d
00000030: 2aeb c2bd 3539 9bbc 9527 97bd 5bf3 0b3d
00000040: 3eb6 bc3b c4a1 5dbd 2c52 f73c 7c34 ab3c
00000050: ebf3 13bd 56de c2bd d17c 263c cb76 8cbd
00000060: 5740 dd3c 9b8f 583d 17e0 d73d 225a fd3c
00000070: da61 f03d f24c 2c3d a004 fabd 75ce 22be
00000080: dbd2 96bc 51f2 a6bc 34c3 963c f5db 3ebd
00000090: 4d43 923c bf1f 2fbb ac43 8b3c eacf 08bd
000000a0: e770 33bd 14ac b0bd cd23 a9bd a426 a63b
000000b0: dcb8 05be 8dca f23b 0e5c bbbc 9273 9dbc
000000c0: b2eb d53c 7b3c 8a3b 6374 b5bd 1957 b7bb
000000d0: 787d 53bc 4fdd 8ebd 8c84 72bd 6fd8 cbbc
000000e0: 8825 13be e903 c5bc 27d5 5b3d 3e91 98bb
000000f0: c47a 41bd 1a56 ccbb a3ad 92bd 4719 b63d
00000100: 0203 67bc 7303 e93c e8a4 24bc 3112 41bc
00000110: eecb 9fbd 7f5e 06bc 6171 373d 8301 63bc
00000120: 5a25 ed3a 5b37 82bd 4fac e4bb 1600 653d
00000130: 7c30 5dbd 7174 17bc c325 71bd 8ea3 e8bc
00000140: a9b7 10bd 0db5 c5bc f84e 29bd 732d d9bd
00000150: ad72 47bb 9f26 923d 8333 bfbc c5a1 163c
00000160: b86c ac3c 5c3c d93c e2c1 bdbd 6236 80bd
00000170: 6a13 6dbc c846 5b3d fc54 87bd 0318 523c
00000180: 86af f73a 8141 8d3d 92c9 babd f791 a7bc
00000190: 6d62 bcbd 0048 9cbd e53b 9cbd d178 93bd
000001a0: 7f28 3bbd 4516 15bc 6c48 64bb bdfd ccbc
000001b0: 85ed 2ebc 8999 ce3c fb92 91bd 7a20 32bc
000001c0: c273 debd 5698 013e 3529 04be deb8 68bc
000001d0: c21e aebd bcc6 2f3c d122 963c 8429 d83c
000001e0: bee9 90bc def5 bbbd ee7c bd3c ec48 48bd
000001f0: 3c96 91bd 7ecc 45bb b176 46bd b1b0 ccbd

fc3.weight f4 [64, 128]
-0.091244794 -0.041885756 0.06970464 0.1788262 -0.011867032 0.038637143 -0.12832195 0.101414956
-0.047930762 -0.019073196 -0.01434777 -0.101355106 -0.1552324 -0.13271542 -0.026525728 -0.033533696
0.062522866 0.08207774 -0.08934144 0.048004583 0.09796961 0.0005177339 0.024991386 0.015791252
-0.107678585 0.116025895 -0.16431074 0.09170625 0.00013041077 -0.03271955 -0.049260452 0.033239502
0.116784886 0.010113702 -0.03673782 0.047874022 -0.049136147 0.10481871 0.049216237 -0.0113134
0.069126174 -0.013194079 -0.043586247 -0.11558844 0.026460527 -0.0007852885 0.091556855 -0.054694284
-0.05190847 0.1126595 -0.021213211 0.07176285 0.2691354 0.08360517 0.09524143 -0.050720602
0.011391682 -0.018393692 -0.142595 -0.0921313 0.032735717 0.037689697 0.05899795 -0.07633108
0.056650706 -0.01647602 0.004474389 0.05931558 -0.027445197 -0.043043684 0.024723632 0.06654099
-0.09199288 -0.07975463 -0.007925801 -0.049837075 0.047532007 -0.033737406 -0.020435484 0.020540453
0.04500945 0.007555678 0.09836942 0.010461087 -0.034858402 -0.081401326 -0.023600856 0.07474864
0.2209664 0.06598347 -0.014899647 -0.054802697 0.011192983 0.077353865 -0.009021915 -0.054776903
-0.031172957 -0.061219424 0.10650024 -0.055040855 0.04356674 -0.0037760888 0.015073518 0.047517594
-0.13968162 -0.030780338 -0.13732935 -0.0029194283 0.070475474 0.15465434 0.037092928 0.051713876
-0.027967744 -0.14211397 0.016237892 0.0079922825 0.13510191 -0.023771701 0.029816391 0.032020785
-0.033242784 -0.030693557 0.09662106 0.07358347 -0.004454189 0.09751958 -0.05350135 0.094360106
0.08424356 0.0072338986 0.048553452 -0.021836942 -0.104956195 0.060548536 -0.06887605 -0.0742634
-0.05124813 0.038777024 -0.15474889 0.02336433 0.24681656 0.06979558 0.09391755 0.0022015397
0.02471305 0.0030427438 -0.25958827 0.06281678 -0.23595087 -0.019417448 0.021077266 0.0347324
0.021055803 0.09472506 -0.09761812 0.020375809 -0.061155032 -0.24239698 0.19870543 -0.004566016
0.044936635 0.024923375 -0.0033629793 0.029973648 0.060601555 0.09938619 0.120344914 0.024819097
0.077073775 0.07083119 0.11795974 -0.021231914 0.028696023 -0.043325376 0.038724404 -0.013771567
0.048952684 0.14472793 0.026165921 0.12938079 0.14866807 0.046889838 -0.037463695 -0.04988415
0.19951253 -0.10393906 -0.048755758 0.004164752 -0.105208546 -0.0022202902 0.034130204 0.060769215
0.0623461 0.04169232 -0.02207966 -0.067692116 0.0057496103 -0.00019643981 -0.060249396 -0.07158822
0.0022930354 -0.060975015 0.045433015 -0.04719662 0.14934991 0.040478673 -0.054011237 0.049102146
-0.0788107 0.030246029 0.094623186 -0.07466395 -0.18081917 -0.123932704 0.008393303 -0.047299393
0.105703965 -0.08106424 0.10233603 -0.017357772 0.05180523 -0.00048074505 -0.06719617 0.036631893
0.077869266 0.014332263 0.033823423 -0.0664978 -0.043616384 -0.035069846 -0.042988155 0.013596218
0.06854464 -0.00527812 0.061608024 -0.00072950486 -0.06628177 -0.021088015 -0.17335485 0.07015957
-0.00030147997 -0.039238982 0.07415479 -0.007260705 -0.031597234 -0.01631133 -0.06443218 0.0757414
0.0009907817 0.025939694 -0.20937721 0.017511059 0.08483592 -0.057274517 0.015684098 0.042989705
00000000: 8dde babd 6690 2bbd 4ec1 8e3d 371e 373e
00000010: f16d 42bc fb41 1e3d d466 03be a5b2 cf3d
00000020: 0c53 44bd 643f 9cbc e912 6bbc 4493 cfbd
00000030: 3ef5 1ebe 8de6 07be 7c4c d9bc a15a 09bd
00000040: fd0b 803d 6018 a83d a5f8 b6bd 74a0 443d
00000050: 4aa4 c83d 89b8 073a bcba cc3c a85c 813c
00000060: 9786 dcbd fc9e ed3d 1341 28be 7dd0 bb3d
00000070: e0be 0839 ef04 06bd 54c5 49bd 2526 083d
00000080: ea2c ef3d f1b3 253c 657a 16bd 8d17 443d
00000090: fc42 49bd 31ab d63d f796 493d d75b 39bc
000000a0: 0692 8d3d fa2b 58bc 7e87 32bd a2b9 ecbd
000000b0: bfc3 d83c d2db 4dba 2982 bb3d 1d07 60bd
000000c0: fa9d 54bd 06ba e63d 54c7 adbc 67f8 923d
000000d0: 1dcc 893e 3039 ab3d f00d c33d 68c0 4fbd
000000e0: 2da4 3a3c 5eae 96bc 6c04 12be 56af bcbd
000000f0: e315 063d 8360 1a3d d6a7 713d 7853 9cbd
00000100: 920a 683d b8f8 86bc e59d 923b e5f4 723d
00000110: c0d4 e0bc 934e 30bd 3789 ca3c a446 883d
00000120: c366 bcbd 6556 a3bd 38db 01bc f621 4cbd
00000130: ecb0 423d 3c30 0abd 5168 a7bc 7444 a83c
00000140: d45b 383d 9f95 f73b e875 c93d fb64 2b3c
00000150: afc7 0ebd bdb5 a6bd 9556 c1bc d115 993d
00000160: 0445 623e 5722 873d a61d 74bc cb78 60bd
00000170: c662 373c b46b 9e3d a7d0 13bc bf5d 60bd
00000180: 6e5e ffbc 38c1 7abd cc1c da3d 8572 61bd
00000190: 0a73 323d 4278 77bb ebf6 763c cfa1 423d
000001a0: b308 0fbe 0c27 fcbc 11a0 0cbe e153 3fbb
000001b0: 7255 903d b55d 1e3e c1ee 173d eed1 533d
000001c0: 9c1c e5bc 5386 11be 5405 853c 10f2 023c
000001d0: 2858 0a3e dfbc c2bc 8141 f43c 3a28 033d
000001e0: 9629 08bd 0e71 fbbc 43e1 c53d eeb2 963d
000001f0: 72f4 91bb 58b8 c73d 3b24 5bbd df3f c13d
00000200: e387 ac3d 570a ed3b fcdf 463d 63e3 b2bc
00000210: 46f3 d6bd be01 783d e30e 8dbd 6917 98bd
00000220: 8fe9 51bd a8d4 1e3d 7e76 1ebe 8d66 bf3c
00000230: 7bbd 7c3e fcf0 8e3d d857 c03d b547 103b
00000240: 0673 ca3c c568 473b c1e8 84be 15a6 803d
00000250: 1b9d 71be 5711 9fbc 3baa ac3c 9043 0e3d
00000260: 387d ac3c 36ff c13d 02ec c7bd 2beb a63c
00000270: b37d 7abd ea36 78be 7079 4b3e 859e 95bb
00000280: 7a0f 383d 1b2c cc3c 6e65 5cbb 4c8b f53c
00000290: 5639 783d fd8a cb3d 6577 f63d 6b51 cb3c
000002a0: dbd8 9d3d f10f 913d e094 f13d 8dee adbc
000002b0: ec13 eb3c f375 31bd 7b9d 1e3d 23a2 61bc
000002c0: 9c82 483d 8f33 143e ea59 d63c 667c 043e
000002d0: 713c 183e 8f0f 403d 8873 19bd 5353 4cbd
000002e0: 034d 4c3e 00de d4bd 1eb4 47bd 7978 883b
000002f0: 9477 d7bd 4a82 11bb 1dcc 0b3d 24e9 783d
00000300: a05e 7f3d 91c5 2a3d 67e0 b4bc 2aa2 8abd
00000310: 3a67 bc3b 69fb 4db9 12c8 76bd d89c 92bd
00000320: c046 163b f0c0 79bd f817 3a3d 3e51 41bd
00000330: 2fef 183e f7cc 253d e33a 5dbd 551f 493d
00000340: 8167 a1bd 85c6 f73c cdc9 c13d 6ae9 98bd
00000350: a928 39be 6ed0 fdbd 1084 093c 02bd 41bd
00000360: 527b d83d 0205 a6bd 8d95 d13d e331 8ebc
00000370: b931 543d 820c fcb9 259e 89bd 530b 163d
00000380: ec79 9f3d ded1 6a3c 6e8a 0a3d 0030 88bd
00000390: 18a7 32bd 66a5 0fbd 5914 30bd acc2 5e3c
000003a0: 2261 8c3d 14f4 acbb b258 7c3d 3e3c 3fba
000003b0: bdbe 87bd c6c0 acbc ef83 31be d2af 8f3d
000003c0: f50f 9eb9 0eb9 20bd 77de 973d 35eb edbb
000003d0: 1a6c 01bd 579f 85bc 05f5 83bd 4f1e 9b3d
000003e0: 1edd 813a 7b7f d43c fb66 56be 5a73 8f3c
000003f0: 74be ad3d af98 6abd f07b 803c f915 303d

fc3.bias f4 [64]
-0.04467791 -0.049164485 -0.0061542704 -0.062391266 -0.08757113 -0.04250928 0.032963097 -0.058940724
0.16502115 0.11145187 0.009112123 0.144676 -0.018658398 -0.08775125 -0.026400754 -0.03945156
0.00067786116 -0.045317955 -0.15611975 0.013154512 0.019379884 -0.042768613 0.17625982 -0.11837308
0.11819615 0.09415626 -0.09805182 0.13119099 -0.07851029 -0.042383578 0.01794439 0.057804532
0.12019033 -0.016250556 -0.012693525 0.017938474 -0.13107301 -0.16042517 -0.050508365 0.0823707
0.12322869 -0.08909605 0.010214729 -0.07400352 -0.035782687 -0.08170536 -0.12580293 -0.11633049
-0.1278039 0.07106907 -0.08936285 -0.032434613 -0.08522627 -0.12893674 -0.03266741 -0.091400675
-0.22152005 -0.13513581 -0.105983645 -0.056274164 0.020642083 0.04163505 0.077954136 0.040074065
00000000: 2f00 37bd b360 49bd c3a9 c9bb fc8d 7fbd
00000010: 7e58 b3bd 361e 2ebd 5004 073d d46b 71bd
00000020: 4efb 283e e140 e43d 044b 153c f225 143e
00000030: 7fd9 98bc edb6 b3bd 6546 d8bc f597 21bd
00000040: 7eb2 313a 529f 39bd dbdd 1fbe 0686 573c
00000050: 90c2 9e3c 242e 2fbd 747d 343e 966d f2bd
00000060: d310 f23d ffd4 c03d 65cf c8bd ee56 063e
00000070: 01ca a0bd 679a 2dbd 1d00 933c 72c4 6c3d
00000080: 5926 f63d e31f 85bc 81f8 4fbc b5f3 923c
00000090: 0138 06be 7f46 24be dce1 4ebd f8b1 a83d
000000a0: 535f fc3d fd77 b6bd ae5b 273c 288f 97bd
000000b0: de90 12bd 2455 a7bd 7cd2 00be ae3e eebd
000000c0: 07df 02be a98c 913d df03 b7bd 28da 04bd
000000d0: 1c8b aebd fe07 04be 43ce 05bd 4730 bbbd
000000e0: 27d6 62be 0b61 0abe f40d d9bd bd7f 66bd
000000f0: 9619 a93c 8489 2a3d 6ba6 9f3d b424 243d

fc4.weight f4 [10, 64]
-0.060962405 0.13252738 -0.09561783 -0.018778255 -0.12229535 0.1828118 0.036884658 0.08156573
0.1069254 0.09042929 -0.15162316 0.11177625 0.074332066 0.031355485 -0.07167582 -0.22061163
-0.014264055 0.1263698 0.077878125 0.09062612 0.07298035 -0.06702402 0.12912367 0.034097012
0.06285529 0.12532768 0.033281982 -0.13676873 -0.053650286 -0.10327214 -0.0026516973 -0.086343326
-0.24412571 0.022462936 0.030394247 -0.014378489 0.071997255 0.10008895 -0.003377238 0.023732873
-0.19372505 0.009995556 -0.04482595 -0.012621579 -0.18476807 -0.18251365 -0.04263565 0.10933898
-0.14989085 0.015897442 -0.011310849 0.06992139 -0.05671954 0.008658122 -0.04249139 -0.15380165
-0.0634726 0.101774774 -0.10355424 0.10811443 -0.0366011 -0.013774353 -0.03851509 -0.044832148
0.18793368 0.059127714 -0.06682411 -0.1794679 0.051406544 -0.043589015 -0.21437709 0.034698553
0.012992404 -0.21275625 -0.18335502 -0.06202217 0.0072711334 0.012240642 0.08156239 0.06977566
-0.16722755 -0.1835015 -0.06853877 -0.12901865 0.084441304 -0.016120017 -0.21939676 -0.06865046
-0.20094599 -0.034735836 -0.05565045 -0.06394587 -0.0024485798 0.00010999872 -0.092053495 -0.1579442
0.1622056 -0.013813791 -0.08188026 0.095776305 -0.099507205 -0.15591869 -0.18335721 -0.111645505
-0.015256142 0.0099603785 -0.027883584 0.06174437 0.06494704 -0.3046209 0.030806301 -0.1663409
-0.036841564 -0.00941512 0.051465057 -0.18333982 0.006762561 -0.051005878 0.0041107684 0.1228017
-0.1900471 -0.1316876 -0.0016806585 0.15592834 -0.016288329 0.14019835 -0.15787347 0.18442312
0.10071601 0.13789181 -0.083752126 0.0054070824 -0.171459 -0.004561591 0.11516605 0.056250807
-0.17318773 0.05335255 0.013381007 0.110913955 0.0039288956 -0.022519797 -0.05996426 -0.05923918
-0.07260402 0.07722251 -0.17104733 0.13254055 0.033826098 -0.021877151 -0.023155522 -0.04044573
-0.09678905 -0.1208369 -0.12467695 -0.06819679 -0.0116204 0.03735572 -0.07476612 -0.09878216
0.00074932666 -0.15887289 -0.05181977 -0.1225386 -0.0094334725 -0.15369387 -0.019246638 0.11965252
0.024082199 0.09335262 0.019772043 -0.1384762 0.12350868 -0.20296066 -0.026166975 -0.09775198
-0.058364898 -0.0682398 -0.09540167 0.07890826 -0.120364524 -0.0132487705 -0.019023648 0.15096082
0.024607096 -0.086011305 -0.12389838 0.08445418 0.13256308 0.07003784 -0.041252144 -0.11350072
0.07218224 -0.047209594 -0.05856061 -0.095907755 0.13954334 -0.11109598 -0.050104197 -0.0017022449
-0.018545914 -0.042991318 -0.053217463 0.023233261 -0.05697358 -0.004082649 -0.13417543 -0.06568021
0.10539767 -0.14998725 -0.14749339 0.06374682 0.11971259 0.11071218 0.08024894 0.012059341
-0.10373798 -0.09142907 0.0215259 0.16454794 -0.20611726 -0.13547957 -0.068654984 0.018509122
-0.14758421 -0.033327788 0.087003455 -0.06184761 -0.013246228 -0.044266503 -0.15682352 -0.0429268
0.15700562 -0.0741581 -0.113303825 0.03213081 0.044696517 -0.023294827 -0.09593962 -0.049671315
0.015461999 0.009115689 0.12655658 0.1324097 0.03796948 -0.09406671 -0.025864026 -0.008164461
0.059073795 -0.025692115 -0.15436335 -0.06414599 0.02742034 0.017260868 -0.0056937714 -0.12679803
00000000: b7b3 79bd 42b5 073e 48d3 c3bd dbd4 99bc
00000010: fc75 fabd 0433 3b3e 5e14 173d ef0b a73d
00000020: b4fb da3d fe32 b93d 1a43 1bbe f2ea e43d
00000030: 693b 983d 9c6e 003d c6ca 92bd 04e8 61be
00000040: c8b3 69bc 1667 013e 917e 9f3d 309a b93d
00000050: b976 953d e443 89bd ff38 043e 4fa9 0b3d
00000060: 46ba 803d e655 003e b052 083d 1a0d 0cbe
00000070: 67c0 5bbd 5880 d3bd 19c8 2dbb c5d4 b0bd
00000080: 17fc 79be 3104 b83c 5bfd f83c c193 6bbc
00000090: 4c73 933d 6ffb cc3d a754 5dbb 716b c23c
000000a0: dc5f 46be 67c4 233c 6a9b 37bd bdca 4ebc
000000b0: d733 3dbe dce4 3abe b8a2 2ebd 1ded df3d
000000c0: fd7c 19be 5a3b 823c 2451 39bc f232 8f3d
000000d0: c052 68bd ccda 0d3c 740b 2ebd 2e7e 1dbe
000000e0: ecfd 81bd 4b6f d03d 3f14 d4bd 196b dd3d
000000f0: 09eb 15bd d3ad 61bc 00c2 1dbd eaa1 37bd
00000100: b071 403e e72f 723d 14db 88bd 6fc6 37be
00000110: ab8f 523d 658a 32bd ab85 5bbe 1220 0e3d
00000120: 18de 543c c6dc 59be 6bc1 3bbe f50a 7ebd
00000130: b042 ee3b f98c 483c 2f0a a73d 8be6 8e3d
00000140: b33d 2bbe d1e7 3bbe 0e5e 8cbd 771d 04be
00000150: 90ef ac3d 200e 84bc 8ba9 60be 9d98 8cbd
00000160: c9c4 4dbe 2a47 0ebd baf1 63bd 0df6 82bd
00000170: 5a78 20bb 1daf e638 8b86 bcbd 20bc 21be
00000180: 3a19 263e 3d53 62bc d6b0 a7bd 5e26 c43d
00000190: 6fca cbbd 26a9 1fbe fec1 3bbe 66a6 e4bd
000001a0: e6f4 79bc db30 233c 1d6c e4bc aae7 7c3d
000001b0: f402 853d 45f7 9bbe 7f5d fc3c 4555 2abe
000001c0: 2ee7 16bd e041 1abc 06cd 523d 6fbd 3bbe
000001d0: 7998 dd3b 8aeb 50bd a0b3 863b 757f fb3d
000001e0: b59b 42be 1dd9 06be 8b49 dcba aeab 1f3e
000001f0: 1a6f 85bc 2890 0f3e 95a9 21be 6ad9 3c3e
00000200: 3244 ce3d 8333 0d3e 3c86 abbd e52d b13b
00000210: f392 2fbe 6679 95bb 2edc eb3d 3f67 663d
00000220: 2058 31be 3488 5a3d 033c 5b3c db26 e33d
00000230: f7bd 803b 707b b8bc 159d 75bd c8a4 72bd
00000240: 6bb1 94bd d626 9e3d 0827 2fbe b6b8 073e
00000250: 3c8d 0a3d b637 b3bc a6b0 bdbc 6caa 25bd
00000260: 5639 c6bd 5679 f7bd a156 ffbd c2aa 8bbd
00000270: 7d63 3ebc 5002 193d fb1e 99bd 4d4e cabd
00000280: 766e 443a 93af 22be f840 54bd 84f5 fabd
00000290: da8e 1abc ed61 1dbe 20ab 9dbc 610c f53d
000002a0: 0848 c53c a92f bf3d fbf8 a13c b4cc 0dbe
000002b0: 1ef2 fc3d ebd4 4fbe 205c d6bc 3132 c8bd
000002c0: 0810 6fbd 4fc1 8bbd f361 c3bd a79a a13d
000002d0: ad81 f6bd 5f11 59bc 7bd7 9bbc 7995 1a3e
000002e0: d294 c93c b226 b0bd 6fbe fdbd 50f6 ac3d
000002f0: 9ebe 073e 0070 8f3d 02f8 28bd 1173 e8bd
00000300: 48d4 933d d95e 41bd 40dd 6fbd 496b c4bd
00000310: 73e4 0e3e 4a86 e3bd 0f3a 4dbd dc1d dfba
00000320: 9aed 97bc aa17 30bd 8efa 59bd ae53 be3c
00000330: 215d 69bd bec7 85bb 4965 09be 5983 86bd
00000340: bcda d73d 4296 19be 8208 17be b18d 823d
00000350: e02b f53d 11bd e23d 8e59 a43d 8b94 453c
00000360: 9474 d4bd 2a3f bbbd 1657 b03c 417f 283e
00000370: 6710 53be 28bb 0abe fc9a 8cbd 71a0 973c
00000380: 5120 17be b882 08bd de2e b23d eb53 7dbd
00000390: b506 59bc cb50 35bd 5896 20be 03d4 2fbd
000003a0: 15c6 203e 34e0 97bd d60b e8bd 999b 033d
000003b0: b213 373d cbd4 bebc fe7b c4bd 2674 4bbd
000003c0: 5354 7d3c f959 153c 0c98 013e 6996 073e
000003d0: e385 1b3d 0ca6 c0bd cbe0 d3bc 3bc4 05bc
000003e0: 5df7 713d 4578 d2bc 6d11 1ebe f95e 83bd
000003f0: 9fa0 e03c aa66 8d3c d192 babb 58d7 01be

fc4.bias f4 [10]
-0.11720573 -0.004243093 -0.084310755 0.040296283 0.034019362 -0.004116134 0.103941746 -0.07317522
0.21632446 0.04081969
00000000: 8f09 f0bd a509 8bbb 1eab acbd b70d 253d
00000010: e357 0b3d a2e0 86bb 69df d43d e4dc 95bd
00000020: 2984 5d3e 8c32 273d
