v2_src/server/9503113296687.pt (torch, 973831 bytes, 8 tensors)

fc1.weight f4 [256, 784]
0	0xbc57a4d9	-0.013161861
1	0xbbaef85f	-0.0053396667
2	0x3d1c4f78	0.038161725
3	0x3af40341	0.0018616692
4	0x3d39f77e	0.045402043
5	0x3b5665c4	0.0032714466
6	0x3d4a6a90	0.049418032
7	0x3d533f2e	0.051573925
8	0x3d07d366	0.03316059
9	0x3d4cefa4	0.050033227
10	0x3d4672e6	0.04844942
11	0xbb3c9a9e	-0.0028778682
12	0x3cce1343	0.02515567
13	0x3d586aea	0.052836336
14	0x3c32f636	0.010922959
15	0xbc0c2d23	-0.008555683
16	0x3cfb8b1b	0.03070598
17	0x3c6e9f22	0.014564307
18	0x3c3f8140	0.01168853
19	0x3d35dd6c	0.044400617
20	0x3c972e55	0.01845471
21	0x3d285e55	0.041105587
22	0x3bff1800	0.0077848434
23	0x3cc149cd	0.023594761
24	0x3bde020f	0.0067751477
25	0x3b9f8ad2	0.0048688436
26	0x3d2bae39	0.0419142
27	0x398f95a7	0.00027386585
28	0xbb9433c0	-0.0045227706
29	0x3d4eeb46	0.050517343
30	0x3d3b2d50	0.04569751
31	0x3be8d77f	0.0071057673
32	0x3b634554	0.0034678774
33	0xbc3c8d18	-0.011508249
34	0x3c7d4a1a	0.015459562
35	0xba9b36a2	-0.0011841843
36	0x3c239cff	0.009986161
37	0x3d5a4840	0.05329156
38	0x3d5c0452	0.053715058
39	0x3cd81b6a	0.02638026
40	0xbc363b19	-0.011122488
41	0x3d0ee639	0.034887526
42	0xbc381cae	-0.0112373065
43	0x3c112eb4	0.008861233
44	0x3cbb7a35	0.022885421
45	0x3bf11751	0.007357516
46	0x3d57c958	0.05268225
47	0x3d4ba446	0.04971721
48	0xbc776ecc	-0.0151021
49	0x3d57bcd2	0.052670307
50	0x3d56200e	0.052276663
51	0x3d291b60	0.041285872
52	0xbc4e6ae2	-0.012598725
53	0x3c99129f	0.018685637
54	0x3a3d036a	0.00072102866
55	0x3d34ced4	0.04414256
56	0x3d0bf282	0.03416682
57	0x3cbc275b	0.022967985
58	0x3d1abe13	0.037778925
59	0x3d34280f	0.043983515
60	0x3b16a3f7	0.0022985914
61	0xbc0ee5af	-0.008721753
62	0x3b3cf764	0.002883398
63	0x3d460df2	0.048353143
64	0xbc405dc2	-0.011741104
65	0x3d3bc5ce	0.045842938
66	0x3d26d5dc	0.040731296
67	0x3c9228f3	0.017841792
68	0x3c23c35b	0.009995307
69	0x3d276d1d	0.040875543
70	0x3bc021dc	0.0058634114
71	0x3d178c03	0.03699876
72	0x3c9e6f9b	0.019340327
73	0x3d3e1b5a	0.046412803
74	0xbb60a4e8	-0.003427798
75	0xbc46644f	-0.012108876
76	0x3cd60bde	0.026128706
77	0xbb83da95	-0.0040238597
78	0xbc1c160e	-0.009526743
79	0x3cbbe251	0.022935065
80	0xbc41e362	-0.011833997
81	0xbb049c0e	-0.0020234617
82	0x3ca1a1ee	0.019730534
83	0x3c4c603b	0.012474115
84	0x3d2f060c	0.042730376
85	0x3bf93ec9	0.0076063615
86	0x3bacda79	0.0052750674
87	0x3d048ab7	0.03235885
88	0x3d346ebf	0.04405093
89	0x3ca7d4ef	0.020487277
90	0x3d2d61c1	0.042329554
91	0x3cac0bb5	0.021001676
92	0x3ce1380c	0.027492546
93	0x3c31d82d	0.010854763
94	0x3cd36190	0.025803357
95	0x3d49bc26	0.049251698
96	0x3c4b9dc3	0.01242775
97	0x3c498495	0.012299676
98	0xbc28128f	-0.010258331
99	0x3c00e214	0.007866401
100	0x3d1d92c6	0.038470052
101	0x3b905381	0.0044044857
102	0x3ae274f1	0.0017277283
103	0xba676012	-0.0008826266
104	0x3cb7f3e3	0.022455161
105	0x3c605317	0.013691685
106	0x3c876342	0.016526822
107	0x3d3727a0	0.044715524
108	0x3d21a4bb	0.03946374
109	0x3d0587f7	0.03260037
110	0xbc23b74f	-0.009992435
111	0xbb9fe980	-0.0048801303
112	0xbc477cd5	-0.012175758
113	0x3c8a5f8a	0.01689126
114	0x3cbf13a3	0.023324793
115	0x3c8c3b70	0.017118186
116	0x3cc658b9	0.024212228
117	0xbc71a386	-0.01474846
118	0x3d3c7b52	0.046016045
119	0x3c88666c	0.016650401
120	0x3bb3e050	0.0054893866
121	0x3d4b5f6e	0.049651556
122	0x3c9ad3c3	0.018899804
123	0x3d331407	0.04372027
124	0x3d20d65c	0.03926693
125	0x3cb8675f	0.022510229
126	0x3c30c4ed	0.010789138
127	0x3c99f0c9	0.018791573
128	0x3d1e5c8f	0.03866249
129	0x3c85cedc	0.01633399
130	0x3c7d3a76	0.015455833
131	0xbbdf1881	-0.006808341
132	0x3d212fb6	0.03935214
133	0xbc476c39	-0.012171798
134	0x3c014f62	0.0078924615
135	0x3d0bb2ef	0.03410619
136	0x3d2334a8	0.03984514
137	0x3d53ff02	0.051756866
138	0x3d0ae1c8	0.033906728
139	0x3c7435a6	0.014905369
140	0xb91ad32f	-0.00014765256
141	0xbc635b54	-0.013876755
142	0x39e28fe4	0.00043213286
143	0x3d52b7f2	0.051444955
144	0x3d23880d	0.03992467
145	0x3ba3761d	0.0049884454
146	0x3cd2b9fb	0.025723448
147	0x3c3a6ca0	0.011378437
148	0x3d465860	0.048424125
149	0x3cdd767e	0.02703404
150	0x3c20d649	0.009816715
151	0x3a793da8	0.00095077837
152	0x3d54e172	0.051972814
153	0x3d0f57c9	0.034995828
154	0xbc5035cb	-0.012708138
155	0x3d21f4b7	0.03954002
156	0x3d218614	0.039434507
157	0x3d5695c0	0.052388906
158	0x3d016a65	0.031595606
159	0xbc6aa1d9	-0.014320814
160	0xbc267cab	-0.010161559
161	0xba9011de	-0.0010991653
162	0x38c226bc	9.257856e-05
163	0x3d375dbf	0.044767138
164	0x3c3e6996	0.011621853
165	0x3cf391af	0.029732553
166	0x3c026e86	0.007960921
167	0x3d09f77b	0.03368328
168	0x3c26de75	0.010184874
169	0x3cc3ea8b	0.02391555
170	0xbc398486	-0.0113231
171	0x3d3d4e8a	0.04621748
172	0x3d4f77be	0.050651304
173	0x3c310b89	0.010805973
174	0xbc456579	-0.012048119
175	0x3c2f77c3	0.010709706
176	0x3d45e69e	0.048315637
177	0x3cfe7f72	0.03106663
178	0x3d3e8511	0.04651362
179	0x3cdb420d	0.026764894
180	0x3c7427ea	0.014902094
181	0x3bd2cdc3	0.00643322
182	0x3c5d82d0	0.013519958
183	0xbb1d76b2	-0.0024027047
184	0xbb1a55c3	-0.0023549653
185	0xbc30a341	-0.01078111
186	0x3cc650ba	0.024208415
187	0x3d342a40	0.043985605
188	0x3cb494dd	0.02204364
189	0xbb09e2fe	-0.002103984
190	0x3bac5611	0.0052592834
191	0xbb135c8e	-0.0022485587
192	0x3d42b402	0.04753495
193	0x3d4a4dee	0.049390726
194	0x3baf2c9d	0.0053458945
195	0x3c21ef5f	0.009883731
196	0xbc7a8310	-0.015290037
197	0x3d211393	0.039325308
198	0xbbacdc33	-0.005275273
199	0xbc5dbeff	-0.013534307
200	0x388d7bc0	6.746454e-05
201	0x3c309563	0.010777804
202	0x3c8706dc	0.016482763
203	0x3cde5766	0.027141284
204	0x3d31944c	0.043354318
205	0x3c23f914	0.010008115
206	0xbccd7570	-0.025080413
207	0xbc153ff7	-0.009109489
208	0x3c7e90cc	0.015537452
209	0xbd3bc9d2	-0.045846768
210	0xbc236623	-0.009973082
211	0xbc431166	-0.011906004
212	0x3c82f48b	0.015985748
213	0xbd1c1230	-0.038103282
214	0xbc11e15a	-0.008903826
215	0xbc8ff699	-0.017573642
216	0x3c223f37	0.009902767
217	0x3d033f35	0.0320427
218	0x3c4f0c89	0.012637266
219	0x3ca2dc1c	0.019880347
220	0x3d3d5088	0.04621938
221	0x3d0f39b2	0.034967132
222	0x3d2fb619	0.04289827
223	0xbc82020b	-0.015870115
224	0x3d50840e	0.050907187
225	0x3d1e2383	0.038608085
226	0x3d4776d0	0.048697293
227	0x3cae7d2d	0.021299923
228	0x3c561569	0.013066628
229	0x3d08bc55	0.033382732
230	0x3d318966	0.043343924
231	0x3d54eafd	0.051981915
232	0x3d1647bb	0.0366895
233	0x3c5bd349	0.0134170735
234	0xbcfad3c3	-0.030618554
235	0xbc86df91	-0.016464027
236	0xbcdc1281	-0.026864292
237	0xbc8cb3e6	-0.017175626
238	0x3c7e4281	0.015518785
239	0x3d4d9c41	0.050197843
240	0xbd43ed0e	-0.047833495
241	0xba6c3004	-0.00090098404
242	0xbae57fb3	-0.0017509371
243	0xbbd2ff33	-0.0064391135
244	0x3bbf1c31	0.005832218
245	0x3c8c03d6	0.017091673
246	0x3c3c3316	0.011486789
247	0x3cb9494b	0.022617957
248	0x3cecee73	0.028922295
249	0x3d46e7d8	0.048560947
250	0xbada5719	-0.0016658037
251	0x3cf5b691	0.029994281
252	0x3cafd9bf	0.021466134
253	0x3d147928	0.036248356
254	0xbc847ef9	-0.016173827
255	0xbc754a6a	-0.014971355

fc1.bias f4 [256]
0	0xbd218275	-0.039431054
1	0xbd04b78e	-0.032401614
2	0xbd54c3c1	-0.051944498
3	0xbd083525	-0.033253808
4	0xbd314136	-0.04327508
5	0x3b2dbe6d	0.0026511208
6	0x3cb6a800	0.022296906
7	0xbbc4cb9e	-0.0060057184
8	0xbd20a515	-0.039219934
9	0xbc695091	-0.0142404
10	0xbbdb0785	-0.006684246
11	0xbd0b2678	-0.033972234
12	0xbc8a128d	-0.016854549
13	0xbc6d0704	-0.014467005
14	0xbd50d4d7	-0.05098423
15	0x3c183aee	0.009291394
16	0xbd19c3a0	-0.03754008
17	0xba0e25a3	-0.00054224784
18	0x3c2bf6bd	0.010495839
19	0xbd0ef4d5	-0.03490146
20	0xbb80e43c	-0.0039334577
21	0xbbe02ee1	-0.006841526
22	0xbcc36f02	-0.023856644
23	0xbcc1cdf4	-0.023657776
24	0x3c7c3a56	0.015394768
25	0xbb3a097f	-0.0028387008
26	0x3bd4b516	0.0064913137
27	0xbc9de68a	-0.019274969
28	0xbcf7b10a	-0.030235786
29	0xba65ae28	-0.0008761608
30	0xbcefe05e	-0.029281791
31	0x3a959e7c	0.001141503
32	0xbd3db883	-0.046318542
33	0xbcf93127	-0.030418945
34	0xbd04e895	-0.03244837
35	0xbd1cfced	-0.038327146
36	0xbb9782f4	-0.004623765
37	0x3c18aa0b	0.009317885
38	0xbd0bbe29	-0.034116898
39	0x3c8ec2b8	0.017426834
40	0x3c810708	0.015750423
41	0xbc89196d	-0.016735757
42	0xbc771f79	-0.015083187
43	0x3d02df93	0.0319515
44	0x3b3c8bd7	0.0028769874
45	0x3d21e5f0	0.039525926
46	0x3ca141fd	0.019684786
47	0xbd1df580	-0.038564205
48	0xbd0bbda6	-0.03411641
49	0xbce60cf8	-0.028082356
50	0xbc6d5e4d	-0.014487815
51	0xbc50b861	-0.012739272
52	0xbd57c4ed	-0.052678037
53	0xbd3954f7	-0.045247044
54	0x3ad64f46	0.001635053
55	0x3ad07712	0.0015904626
56	0xbd068ebc	-0.032850966
57	0xbd30ec08	-0.043193847
58	0x3beb95b2	0.007189476
59	0xbd1ca56c	-0.038243696
60	0xbd14a964	-0.036294356
61	0xbd12b3e5	-0.035816092
62	0xbca64100	-0.020294666
63	0xbcf15547	-0.029459609
64	0x3c1a3d3d	0.009414014
65	0xbc85f064	-0.016349979
66	0xbca0e72b	-0.01964148
67	0x3c8eacd7	0.0174164
68	0x3d291372	0.04127831
69	0xbafc0366	-0.0019227087
70	0xbc339d4b	-0.010962795
71	0xbb527ffa	-0.0032119737
72	0xbc6d870c	-0.01449753
73	0x3b8432fe	0.004034399
74	0x3c19d020	0.009388
75	0xbd176486	-0.0369611
76	0x3c8e1445	0.01734365
77	0x3c4e1546	0.012578314
78	0x3d21f532	0.039540477
79	0x3c17a6e6	0.0092561
80	0x3d25d6f5	0.040488202
81	0xbab5e535	-0.0013877513
82	0x3c1c1590	0.009526625
83	0x3b234143	0.0024910725
84	0xbc35c785	-0.011094932
85	0xbcb25c5b	-0.021772554
86	0xbccfdc8c	-0.02537372
87	0x3c4203f4	0.011841763
88	0xbc941d31	-0.018080326
89	0xbcfdb41b	-0.03096967
90	0x3a0b69b2	0.0005318179
91	0xbcddc886	-0.027073156
92	0xbd38ae72	-0.04508824
93	0xbc6090b2	-0.013706373
94	0xbd3da121	-0.046296243
95	0x3bf8e515	0.007595668
96	0xbcd39a65	-0.025830457
97	0xbc868944	-0.016422875
98	0xbd1d2270	-0.03836292
99	0xbd7bb8b2	-0.061455436
100	0xbd2675c5	-0.040639658
101	0xbd5e240f	-0.054233607
102	0xbba669b5	-0.005078519
103	0x3c6b6d47	0.0143693155
104	0x3c93ee2b	0.018057903
105	0xbc4f3a61	-0.012648196
106	0xbcab0aaa	-0.020879108
107	0xbd4932bf	-0.04912066
108	0xbd05ad5f	-0.032636043
109	0xbb4a755d	-0.0030892708
110	0xbcfc55a7	-0.030802561
111	0xbd016527	-0.031590607
112	0xbc9e4925	-0.019321987
113	0xbce6b1e6	-0.028161
114	0x3c258a77	0.010103813
115	0xbd28b5db	-0.041189056
116	0xbc4367c9	-0.0119266
117	0xbcbdc120	-0.023163378
118	0xbd3104a2	-0.04321731
119	0x3c0c3423	0.008557352
120	0xbbe1cf82	-0.006891192
121	0x3ce61bcb	0.028089425
122	0x3bbd25ff	0.0057723518
123	0xbd4aedae	-0.049543075
124	0xbc47e45b	-0.01220044
125	0x3bc1053b	0.005890516
126	0xbce6eaf5	-0.028188208
127	0xbc1ae72d	-0.009454531
128	0xbcd58c2d	-0.026067818
129	0x3c66944b	0.014073442
130	0xbd11f461	-0.03563345
131	0x3c3339bc	0.010939058
132	0xbb846088	-0.0040398277
133	0xbd2859ac	-0.041101143
134	0x3cd17a99	0.025571154
135	0xbd1b32ae	-0.03789013
136	0xbd20e10f	-0.039277133
137	0xbb43564d	-0.0029806078
138	0xbd1c585c	-0.038170204
139	0xbca11e70	-0.019667834
140	0xbc1ebc22	-0.009688409
141	0x3a5f0262	0.000850713
142	0xbcc7b1e9	-0.024376826
143	0x3b1167e3	0.0022187165
144	0xbce54785	-0.027988205
145	0xbd525ca7	-0.05135789
146	0x39e16cc0	0.0004299637
147	0xbd446504	-0.0479479
148	0xbc3de00d	-0.011589062
149	0xbd2fcacd	-0.042918015
150	0x3b9ebb7b	0.0048441268
151	0xbc31d5f9	-0.010854238
152	0x3c23ab96	0.00998964
153	0xbd89cff2	-0.067291155
154	0x3cfbaa4b	0.03072085
155	0xbc02ee15	-0.0079913335
156	0xbce70519	-0.028200673
157	0xbc0802e6	-0.008301472
158	0x3bc0fbb1	0.005889379
159	0x3c23b766	0.009992456
160	0xbd0cf0f3	-0.034409475
161	0xbc091aa2	-0.008368166
162	0xbd1d265b	-0.038366657
163	0xbcb8eb1f	-0.022573052
164	0xbd0d7723	-0.034537446
165	0xbc8e1102	-0.017342094
166	0x3c90e14e	0.017685559
167	0xbd35261a	-0.04422579
168	0xbd02784a	-0.031852998
169	0xbc925c6f	-0.017866341
170	0xbccca939	-0.024983035
171	0xbce4d00b	-0.027931234
172	0xbd36f4e8	-0.044667155
173	0x3c888e0f	0.016669301
174	0x3cc57a6a	0.024106223
175	0x3a06b38a	0.0005138448
176	0x3bac7491	0.0052629192
177	0x3c6981c6	0.014252132
178	0x3c8a0455	0.016847769
179	0xba85dcbf	-0.0010212882
180	0x3bddc580	0.0067679286
181	0xbd578e98	-0.052626222
182	0x3b060941	0.0020452293
183	0xbbdb3e49	-0.0066907746
184	0xbc0930c1	-0.00837344
185	0xbd3a09ea	-0.04541961
186	0xbc816771	-0.015796395
187	0xbb154a5e	-0.0022779922
188	0xbca4239d	-0.020036513
189	0xbbb3035d	-0.0054630474
190	0xbc077ba4	-0.008269224
191	0xbce2d7ca	-0.027690787
192	0xbb9fccdf	-0.0048767175
193	0xbbc8da70	-0.0061295554
194	0xb919a51d	-0.00014652727
195	0xbd3e7753	-0.046500515
196	0xbc4ee1ee	-0.012627108
197	0xbb65da3a	-0.00350727
198	0x3c3a3e36	0.011367371
199	0xbbac6284	-0.0052607674
200	0x3c63e730	0.0139101
201	0x3cb33d34	0.02187977
202	0x3c52b826	0.012861287
203	0xbd8aa697	-0.06770056
204	0xbc8aa121	-0.016922535
205	0xbc958406	-0.01825143
206	0x3c16cefc	0.009204622
207	0xba41350b	-0.000737027
208	0xbc21ce57	-0.009875855
209	0xbc1d5c4b	-0.009604524
210	0xbcdf5cb3	-0.027265882
211	0x3ccc0071	0.024902554
212	0x3b94231e	0.004520788
213	0xbb026158	-0.0019894447
214	0x3bab72cf	0.005232192
215	0xbd4adb1c	-0.049525365
216	0xbdc358bd	-0.0953841
217	0x3beea134	0.0072824005
218	0xbb146c11	-0.002264742
219	0xbd350eab	-0.04420344
220	0xbd3701dd	-0.04467951
221	0xbd053ea2	-0.032530434
222	0xbd0f7e10	-0.035032332
223	0xbb99e2e2	-0.004696236
224	0x3d06604a	0.032806672
225	0x3c42b0c8	0.011882968
226	0x3bafe9d4	0.0053684507
227	0xbd2f0ac6	-0.042734884
228	0xbcead26f	-0.028664796
229	0xbcdd00c5	-0.026977906
230	0xbbebd5c9	-0.007197116
231	0xbd3f899d	-0.046762098
232	0xbd11aaf2	-0.035563417
233	0x3bd88078	0.0066071115
234	0xbb87d37c	-0.004145084
235	0x3c8bd53f	0.017069457
236	0xbccb7bd4	-0.02483932
237	0x3c43b74f	0.01194556
238	0xbcbfa988	-0.023396268
239	0x3c1d5d19	0.009604716
240	0x3a9c42fe	0.0011921821
241	0xbd4e9dfa	-0.050443627
242	0xbc92f747	-0.017940177
243	0xbba7f8ef	-0.0051261107
244	0xbce2c5f9	-0.027682291
245	0xbbeed4a3	-0.007288532
246	0xbbed2b7d	-0.00723785
247	0x3ce5d4a3	0.028055495
248	0xbcc4cf81	-0.024024727
249	0xbd271fc0	-0.040801764
250	0x3b3a6938	0.0028444063
251	0xbc38b619	-0.011273884
252	0xbcf73f09	-0.030181425
253	0xbba3874c	-0.004990494
254	0xbcc61f2b	-0.024184784
255	0xbd588142	-0.052857645

fc2.weight f4 [128, 256]
0	0xbd672ae4	-0.056437388
1	0xbdad938a	-0.084754065
2	0x3d30f392	0.043201037
3	0x3ca919ef	0.020642249
4	0xbc24c2c9	-0.010056206
5	0xbd96b268	-0.07358247
6	0xbca738d4	-0.02041284
7	0xbdbe441f	-0.09290337
8	0xbd318d58	-0.043347687
9	0xbd785d44	-0.06063582
10	0xbd341bff	-0.04397201
11	0xbc98243f	-0.018571971
12	0x3c4ed5b4	0.012624193
13	0x3ce25e9c	0.027633004
14	0xbd6995c4	-0.057027593
15	0xbcb3aac1	-0.021932008
16	0x3d8a6e73	0.06759348
17	0x3b27fb9e	0.0025632153
18	0xbc54400e	-0.012954725
19	0x3d7737b9	0.060355876
20	0xbda54bd7	-0.08071106
21	0x3c65426f	0.01399289
22	0xbd63f57f	-0.055654045
23	0xbd92b350	-0.071631074
24	0xbc4c7422	-0.01247886
25	0x3d18241e	0.03714382
26	0x3cb601ae	0.022217598
27	0x3cad5500	0.021158695
28	0x3d0abde1	0.03387249
29	0xbdcb6ec8	-0.09933239
30	0x3c895e90	0.016768724
31	0xbcb8b875	-0.022548893
32	0xbdbfb352	-0.093603745
33	0xbd655643	-0.05599047
34	0x39d90b6a	0.0004139797
35	0xbd423919	-0.047417734
36	0xbda67b69	-0.08129007
37	0xbc81550a	-0.01578762
38	0x3cb9fb41	0.022702815
39	0x3d8c8908	0.06862074
40	0xbc5a684b	-0.013330529
41	0xbd31ac98	-0.04337749
42	0x3b41b63c	0.0029558083
43	0xbc913b4a	-0.017728467
44	0x3d9234db	0.07138988
45	0xbc83f033	-0.016105747
46	0xbd3b996c	-0.04580061
47	0xbcbf4dc4	-0.023352511
48	0x3c4d1600	0.012517452
49	0xbd42900c	-0.047500655
50	0x3cbedd8c	0.023299001
51	0x3d4e47b3	0.050361346
52	0xbd9c5af9	-0.07634539
53	0x3d8035e7	0.06260281
54	0xbde098ee	-0.10966669
55	0xbca3247a	-0.019914854
56	0xbda21fdb	-0.07916232
57	0xbca1b943	-0.01974166
58	0x3b37f4a8	0.002806941
59	0xb9f56053	-0.0004680181
60	0x3c87430b	0.01651146
61	0xbcd368fb	-0.025806895
62	0xbd2e7920	-0.042595983
63	0xbd2d9f75	-0.0423884
64	0x3d1cdbbd	0.038295496
65	0xbd825648	-0.06364113
66	0x3c323070	0.010875806
67	0xbd90dc33	-0.0707325
68	0xbcb3063a	-0.021853555
69	0xbd6250c6	-0.055252813
70	0xbd08e1c9	-0.03341845
71	0xbd021df4	-0.031766847
72	0xbd811bf0	-0.06304157
73	0xbd35c45a	-0.04437671
74	0x3ce8d187	0.028420223
75	0x3c30f861	0.010801406
76	0xbd12c3de	-0.035831325
77	0x3d2429f8	0.040079087
78	0xbd37804f	-0.0448001
79	0x3c5c83a9	0.013459125
80	0xbd76c7f9	-0.060249303
81	0xbd7b00fc	-0.061280236
82	0xbd8c3ea1	-0.06847883
83	0xbd80ec3e	-0.062950596
84	0x3ca966d1	0.02067891
85	0xbd3e1b7f	-0.04641294
86	0x3ba055b9	0.0048930314
87	0xbd67cabb	-0.056589823
88	0x3d4c1286	0.049822353
89	0xbc0cb9a5	-0.008589183
90	0x3ce5896d	0.028019631
91	0x3c31611f	0.010826378
92	0x3d628940	0.055306673
93	0x3d20e096	0.03927668
94	0xbdb190f9	-0.086702295
95	0xbd15a17a	-0.03653095
96	0x3cb95cc8	0.02262725
97	0xbd9bdcc2	-0.076104656
98	0x3d12bde6	0.035825633
99	0xbdc614fc	-0.09671971
100	0xbabb2d6d	-0.0014280506
101	0xbd05fa42	-0.032709368
102	0xbc15e2ee	-0.009148343
103	0xbdd4c11c	-0.10388395
104	0x3c1042c6	0.0088049825
105	0x3cbee801	0.023303987
106	0xbd4230f4	-0.047409967
107	0x3d091ecf	0.033476647
108	0xbd8fbe4d	-0.07018719
109	0xbd37413f	-0.044739958
110	0xbd3910d7	-0.045182075
111	0xbd9764d3	-0.073922776
112	0xbd5c610b	-0.053803485
113	0x3d288f71	0.04115242
114	0x3d32abc3	0.043620836
115	0xbd7ea52d	-0.062169243
116	0xbc284880	-0.010271192
117	0x3b5c821f	0.0033646894
118	0x3c0d9e31	0.008643673
119	0x3d6a0d0e	0.057141356
120	0xbce110f4	-0.027473904
121	0xbe010f88	-0.12603581
122	0xbb6bc08f	-0.0035972928
123	0xbcecbf8e	-0.028899934
124	0xbd22e905	-0.039773006
125	0xbd9eb77b	-0.0774984
126	0xbd9628a6	-0.07331972
127	0xbd8a6dcf	-0.067592256
128	0x3c1b90c0	0.00949496
129	0x3c1a7d16	0.009429237
130	0x3d1b271f	0.037879106
131	0xbc6ed39b	-0.014576818
132	0x3d51f6c6	0.051260732
133	0x3b9bb684	0.004751982
134	0xbcd3de6b	-0.025862893
135	0xbd733e7f	-0.059385773
136	0xbc827048	-0.01592268
137	0x3cecf63f	0.028926013
138	0xbc8fdf2a	-0.017562468
139	0x3cca97a2	0.024730507
140	0x3cdd2784	0.026996382
141	0xbcfe0f70	-0.03101322
142	0x3c86b7fe	0.016445156
143	0xbbcd1def	-0.006259672
144	0xbd3f138d	-0.046649504
145	0xbc0fb1c2	-0.008770408
146	0x3dcfeacf	0.10152208
147	0x3cb67adc	0.02227538
148	0xbdb3ddcc	-0.08782539
149	0xbd32c5ef	-0.043645795
150	0xbc7a1699	-0.015264177
151	0xbd47bcbe	-0.048763983
152	0x3d1d9388	0.038470775
153	0x3cb3ae06	0.021933567
154	0xbd87a73f	-0.066236965
155	0x3d272c1d	0.040813554
156	0xbc5bc185	-0.013412838
157	0x3c7a05e7	0.015260196
158	0xbca03293	-0.019555366
159	0xbcf5de1d	-0.030013138
160	0xbd32bf86	-0.043639682
161	0xbcfdcf11	-0.030982526
162	0xbc937d30	-0.01800403
163	0x3d19fef4	0.037596658
164	0xbd8c7fd0	-0.06860316
165	0x3d9213d8	0.07132691
166	0xbb2feee5	-0.0026845273
167	0xbd39738a	-0.045276202
168	0xbc27ed98	-0.010249518
169	0xbc5fd852	-0.013662415
170	0xbc708344	-0.014679734
171	0xbd76f511	-0.060292307
172	0xbc9f3ab8	-0.019437179
173	0xbd98464f	-0.07435285
174	0xbb7944a9	-0.003803531
175	0x3c56d345	0.013111894
176	0x3c3e1a04	0.011602882
177	0x3ce467b9	0.02788149
178	0xbdb2b6f4	-0.08726302
179	0x3d258888	0.04041341
180	0xbd38cd89	-0.04511789
181	0xbc42c550	-0.011887863
182	0xbca2ef25	-0.019889424
183	0x3a8582a4	0.0010186029
184	0xbd08f4f6	-0.033436738
185	0x3d0dc39c	0.034610376
186	0x3cae71ce	0.0212945
187	0x3bf505b0	0.0074774846
188	0x3d3f2a3d	0.04667114
189	0xbd0ff286	-0.035143398
190	0x3d3166d1	0.043310944
191	0x3d82dedc	0.06390163
192	0xbcd70699	-0.026248263
193	0xbc0b530b	-0.008503686
194	0xbd699f64	-0.057036772
195	0xbd0223ae	-0.031772308
196	0x3cca0be4	0.024663873
197	0xbc982d72	-0.018576358
198	0xbd85f222	-0.06540324
199	0x3d4f11d9	0.05055413
200	0x3cadeadb	0.021230152
201	0x3c8834cb	0.016626736
202	0xbd45b03b	-0.04826377
203	0xbd81da39	-0.06340451
204	0xbda3411b	-0.07971402
205	0xbc33eb92	-0.010981457
206	0x3d043b27	0.032282975
207	0xbd8de102	-0.069276825
208	0x3cbfac2a	0.023397524
209	0xbd9ed074	-0.07754603
210	0xbd946ba5	-0.07247094
211	0xbd14c4ee	-0.03632062
212	0x3cd53015	0.026023904
213	0xbced34eb	-0.028955897
214	0xbd3fcb58	-0.046824783
215	0xbd1ab2ca	-0.037768163
216	0xbc4f58f0	-0.012655482
217	0xbd112890	-0.035439074
218	0x3b4e48e2	0.0031476547
219	0xbd6e93c9	-0.058246408
220	0x3cbe3e34	0.02322302
221	0xbbd95fd7	-0.0066337395
222	0x3d26c622	0.040716298
223	0xbcb26360	-0.021775901
224	0xbd03bbe8	-0.032161623
225	0x3c29c92b	0.010362904
226	0xbd9b94ce	-0.075967416
227	0x3cc3a5a0	0.023882687
228	0xbd95d113	-0.07315268
229	0xbd7328fd	-0.05936526
230	0xbc252843	-0.0100804
231	0xbc6cbed8	-0.014449798
232	0x3b6ed140	0.003644064
233	0xbda31ced	-0.079645015
234	0xbc1dfeca	-0.009643266
235	0xbc9dd9b1	-0.019268842
236	0x3d91e30a	0.071233824
237	0xbd546604	-0.051855102
238	0xbbac1da9	-0.005252559
239	0x3d5a5346	0.053302072
240	0xbc8f13a5	-0.017465422
241	0xbd206f16	-0.03916844
242	0xbd1c856d	-0.038213182
243	0xbd5c2618	-0.053747267
244	0xb921ac49	-0.00015418338
245	0xbc935b6a	-0.017987926
246	0x3c5a16af	0.013311072
247	0xbbee830a	-0.0072788047
248	0xbc8b3b4a	-0.016996045
249	0xbd49e85f	-0.049293872
250	0xbd9e9400	-0.077430725
251	0xbd1f8099	-0.038941
252	0x3c8992d6	0.01679365
253	0x3bbbd751	0.005732455
254	0xbd8775e3	-0.06614282
255	0x3c1274b1	0.008938954

fc2.bias f4 [128]
0	0xbb030897	-0.0019994134
1	0x3d0e008c	0.03466849
2	0x3d71c189	0.05902246
3	0x3d419287	0.04725888
4	0xbc804299	-0.015656756
5	0xbd5b1fac	-0.053497
6	0x3c5de700	0.013543844
7	0x3cecc569	0.028902726
8	0xbdae33aa	-0.08505948
9	0xbd5fff4e	-0.054686837
10	0xbd31093a	-0.04322169
11	0x3d3c122b	0.045915764
12	0xbd8a9973	-0.06767549
13	0xbcf29f72	-0.029617045
14	0xbc4188d2	-0.011812406
15	0x3d2e6319	0.042574976
16	0xbdb7cc36	-0.08974497
17	0x3d1778d4	0.036980465
18	0x3dccafc2	0.09994461
19	0xbd0f88a9	-0.03504244
20	0xbd8a2aed	-0.06746469
21	0x3d038de9	0.032117758
22	0x3d9460b1	0.07245005
23	0xbc4be5fd	-0.01244497
24	0x3d87b861	0.06626964
25	0xbd365f1f	-0.04452431
26	0xbdeb8aa6	-0.115010545
27	0xbe1d733e	-0.15375993
28	0x39b2bfaf	0.0003409362
29	0xbdb27d74	-0.087153345
30	0x3d1eb0e4	0.038742915
31	0x3c95320d	0.018212343
32	0xbd0c1fcd	-0.034210015
33	0x3b5ae5bf	0.00334011
34	0x3d93d5b5	0.07218496
35	0x3aaf1bdc	0.0013359743
36	0xbc1422aa	-0.009041468
37	0xbc597bd3	-0.013274151
38	0x3c298378	0.010346286
39	0x3c9ff5f3	0.019526457
40	0xbd8114f9	-0.06302828
41	0xbcc2c985	-0.023777733
42	0x3d211d3d	0.039334524
43	0x3d293cc1	0.041317705
44	0xbd52834d	-0.05139475
45	0xbd11b11a	-0.035569288
46	0x3cb8327a	0.022485007
47	0xbdb3215f	-0.087465994
48	0x3c8a0b97	0.01685123
49	0x3d4037d4	0.04692824
50	0x3cc30697	0.023806853
51	0xbd61ba80	-0.0551095
52	0xbc2728ce	-0.0102026
53	0xbdfb4d6d	-0.12270627
54	0xbbcb5a3f	-0.0062058265
55	0x3cb6f8ec	0.022335492
56	0x3cdd4c19	0.027013825
57	0xbdac59e8	-0.08415586
58	0xbd24b7ba	-0.040214278
59	0xbd94ec51	-0.07271636
60	0xbac08dbb	-0.0014690676
61	0x3d525b81	0.051356796
62	0xbd59cc5b	-0.053173404
63	0x3d700e2d	0.05860727
64	0x3d8244cd	0.06360779
65	0xbd54c07c	-0.05194138
66	0xbcf4b4f6	-0.029871445
67	0x3b820411	0.00396777
68	0x3c9f1ea5	0.019423792
69	0xbe091445	-0.13386638
70	0x3dd2f266	0.1030014
71	0x3c76854d	0.01504643
72	0xbdc03b0c	-0.09386262
73	0xbd1b7754	-0.037955597
74	0x3e202c41	0.15641882
75	0x3c085271	0.008320437
76	0x3cd58919	0.02606635
77	0xbc807ef3	-0.015685534
78	0x3d1ea001	0.03872681
79	0x3ce49a85	0.027905712
80	0x3dacc738	0.084364355
81	0xbc65097a	-0.01397931
82	0xbc3f3f10	-0.01167275
83	0xbdaf2cb4	-0.08553448
84	0xbd962966	-0.07332115
85	0xbd5ac3ab	-0.05340926
86	0x3b7caa0c	0.0038553504
87	0xbd97c5b2	-0.07410754
88	0xbdd04885	-0.10170082
89	0xba04cea3	-0.00050661917
90	0xbd63f167	-0.05565014
91	0xbd8d6070	-0.069031596
92	0xbcc7ecae	-0.02440485
93	0xbcdf43ec	-0.027254067
94	0x3c96818d	0.018372322
95	0xbd00856c	-0.03137724
96	0xbd14f951	-0.03637058
97	0xbcb750a7	-0.022377325
98	0xbd91f67e	-0.07127093
99	0xbd9df461	-0.07712627
100	0x3c7a17dd	0.0152644785
101	0x3dc77389	0.097388335
102	0x3a838cfe	0.0010036526
103	0x3bce3e04	0.006294014
104	0xbd73be18	-0.05950746
105	0xbd164685	-0.036688346
106	0xbc03ca44	-0.008043829
107	0x3c9d8392	0.019227777
108	0xbd32daf4	-0.04366584
109	0xbd493f06	-0.04913237
110	0x3cd0ef23	0.025504654
111	0x3d31e51e	0.043431394
112	0xbc4caef8	-0.012492888
113	0xbc863ba9	-0.01638587
114	0xbda683cb	-0.08130606
115	0x3aabd83c	0.0013110708
116	0xbdda6a87	-0.1066485
117	0xbd9c4759	-0.07630796
118	0xbcbea14a	-0.023270268
119	0xbd739b6c	-0.059474394
120	0xbb177f1e	-0.002311654
121	0xbd7e0952	-0.062020607
122	0x3d117bf6	0.03551861
123	0xbbcf16bf	-0.00631985
124	0xbc657e1b	-0.014007117
125	0xbdb86049	-0.0900274
126	0xbdfaf0c9	-0.122529574
127	0x3d0d6c32	0.03452701

fc3.weight f4 [64, 128]
0	0x3db77213	0.08957305
1	0xbd905c35	-0.07048837
2	0x3c2cfb3c	0.010557946
3	0x3dbc2850	0.091873765
4	0x3dbb87e1	0.09156776
5	0xbd015b39	-0.031581137
6	0x3e0011ca	0.12506786
7	0x3dea0367	0.1142643
8	0xbc8049a9	-0.015660124
9	0xbd995af7	-0.07488053
10	0x3e65ed4d	0.22453804
11	0x3cbc977b	0.02302145
12	0x3dc739fc	0.097278565
13	0xbb183db8	-0.0023230147
14	0xbd81b47e	-0.06333254
15	0x3de5ba7e	0.11217211
16	0xbdf8ba54	-0.12144914
17	0x3d8c4d46	0.06850676
18	0x3c58ed40	0.013240159
19	0x3e36c9c0	0.17850399
20	0xbdc08923	-0.09401157
21	0x3d806d3f	0.06270837
22	0xbd460657	-0.04834589
23	0x3db43dd6	0.08800857
24	0xbbc8e5d4	-0.0061309133
25	0xbd37318f	-0.044724997
26	0x3c067dba	0.0082086865
27	0xbe1aeb0c	-0.15128726
28	0xbc9f7148	-0.019463196
29	0x3d82871a	0.06373425
30	0x3da98b9f	0.08278584
31	0xbd8072cc	-0.06271896
32	0x3e0b4af1	0.13602807
33	0x3d3d2fc1	0.04618812
34	0x3c513ff4	0.012771595
35	0xbd1eb0b7	-0.038742747
36	0xbd1acae7	-0.03779116
37	0x3d952285	0.07281975
38	0x3d8ff43e	0.070290074
39	0xbac40269	-0.0014954332
40	0xbd8a901d	-0.06765769
41	0x3d35366d	0.044241358
42	0xbd3b4079	-0.045715783
43	0xbceb5423	-0.028726643
44	0x3c5e3b48	0.013563938
45	0xbd781924	-0.06057085
46	0x3d569f32	0.052397914
47	0xbb19636f	-0.0023405214
48	0x3d8cf686	0.06882958
49	0x3d4be995	0.049783308
50	0x3d3e9cb0	0.046536148
51	0xbc9a44ee	-0.018831696
52	0xbbc87402	-0.006117345
53	0xbba27529	-0.0049578142
54	0xbb035c1a	-0.002004391
55	0x3d039d93	0.032132696
56	0xbc3a6cfa	-0.011378521
57	0xbc882957	-0.016621275
58	0xbe318189	-0.1733457
59	0x3c479548	0.0121815875
60	0x3d4f8bab	0.050670307
61	0x3b97fa98	0.0046380274
62	0xbd509546	-0.05092361
63	0xbd996ab8	-0.07491058
64	0x3c8c3896	0.017116826
65	0xbc9413d5	-0.018075863
66	0xbd6c958a	-0.0577598
67	0xbbab5d63	-0.0052296384
68	0x3cf1d8e6	0.02952237
69	0x3e04ed56	0.12981161
70	0xbd57e642	-0.052709825
71	0x3d433ea7	0.04766717
72	0x3d8ad734	0.06779328
73	0xbd989b77	-0.074515276
74	0xbe061cfa	-0.13096991
75	0xbac92880	-0.0015347153
76	0x3da8da60	0.08244777
77	0xbd56471a	-0.0523139
78	0xbd7b6e64	-0.061384574
79	0xbc8b7296	-0.017022412
80	0xbc65ed4c	-0.014033627
81	0xbcadce81	-0.021216633
82	0xbbb2de11	-0.0054586013
83	0x3d188216	0.037233435
84	0xbbb2aaf0	-0.0054525062
85	0x3bd26e18	0.0064218156
86	0x3d8a641a	0.06757374
87	0x3c82c871	0.015964719
88	0xbd155505	-0.036458034
89	0xbc04e55e	-0.008111326
90	0xbd1efacd	-0.0388134
91	0x3dbfdb5f	0.093680136
92	0xbda2ee8a	-0.07955654
93	0xbe1f8f99	-0.15582122
94	0xbcedbea1	-0.029021563
95	0x3d7a6918	0.06113538
96	0x3dcd1bbd	0.10015056
97	0x3e0e3769	0.13888325
98	0xbdad82d3	-0.08472218
99	0xbce3ff3d	-0.027831668
100	0xbc392453	-0.011300164
101	0xbe1abe14	-0.15111572
102	0xbd8bf546	-0.068338916
103	0xbdab540c	-0.0836564
104	0xbda54b6c	-0.08071026
105	0x3c06df94	0.008232016
106	0xba867293	-0.0010257534
107	0xbd50c0a9	-0.050964985
108	0xbc879c4c	-0.01655402
109	0xbd7bed1b	-0.06150542
110	0x3e06e667	0.13173829
111	0x3dcc0ecd	0.099637605
112	0x3dabfe7a	0.08398147
113	0xbd66c5ef	-0.056341108
114	0xbca70ed0	-0.020392805
115	0xbdbb750e	-0.09153186
116	0x3e082c1f	0.13298081
117	0xbd3f8e68	-0.04676667
118	0x3cca3223	0.02468211
119	0x3d50861f	0.050909158
120	0xbdb59128	-0.08865577
121	0x3d9922dc	0.07477352
122	0x3c6d3ddd	0.014480081
123	0xbdb23515	-0.08701531
124	0xbd85c0cf	-0.06530916
125	0x3c7da97d	0.015482304
126	0x3d3ea722	0.04654611
127	0xbdf2e0bf	-0.11859273
128	0xbbc939e3	-0.006140934
129	0xbdc24a20	-0.094867945
130	0xbd8ede87	-0.069760375
131	0x3ca9e961	0.020741167
132	0x3c8e9f96	0.01741008
133	0x3cc1ff53	0.023681318
134	0xbcbaef11	-0.022819074
135	0xbcd171b6	-0.025566917
136	0xbe01b8b1	-0.1266811
137	0xbdc6f365	-0.097143926
138	0x3d5a0cbf	0.053234812
139	0x3ca5e8fc	0.020252697
140	0x3c61b796	0.01377668
141	0xbd38f4be	-0.04515528
142	0x3dc45abc	0.09587619
143	0xbc474397	-0.012162111
144	0x3d129031	0.035782043
145	0xbd84f401	-0.064918526
146	0xbdb5ff6c	-0.088866085
147	0x3d442efd	0.047896374
148	0xbd1d1d13	-0.038357805
149	0xbdaf974c	-0.085737795
150	0xbe113ab8	-0.14182556
151	0xbd030305	-0.0319853
152	0xbdef2643	-0.1167722
153	0x3d4f5dfc	0.05062674
154	0xbd11e444	-0.03561808
155	0xbd59afda	-0.05314622
156	0xbd7a8088	-0.061157733
157	0xbb600260	-0.0034181103
158	0xbd388690	-0.045050204
159	0xbcf58b01	-0.029973509
160	0xbcb85567	-0.02250166
161	0xbe002ae6	-0.12516364
162	0x3c166682	0.009179713
163	0xbd4c5d49	-0.04989365
164	0xbd80c90e	-0.06288348
165	0xbe1db868	-0.15402377
166	0xbd76a3df	-0.060214873
167	0x3d806841	0.06269885
168	0x3db6f25b	0.089329444
169	0xbd5b61cc	-0.053560063
170	0xbd316006	-0.043304466
171	0x3dd07244	0.101780444
172	0xbc6c78f1	-0.014433132
173	0x3d968303	0.07349207
174	0xbb8c7ebe	-0.00428757
175	0xbd3aa138	-0.045563906
176	0x3db819c8	0.089892924
177	0xbc5c9ecc	-0.0134655945
178	0xbc80a768	-0.015704826
179	0xbd0b70c7	-0.0340431
180	0x3d8f6604	0.0700188
181	0xbc921bb7	-0.017835481
182	0x3d39a85e	0.045326583
183	0xbd1e2310	-0.038607657
184	0x3d8bc7cc	0.068252176
185	0xbd5cb669	-0.053884897
186	0xbd25712b	-0.04039113
187	0xbd2f07da	-0.042732097
188	0xbd973b57	-0.07384365
189	0xbbe87a7f	-0.007094681
190	0xbde0099d	-0.109393336
191	0x3d1f6138	0.038911074
192	0xbced25fe	-0.02894878
193	0x3d02d3fe	0.031940453
194	0xbd41bc19	-0.047298525
195	0x3d40d419	0.047077272
196	0xbd0dfacd	-0.03466301
197	0x3d1fa545	0.038975973
198	0x3d0c842f	0.034305748
199	0x3b5e648b	0.003393444
200	0x3d659fd4	0.056060627
201	0xbc371fef	-0.011177047
202	0xbd2c184b	-0.042015355
203	0x3d49367e	0.049124233
204	0xbe0c4884	-0.13699538
205	0x3d1bf3c2	0.038074262
206	0xbd22acb2	-0.039715476
207	0xbc88ed7b	-0.016714802
208	0xbd804c17	-0.06264513
209	0x3b763c20	0.0037572458
210	0xbdcb37fb	-0.09922787
211	0xbcd838b7	-0.026394231
212	0x3d641197	0.055680837
213	0x3d7f3f40	0.06231618
214	0xbda873b3	-0.08225193
215	0xbe317b76	-0.17332253
216	0x3d9093bc	0.07059428
217	0xbd5dc7c0	-0.054145575
218	0x3d6d7fc9	0.057983194
219	0x3d926609	0.07148368
220	0xbcc2eeae	-0.023795452
221	0xbc788784	-0.015169028
222	0x3d1a6d66	0.037701987
223	0x3d71cfec	0.05903618
224	0xbdda2159	-0.10650892
225	0x3d255dd7	0.040372696
226	0x3c82759b	0.01592522
227	0x3ba001df	0.0048830356
228	0xbd7f7552	-0.062367745
229	0xbdff73c5	-0.12473253
230	0xbd0ea816	-0.034828268
231	0x3d021365	0.031756777
232	0xbd2cc9aa	-0.04218451
233	0xbca6704f	-0.020317225
234	0xbd0e9ce1	-0.03481758
235	0xbce4158b	-0.027842304
236	0xbca52727	-0.02016027
237	0x3d1ea598	0.03873214
238	0xbd4e5720	-0.050376058
239	0x3d86990b	0.065721594
240	0x3988fc43	0.0002612789
241	0x3cd5e45d	0.026109869
242	0x3c58fe18	0.013244174
243	0xbdbf8165	-0.09350852
244	0xbdb579db	-0.08861133
245	0xbd9c6c10	-0.07637799
246	0xbc867eb7	-0.016417844
247	0xbdc296d9	-0.09501428
248	0xbc132ba4	-0.008982573
249	0xbdd9b8f7	-0.10630982
250	0x3d2a89f9	0.041635487
251	0x3d1138c0	0.03545451
252	0xbd760668	-0.060064703
253	0x3dbf0ebe	0.09328984
254	0x3d8dc769	0.069228
255	0xbc74206e	-0.01490031

fc3.bias f4 [64]
0	0xbd45261f	-0.04813206
1	0xbd415eb0	-0.04720944
2	0x3d727239	0.059190962
3	0x3cab7034	0.020927526
4	0x39ec223c	0.00045038934
5	0x3d2aba1d	0.041681398
6	0x3de670df	0.11251997
7	0x3d467cf9	0.048459027
8	0x3dbdf425	0.092750825
9	0xbb03713c	-0.0020056507
10	0xbd8d60e6	-0.069032475
11	0x3c5067e1	0.012720079
12	0x3e2d4c24	0.16923577
13	0xbc9ddff1	-0.019271823
14	0xbb325ef2	-0.0027217236
15	0xbd632d31	-0.05546302
16	0xbc336137	-0.010948471
17	0xbdf04e0a	-0.11733635
18	0xbe04a3a1	-0.12953044
19	0x3b9d2658	0.0047958307
20	0x3aaf4f12	0.0013375005
21	0xbb823aeb	-0.0039743087
22	0xbd517e0f	-0.05114561
23	0x3d457ab5	0.048212726
24	0xbddce0a0	-0.10785031
25	0x3db4dd6c	0.08831295
26	0x3d1fa068	0.038971335
27	0xbdb6913f	-0.08914422
28	0x3cd67378	0.026178107
29	0x3cd792d2	0.026315127
30	0xbcc144ef	-0.02359244
31	0x3d60193b	0.05471156
32	0x3a9b967b	0.0011870408
33	0x3d3afc4b	0.04565076
34	0x3c3ccc3f	0.011523305
35	0x3d293486	0.041309856
36	0xbc6a0753	-0.014283973
37	0x3db2be5b	0.08727714
38	0x3cacff79	0.021117913
39	0xbdcc76d8	-0.09983605
40	0xbd92e376	-0.07172291
41	0xbd003f56	-0.0313104
42	0xbbade066	-0.0053062914
43	0xbdc549bb	-0.096332036
44	0x3daae69d	0.08344767
45	0xbd2e9173	-0.04261918
46	0xbdbd6312	-0.09247412
47	0xbdbddd28	-0.09270698
48	0xbc7e8372	-0.015534269
49	0xbde055ff	-0.109539025
50	0xbd5d04fb	-0.053959828
51	0x3d6e3d49	0.058163915
52	0xbdc9e9dc	-0.09859058
53	0xbd898bf3	-0.06716146
54	0xbcb7ec6f	-0.022451608
55	0x3d63a8f7	0.05558106
56	0x3de5e459	0.112251945
57	0x3d9f86e8	0.07789403
58	0xbd7a1a80	-0.06106043
59	0x3d079ade	0.033106677
60	0x3d19622b	0.037447136
61	0xbd628b53	-0.05530865
62	0x3e1b84b3	0.1518734
63	0x3aa75352	0.001276592

fc4.weight f4 [10, 64]
0	0xbe1b7209	-0.1518022
1	0x3cde6995	0.027149955
2	0x3d206790	0.039161265
3	0x3cea7a2c	0.02862271
4	0x3d2c358f	0.042043265
5	0x3c596111	0.013267771
6	0x3d514b6f	0.05109733
7	0x3e3935be	0.18086907
8	0x3de63288	0.11240107
9	0xbdefe279	-0.11713118
10	0x3d1affa7	0.037841465
11	0xbd215f34	-0.039397433
12	0x3d199905	0.037499446
13	0xbdd25bb6	-0.10271399
14	0xbe08b892	-0.13351658
15	0x3de55df5	0.111995615
16	0xbd1e8034	-0.038696483
17	0x3d5aed11	0.05344874
18	0xba5143d2	-0.00079828233
19	0x3e07c37a	0.13258162
20	0xbdfc9098	-0.123322666
21	0x3d0650d3	0.032791924
22	0x3e23401e	0.15942428
23	0xbe5aede5	-0.21379812
24	0xbd6b76d8	-0.057486385
25	0xbc3c0572	-0.011475908
26	0xbe159e89	-0.14611258
27	0x3d3c9789	0.046042953
28	0xbe04e94d	-0.12979622
29	0xbe1e6e4b	-0.15471761
30	0x3da3d822	0.080002084
31	0xbe0e9fec	-0.13928193
32	0xbdde63c6	-0.10858874
33	0x3dc99a14	0.09843841
34	0xbdaf4518	-0.085581005
35	0x39710e99	0.00022988989
36	0x3c7a6e5c	0.015285101
37	0xbe29c77d	-0.16580005
38	0xbcadd0f0	-0.021217793
39	0x3d221bd0	0.039577305
40	0x3e0d699e	0.13809821
41	0x3cd25d4a	0.02567925
42	0xbdda903d	-0.106720425
43	0x3d933cc6	0.07189326
44	0x3d170d72	0.036878057
45	0xbd7a6c25	-0.06113829
46	0xbcd3bfbe	-0.025848266
47	0x3e165539	0.14680947
48	0xbe9ea1bb	-0.30982766
49	0xbcb4aed6	-0.022056025
50	0x3d419fa8	0.0472714
51	0xbd41ef42	-0.047347315
52	0xbc6d2613	-0.01447441
53	0x3dd77ce2	0.105218664
54	0xbc23b646	-0.009992188
55	0x3dcf1c73	0.10112848
56	0xbc2ad0a3	-0.010425719
57	0xbe58d07b	-0.21173279
58	0xbddf85ae	-0.10914169
59	0xbe050966	-0.12991866
60	0xbda02547	-0.0781961
61	0x3ca79f05	0.020461569
62	0xbd84339b	-0.064551555
63	0x3d5e4c5f	0.054272052
64	0x3aa0d82d	0.0012271457
65	0xbbfba751	-0.007679858
66	0xbcb57d8d	-0.022154594
67	0xbdec1898	-0.115281284
68	0xbdf6db90	-0.12053597
69	0x3d31f788	0.043448955
70	0xbe598738	-0.21242988
71	0xbe39cb37	-0.18143927
72	0xbe033e14	-0.1281665
73	0x3d3874c9	0.04503325
74	0xbdbc7fb2	-0.092040434
75	0x3dfc6a6d	0.123249866
76	0x3d25d479	0.040485833
77	0xbe2ca6c1	-0.16860487
78	0x3e094705	0.13405998
79	0xbd5d84ef	-0.054081853
80	0xbd4a0395	-0.049319822
81	0xbe279114	-0.16363937
82	0x3d73aeb9	0.0594928
83	0x3dcb537b	0.09928032
84	0x3dff12cc	0.12454757
85	0x3de9e697	0.11420935
86	0xbb074eb2	-0.0020646271
87	0x3d2a7873	0.041618776
88	0x3cc236c8	0.023707762
89	0xbe138174	-0.14404851
90	0xbb9383c0	-0.00450179
91	0x3ba3b8cd	0.004996395
92	0x3e3835b7	0.1798924
93	0x3e01a32d	0.12659903
94	0x3cce1f16	0.025161307
95	0xbe119730	-0.1421783
96	0xbd056759	-0.032569263
97	0xbce89072	-0.02838919
98	0x3e0a78d4	0.13522655
99	0xbd17b03a	-0.037033297
100	0xbe0c782c	-0.13717717
101	0xbda2e00e	-0.07952891
102	0xbe1b9f4f	-0.1519749
103	0x3de3e324	0.11127308
104	0xbdafb9f0	-0.08580387
105	0x3d12d9a4	0.03585209
106	0xbdd6fb5d	-0.104971625
107	0xbd2d834b	-0.04236154
108	0xbdcc9f30	-0.099913
109	0xbebba66b	-0.36650404
110	0xbc8b0b48	-0.016973153
111	0xbdbf6e48	-0.09347206
112	0x3e294679	0.1653079
113	0x3d17a444	0.03702189
114	0xbda962c0	-0.08270788
115	0xbe2ff44f	-0.1718304
116	0xbcfffa28	-0.031247213
117	0xbce5d20a	-0.028054256
118	0x3ad30c00	0.0016101599
119	0xbdb88125	-0.09009007
120	0xbd921dd2	-0.07134594
121	0xbe40caf2	-0.18827417
122	0xbdc10a50	-0.09425795
123	0x3e2b7f5c	0.16747802
124	0x3d790d38	0.060803622
125	0xbcca889d	-0.024723345
126	0xbd3b3ac3	-0.045710336
127	0xbde79d6e	-0.11309324
128	0x3c3502ea	0.011048058
129	0x3d5de3bc	0.054172263
130	0x3deee67e	0.11665057
131	0x3c59eeb9	0.013301545
132	0x3e0c1b8b	0.13682382
133	0x3dbf77f5	0.09349052
134	0xbe193d03	-0.1496468
135	0x3c49a2c9	0.012306877
136	0xbd9ea564	-0.077463895
137	0x3c9bb780	0.019008398
138	0xbd99e9e6	-0.07515316
139	0xbc2a9ad0	-0.010412887
140	0xbc2b369d	-0.010450033
141	0xbda09f6d	-0.07842908
142	0xbc5b2f30	-0.01337795
143	0xbdb273f5	-0.08713523
144	0xbdca81c2	-0.098880306
145	0xbc98916c	-0.01862403
146	0x3dace65a	0.084423736
147	0xbd554a02	-0.052072532
148	0x3a20683a	0.00061190466
149	0xbdf2f9b7	-0.118640356
150	0xbc457f16	-0.012054225
151	0x3e39340a	0.18086258
152	0x3d97e810	0.07417309
153	0xbd787dee	-0.06066697
154	0x3d138571	0.03601593
155	0xbdc69f16	-0.09698312
156	0xbe6e8d58	-0.23296106
157	0x3d2aecdb	0.04172979
158	0xbd9234c1	-0.07138968
159	0xbc519656	-0.012792191
160	0xbe316b1d	-0.17326017
161	0x3e057715	0.13033707
162	0xbd12ac47	-0.035808828
163	0xbb097d68	-0.002097929
164	0xbc575990	-0.013143912
165	0xbd82d4a6	-0.06388216
166	0x3e145e37	0.14489065
167	0x3e0f19d6	0.139747
168	0xbe0dceb9	-0.1384839
169	0x3d66c0f8	0.056336373
170	0x3db28321	0.08716417
171	0x3d2c21a6	0.042024277
172	0x3e1d0f11	0.15337779
173	0xbe6fe788	-0.23428166
174	0x3d50d585	0.050984878
175	0x3dd46cf7	0.10372346
176	0x3d0688b4	0.032845214
177	0x3da379c1	0.07982207
178	0xbe2a73f9	-0.16645803
179	0xbc68f1a3	-0.014217767
180	0x3d162f45	0.036666173
181	0x3d5f6da1	0.05454791
182	0xbb09f3f6	-0.0021049953
183	0xbe1957c9	-0.14974894
184	0x3db78e78	0.08962721
185	0x3c04b367	0.0080994135
186	0xbd2ccc6e	-0.042187147
187	0xbdb1ed2b	-0.08687814
188	0x3d446722	0.047949918
189	0x3d8dd64e	0.06925641
190	0xbde000cd	-0.10937653
191	0x3e294c6d	0.1653306
192	0x3db8ef45	0.09030012
193	0x3d2e1117	0.042496767
194	0xbe215ea5	-0.1575876
195	0x3ddb08b2	0.10695018
196	0x3e1554fe	0.14583203
197	0x3dde22f2	0.10846509
198	0xbd45d6f4	-0.0483007
199	0xbdfaac4a	-0.12239893
200	0x3cc3325c	0.023827724
201	0x3e19f015	0.1503299
202	0xbe141f0a	-0.14464965
203	0xbdb748b0	-0.08949411
204	0x3c94bc49	0.018156188
205	0x3e245245	0.16047008
206	0xbc7d3f03	-0.015456918
207	0x3dcdfc1c	0.10057852
208	0xbc232e1f	-0.009959727
209	0xbe240e37	-0.16021048
210	0x3cdf9eb2	0.027297352
211	0x3d5ef0f3	0.054429006
212	0xbe608bfd	-0.21928401
213	0x3d9faeff	0.0779705
214	0xbdb9c791	-0.090712674
215	0x3d947c96	0.072503254
216	0xbd1153ed	-0.03548043
217	0xbd9f008d	-0.07763777
218	0xbc3d7485	-0.011563425
219	0xbe18f9fb	-0.1493911
220	0x3e1004ee	0.1406438
221	0xbde740c0	-0.11291647
222	0xbcb5171e	-0.02210575
223	0xbd6e924b	-0.058244985
224	0x3d9d42f5	0.07678787
225	0xbded6ca3	-0.115929864
226	0x3dcf00a5	0.10107545
227	0xbdc20626	-0.09473829
228	0xbe9235b5	-0.285566
229	0xbde0a7d3	-0.1096951
230	0x3c49fff0	0.012329087
231	0x3a957d87	0.0011405208
232	0xbdb09a06	-0.08623128
233	0xbdd6a6ee	-0.10481058
234	0x3da7fa65	0.08202056
235	0xbde547c7	-0.11195331
236	0xbe45ba3a	-0.19309321
237	0xbe165402	-0.14680484
238	0x3bc8e19b	0.00613041
239	0x3d355deb	0.04427902
240	0x3dbce95a	0.09224196
241	0xbdf45df4	-0.11931983
242	0x3d6b9278	0.05751273
243	0xbcba179f	-0.022716342
244	0x3d3610c6	0.04444959
245	0x3c01ac17	0.007914565
246	0x3cc9314e	0.024559643
247	0x3d4c7c44	0.049923196
248	0x3d040ab2	0.032236762
249	0xbcc6c837	-0.024265392
250	0xbd896e6f	-0.06710517
251	0xbe29d1b2	-0.16583899
252	0xbdd610d1	-0.10452426
253	0x3dcf2a66	0.10115509
254	0x3c5b4276	0.013382545
255	0x3d446581	0.047948364

fc4.bias f4 [10]
0	0xbd9672d9	-0.07346124
1	0xbd5a2e59	-0.053266857
2	0x3d92c1a2	0.07165839
3	0x3e02825d	0.12745042
4	0x3c16ae1a	0.0091967825
5	0xbddb35a6	-0.10703592
6	0xbdfabce0	-0.12243056
7	0xbca3b409	-0.019983308
8	0x3e3b9cfe	0.18321607
9	0x3e158fee	0.14605686
