src/95534699981.pt (torch, 973831 bytes, 8 tensors)

fc1.weight f4 [256, 784]
0	0xbccd4548	-0.02505745
1	0x3cf0eaec	0.029408894
2	0x3b615fbd	0.003438934
3	0xbc82a7a3	-0.015949076
4	0x3d0f62f9	0.035006497
5	0xbc9cd16e	-0.019142833
6	0xbc4c7cc6	-0.01248092
7	0xbc41e218	-0.01183369
8	0x3c808a5f	0.01569098
9	0xbc6c6d75	-0.014430393
10	0x3c34fa80	0.011046052
11	0x3c05ebf6	0.008173933
12	0x3c499cd9	0.012305462
13	0x3c5e6786	0.013574487
14	0x3cc0bdc3	0.023527985
15	0xbbe68fa8	-0.007036168
16	0xbc241877	-0.0100155985
17	0xbcc79dd8	-0.024367258
18	0x3c991d16	0.018690627
19	0xbca941d2	-0.020661268
20	0x3d19e3e7	0.03757086
21	0x3cfd37e5	0.030910442
22	0xbcedc1b2	-0.029023025
23	0xbcae13c8	-0.021249667
24	0x3b31e7a9	0.0027146137
25	0xbcde4232	-0.027131174
26	0xbb872138	-0.004123833
27	0xbcf4a1a2	-0.029862229
28	0xba832226	-0.0010004684
29	0xbcab58d4	-0.02091638
30	0x3c73eb7f	0.01488769
31	0xbcd96542	-0.026537541
32	0xbcc58494	-0.02411107
33	0xbbc45ab6	-0.005992259
34	0x3c8e9a5c	0.017407589
35	0xbcd330f0	-0.025780171
36	0x3c200e3c	0.009769019
37	0xb9ad08ca	-0.0003300368
38	0x3c83c9c0	0.016087413
39	0xbbbd8146	-0.005783233
40	0x3c8225a7	0.015887095
41	0xbc51481f	-0.012773543
42	0x3c9b6b1f	0.018971978
43	0x3ab0e476	0.0013495821
44	0x3d135c32	0.035976596
45	0xbc938488	-0.018007532
46	0xbb753eda	-0.0037421496
47	0x3d037aaa	0.032099403
48	0x3ccd1e1f	0.025038777
49	0x3adfc431	0.0017072019
50	0x3d05e4a3	0.032688748
51	0xbd002aaf	-0.031290706
52	0x3bd3d786	0.0064649014
53	0x3d00ffcf	0.031493958
54	0x3c3fbdf6	0.011703005
55	0xbc65daf5	-0.014029254
56	0x3d09ccd3	0.0336426
57	0x3cabe43a	0.02098285
58	0xbaed0936	-0.001808441
59	0xbc4030a9	-0.0117303515
60	0xbc989a9e	-0.018628415
61	0x3d20dbc9	0.039272103
62	0x3c9aaa2e	0.018879976
63	0x3b3a5a3b	0.002843513
64	0xbac2838c	-0.0014840229
65	0xbd11b584	-0.035573497
66	0xbcc3ca98	-0.023900315
67	0x3bc8258e	0.0061079925
68	0xbca9602a	-0.020675737
69	0xbd1719ab	-0.036889713
70	0xbd0ca966	-0.03434124
71	0xbc9455bf	-0.018107293
72	0xbcd279dc	-0.025692873
73	0xbcd26ce8	-0.025686696
74	0x3bd66b23	0.0065435334
75	0x3c62c233	0.013840246
76	0xbd171b89	-0.036891494
77	0xbcafbb04	-0.02145148
78	0xbb8e53db	-0.0043434924
79	0x3bd8a50a	0.006611471
80	0xba1c9b89	-0.0005974104
81	0xbc7853ad	-0.015156669
82	0xbcbb9078	-0.022896037
83	0x3b19c9f3	0.0023466318
84	0xbce330f2	-0.0277333
85	0x3b9a4e64	0.004709052
86	0x3cc6e120	0.02427727
87	0xbd065193	-0.03279264
88	0x3d1c11b6	0.038102828
89	0x3cd5f6a4	0.026118584
90	0xbcfa4ae9	-0.030553298
91	0xbc3b4df0	-0.011432156
92	0xbd0e6178	-0.034760922
93	0xbc6851dc	-0.014179673
94	0xbc79cc37	-0.0152464425
95	0x3cfdd5e7	0.030985786
96	0x3c2243de	0.009903876
97	0xbc09e0a7	-0.008415378
98	0x3d173522	0.036915906
99	0x3d84bd93	0.06481471
100	0x3dbb0ca6	0.09133272
101	0x3d84a0a8	0.06475955
102	0x3d33775a	0.043814994
103	0x3c21fba8	0.00988666
104	0xbc221ba2	-0.0098942835
105	0xbd4918c6	-0.04909589
106	0x3b8537db	0.0040654964
107	0x3ca02644	0.019549496
108	0xba2e294c	-0.0006643727
109	0x3c0afc52	0.008483009
110	0x3cd1f14a	0.02562775
111	0x39f243e6	0.00046208425
112	0x3cad422e	0.021149721
113	0xbb12b974	-0.002238837
114	0xbc7f4ed9	-0.015582764
115	0x3bbd6a70	0.0057805106
116	0x3c553272	0.013012515
117	0x3bd154e8	0.0063882954
118	0x3c18d597	0.009328268
119	0xbcf4758a	-0.029841203
120	0xbc185b83	-0.009299162
121	0xbca551dc	-0.020180635
122	0xbc830989	-0.015995758
123	0xbcd71788	-0.026256338
124	0x3c5da18f	0.013527288
125	0x3b441d64	0.0029924745
126	0x3da1b939	0.078966565
127	0x3db001a1	0.08594061
128	0x3dc1761d	0.094463564
129	0x3e3ac9ab	0.18240993
130	0x3e36cc3f	0.17851351
131	0x3e08c751	0.13357283
132	0x3d73df7e	0.05953931
133	0xbcb011d2	-0.021492872
134	0xbccaae1a	-0.024741221
135	0xbd27489c	-0.04084073
136	0xbca4c04f	-0.020111231
137	0xbc159f6e	-0.009132249
138	0x3d10d3bc	0.035358176
139	0xbc5f2cc0	-0.013621509
140	0xbb0213cb	-0.0019848223
141	0x3cfa9971	0.030590745
142	0x3c517531	0.012784288
143	0x3cb1d224	0.021706648
144	0x3bb1e2ac	0.0054286327
145	0xbca7137f	-0.020395039
146	0xbb762a98	-0.003756201
147	0xbc965a86	-0.018353712
148	0x3c456fb9	0.012050563
149	0xb9bdb7f5	-0.00036185948
150	0xbd9b6095	-0.07586781
151	0xbdcb7a3a	-0.09935422
152	0xbe2d9280	-0.16950417
153	0xbe0cdd4e	-0.13756296
154	0xbcb0c65a	-0.021578956
155	0x3d723500	0.059132576
156	0x3da8f477	0.08249753
157	0x3e362209	0.17786421
158	0x3e68c9ab	0.2273318
159	0x3e67f39d	0.22651525
160	0x3e3b212d	0.18274374
161	0x3e181b1d	0.14854093
162	0x3c8c9f18	0.017165706
163	0x3d272f71	0.040816728
164	0x3b16bda9	0.002300123
165	0xbcea7009	-0.028617876
166	0x3d13964a	0.036032
167	0xbcf395fa	-0.0297346
168	0xba6a6b1d	-0.0008942353
169	0xbcb8d50c	-0.022562526
170	0x3d08a8a9	0.03336397
171	0xbc91ccaf	-0.017797796
172	0x3d2f75a0	0.042836785
173	0xbca6061b	-0.020266583
174	0x3d1b468b	0.037909072
175	0x3c2c6ddf	0.010524242
176	0xbcb2e92a	-0.021839697
177	0x3c2234b6	0.009900263
178	0xbd8afed6	-0.06786887
179	0xbdfec95d	-0.12440751
180	0xbe4e8cc5	-0.20170887
181	0xbe9b3c7e	-0.3031959
182	0xbe619d45	-0.2203265
183	0xbe1f086b	-0.15530555
184	0xbd74315f	-0.059617396
185	0x3e1414a7	0.14461003
186	0x3e7c4941	0.24637319
187	0x3e86ae90	0.26305056
188	0x3e967287	0.29384252
189	0x3e5e1b1f	0.21690033
190	0x3dd9c656	0.10633533
191	0xbcd7dbf5	-0.02635
192	0xbd41c5ed	-0.047307897
193	0x3c3ee2f3	0.011650789
194	0x3bfe4d0f	0.007760651
195	0x3cac1cf0	0.021009892
196	0xbc514fda	-0.012775386
197	0x3c24dda4	0.010062609
198	0x3ca758eb	0.020428142
199	0xbc8a5016	-0.016883891
200	0x3d45de19	0.048307512
201	0x3c1dd48e	0.0096331965
202	0x3c7b4677	0.015336624
203	0x3c99ffa8	0.018798664
204	0xbcbc29fc	-0.022969238
205	0x3d376765	0.04477634
206	0x3d34594d	0.044030476
207	0xbd0dae1c	-0.03458987
208	0xbdef95f8	-0.11698526
209	0xbe483186	-0.19550142
210	0xbe50b47b	-0.20381348
211	0xbe8ea904	-0.27863324
212	0xbe8d8ef9	-0.27648142
213	0xbc5ac9d0	-0.01335378
214	0x3e27ba45	0.1637965
215	0x3e94fe35	0.29100195
216	0x3ec82c58	0.39096332
217	0x3eb4406e	0.35205406
218	0x3e62a883	0.22134595
219	0x3cd787be	0.026309844
220	0xbc9128f1	-0.017719718
221	0xbd1145ab	-0.03546683
222	0xbc86bd4c	-0.016447686
223	0xbc44e5fd	-0.012017724
224	0xbc7faa20	-0.015604526
225	0x3cd71d71	0.026259156
226	0xbce0369c	-0.02736979
227	0xbc8565d8	-0.016283914
228	0x3be9e1a8	0.007137496
229	0x3b9b9cba	0.004748908
230	0x3d45bb31	0.048274223
231	0xbb9969b7	-0.0046817916
232	0x3dacc1c0	0.084353924
233	0x3e1c1238	0.15241325
234	0x3e1f28e7	0.15542947
235	0x3d85cff6	0.06533806
236	0xbc413422	-0.011792215
237	0xbdce8418	-0.10083789
238	0xbe9d3775	-0.30706373
239	0xbec88c7a	-0.39169675
240	0xbebaa3bd	-0.36453047
241	0xbd8ac603	-0.06776049
242	0x3e2a160b	0.16609971
243	0x3e918ddc	0.28428543
244	0x3ea9c772	0.33159977
245	0x3ea3d309	0.31996945
246	0x3e66080d	0.22464009
247	0x3d8fa9eb	0.07014831
248	0xbd567285	-0.052355308
249	0xbd16a520	-0.03677857
250	0xbd0ee612	-0.03488738
251	0xbce9717f	-0.028496502
252	0xbcdaeff6	-0.02672575
253	0x3cc59b9f	0.024122057
254	0x3c835faf	0.016036836
255	0x3d4375c7	0.047719743

fc1.bias f4 [256]
0	0xbd1e17e9	-0.03859702
1	0xbd2b1e37	-0.041776862
2	0xbd0875bf	-0.033315416
3	0xbcbee2ad	-0.023301447
4	0xbb01a6e7	-0.001978332
5	0xbd2e04c9	-0.042485032
6	0xbd4d546e	-0.050129347
7	0xbceea6c5	-0.029132256
8	0xbcf1eb0f	-0.02953103
9	0x3c9faea4	0.019492455
10	0x3c21ff2c	0.009887498
11	0x3caf2b59	0.021382974
12	0x3ce478ba	0.027889598
13	0xbc578035	-0.0131531255
14	0xbc2f65d7	-0.010705433
15	0xbc57f1d6	-0.013180217
16	0xbc090ad9	-0.008364403
17	0xbd305d6c	-0.043057844
18	0xbd1ddf60	-0.038543105
19	0xbd096afd	-0.033549298
20	0x3c6c602e	0.014427228
21	0xbacb5664	-0.0015513417
22	0xbcc99222	-0.024605814
23	0x3b8d3a28	0.0043099113
24	0x3c016a3b	0.0078988625
25	0xbd119251	-0.03553993
26	0xbd1b03ed	-0.03784554
27	0xbbb6cdb9	-0.0055787233
28	0xbcd861ce	-0.026413824
29	0xbb5ccf6e	-0.0033692974
30	0xbc4dab1f	-0.0125530055
31	0xbc9eb5c7	-0.019373788
32	0xbc08ebc9	-0.008356997
33	0xbc8bbcb8	-0.017057762
34	0xbbd2b22d	-0.0064299316
35	0x3bc3f7e2	0.0059804777
36	0xbd071890	-0.03298241
37	0x3be8c2e8	0.0071033128
38	0xbcce7de4	-0.025206514
39	0x3cdd1c8c	0.026991151
40	0xbc85e0ec	-0.016342603
41	0xbd029aa1	-0.031885747
42	0xba82107c	-0.0009923126
43	0xbd2828ca	-0.041054524
44	0x3c19fc05	0.009398465
45	0x3c5a588a	0.013326773
46	0x3c7b337f	0.015332102
47	0xba7bd25d	-0.00096062367
48	0xbb8224eb	-0.003971686
49	0xbd11bc9f	-0.035580274
50	0x3c5688ff	0.013094186
51	0xbd4a1578	-0.04933688
52	0xbd1f592f	-0.03890341
53	0x3cc4e02e	0.024032678
54	0x3cb1d016	0.021705668
55	0xbca7ec76	-0.020498496
56	0xbd4f4f13	-0.05061252
57	0xbd574490	-0.05255562
58	0xbd2a6210	-0.041597426
59	0xbaaf479a	-0.0013372779
60	0xbc711786	-0.014715081
61	0xbd1ec3ce	-0.038760953
62	0xbd4a8d46	-0.049451135
63	0x3c17a0b4	0.009254623
64	0xbc6adafe	-0.014334438
65	0xbcab914e	-0.02094331
66	0x3cb1ee89	0.021720188
67	0xbc96c1c2	-0.018402938
68	0xbc937a54	-0.018002667
69	0xbc2af45a	-0.0104342345
70	0x3d20de91	0.039274756
71	0xbc68223e	-0.01416832
72	0xbcc4ffbc	-0.024047725
73	0xbc8c0533	-0.017092323
74	0xbc8244af	-0.015901892
75	0xbc04ea43	-0.008112493
76	0x3c869519	0.016428517
77	0xbbdea491	-0.00679452
78	0xbd02fd07	-0.031979587
79	0x39f9eb50	0.00047668302
80	0xbd4e4bf0	-0.05036539
81	0x3920ae48	0.00015323714
82	0x3c7abe15	0.015304108
83	0x3c881a54	0.016614117
84	0xbba3f6d0	-0.0050037876
85	0x3b9996b3	0.004687154
86	0xbd2b3c99	-0.041805837
87	0x3cd3c308	0.025849834
88	0xbccc6ef9	-0.02495526
89	0xbcc2e427	-0.023790432
90	0xbd11cdb5	-0.03559657
91	0xbaaca520	-0.001317177
92	0xbd5192d0	-0.051165402
93	0x3c5671bc	0.01308864
94	0xbbacdee3	-0.0052755936
95	0x3bc62dc6	0.006047937
96	0xbc8e6a8c	-0.01738479
97	0xbd1945ee	-0.037420206
98	0xbd154993	-0.03644712
99	0xbce47744	-0.027888902
100	0x3a93ff39	0.0011291272
101	0x3cd82c66	0.026388358
102	0xbc61fcec	-0.013793211
103	0xbc49d746	-0.012319392
104	0xbd2a0476	-0.04150816
105	0xbd42932e	-0.047503643
106	0xbd02aacc	-0.031901166
107	0xbd0d2134	-0.034455493
108	0xbd3e9e13	-0.04653747
109	0x3d01145a	0.03151355
110	0xbcbd1194	-0.023079671
111	0xbc40de07	-0.011771685
112	0x3c84c63a	0.016207803
113	0xbcd4715d	-0.025932962
114	0xbbc2de40	-0.0059469044
115	0xbc63d763	-0.013906333
116	0xbd20fa62	-0.039301284
117	0xbd33d740	-0.04390645
118	0xbd584a99	-0.052805517
119	0xbc95e891	-0.018299373
120	0x3c61563e	0.013753472
121	0x3ac896ab	0.0015303692
122	0xbc85b43c	-0.016321294
123	0x3ca76b2f	0.020436851
124	0xbd0a0e5a	-0.033705093
125	0xbc83afd6	-0.016075056
126	0x3ba1d0cf	0.004938222
127	0x3c6712d5	0.014103611
128	0x3ce4b6d6	0.027919214
129	0xbc476813	-0.012170809
130	0xbc840625	-0.016116211
131	0xbd1f328f	-0.038866576
132	0xbd1e05e9	-0.038579855
133	0x384bda0c	4.8602044e-05
134	0xbd01494f	-0.031564053
135	0x3c603e6c	0.013686758
136	0xbce1905a	-0.027534653
137	0xbc759bc2	-0.014990749
138	0xbd12431e	-0.03570854
139	0x39a64be0	0.0003171852
140	0x3b3b14a0	0.002854623
141	0xbd03e7cf	-0.03220349
142	0x3ca9c3ce	0.02072325
143	0xbcdd558b	-0.02701833
144	0xbd2e2122	-0.042512067
145	0xbc5e4899	-0.013567113
146	0x3c119514	0.008885641
147	0xbc3ee6d0	-0.01165171
148	0x3c376de8	0.011195637
149	0xbc16ff3d	-0.009216127
150	0xbcc8f936	-0.024532896
151	0xbcbe7f92	-0.02325419
152	0xbc41a024	-0.011817966
153	0xbcb4b520	-0.022059023
154	0xbcd9a23c	-0.026566617
155	0xbd08eaf1	-0.033427183
156	0xbbe215eb	-0.0068995855
157	0xbd0c103e	-0.034195177
158	0xbd2b767e	-0.04186105
159	0xbc1674af	-0.009183093
160	0x3d2f564f	0.04280692
161	0xbc6a1c42	-0.014288964
162	0xbc959bac	-0.018262707
163	0xbd35bd67	-0.04437008
164	0x3bfa6fb9	0.007642713
165	0xbc6c0caa	-0.014407316
166	0x3cda4929	0.026646214
167	0xbc9b15b4	-0.018931247
168	0xbb79c77e	-0.0038113291
169	0xbceaae0d	-0.028647447
170	0xbcae658f	-0.021288661
171	0xbce400f2	-0.027832482
172	0xbc8c83c2	-0.01715267
173	0xbbe3fe49	-0.0069578034
174	0xbd11759a	-0.035512544
175	0x3b56f65e	0.0032800655
176	0xbd8e803e	-0.06958054
177	0x3baf1953	0.005343595
178	0xbc936c42	-0.017995957
179	0xbcb75299	-0.022378253
180	0x3bcc444b	0.006233727
181	0xbc9d68cf	-0.019215016
182	0xbb9ab91d	-0.0047217743
183	0xbcfa6369	-0.03056498
184	0xbb292cc7	-0.0025814043
185	0xbc0f5786	-0.008748895
186	0xbbd03c5b	-0.006354851
187	0xbd1a2d70	-0.03764099
188	0x3ae50d14	0.0017475211
189	0x3c8414f0	0.016123265
190	0xbd13b9d5	-0.036065895
191	0xbc09e898	-0.008417271
192	0xbca8003a	-0.02050792
193	0x3c912b8d	0.017720962
194	0xbd1d2faf	-0.038375553
195	0x3c6f846f	0.014618977
196	0x3ceeea3c	0.029164426
197	0xbbd99407	-0.0066399607
198	0xbb77e9a4	-0.003782847
199	0xbc412cb1	-0.01179044
200	0xbcc83196	-0.024437707
201	0xbcf36c3e	-0.0297147
202	0xbc618765	-0.013765191
203	0xbd0de815	-0.03464516
204	0xbcf37111	-0.029717
205	0xbbf2aa30	-0.007405542
206	0xbd27b7a5	-0.04094662
207	0xbcd6ef88	-0.026237264
208	0x3d17f814	0.03710182
209	0x3c6f0cbd	0.014590439
210	0x3b3d610d	0.0028896958
211	0xbd04283d	-0.032264937
212	0xbd5d7449	-0.054065976
213	0x39e6b41d	0.00044003213
214	0xbd30b2d8	-0.04313931
215	0xbb9dcc77	-0.004815634
216	0xbc53077c	-0.012880202
217	0xbc50519d	-0.012714771
218	0xbc4f1daf	-0.012641354
219	0xbcb3e096	-0.021957677
220	0xbd51a6a3	-0.051184308
221	0xbd0d3add	-0.034479965
222	0xbd11b185	-0.035569686
223	0x3c890358	0.016725227
224	0xbc76612f	-0.015037819
225	0xbaed252e	-0.0018092745
226	0xbd0e385e	-0.034721725
227	0x3c35536b	0.011067252
228	0xbd3979dc	-0.04528223
229	0xbc969ca5	-0.01838524
230	0x3ba50790	0.005036302
231	0x3c8e4b72	0.01736996
232	0xbcf7a9a9	-0.030232267
233	0x3c7189a2	0.014742287
234	0xbc8bb023	-0.017051762
235	0xbd19c25c	-0.03753887
236	0x39d0b37c	0.00039806578
237	0x3c44cbee	0.012011511
238	0x3bc75603	0.0060832514
239	0xba2d697d	-0.0006615145
240	0x3c3c7e6c	0.011504751
241	0x3b51f1cf	0.0032034998
242	0x3c63b001	0.013896943
243	0x3ba9b35a	0.005178851
244	0x3cc2346d	0.02370664
245	0xbd504fde	-0.050857417
246	0xbcf49f21	-0.029861035
247	0xbca459d6	-0.020062368
248	0xb9631e6b	-0.00021659739
249	0xbc945611	-0.018107446
250	0xbd220a6c	-0.03956072
251	0xbd5f9d88	-0.054593593
252	0x3c0c1bf1	0.008551584
253	0xbc2f92c8	-0.010716148
254	0xbc72d4be	-0.0148212295
255	0xbd174629	-0.036932144

fc2.weight f4 [128, 256]
0	0xbd1345d3	-0.03595526
1	0x3d0f2396	0.034946047
2	0x3d6ffb42	0.058589227
3	0x3d20e464	0.03928031
4	0xbd2e24ec	-0.04251568
5	0xbce92990	-0.028462201
6	0xbd130f32	-0.035903163
7	0x3cb4a255	0.022050062
8	0xbc9e3124	-0.019310541
9	0xbd30e5b4	-0.043187812
10	0xbcc90a20	-0.02454096
11	0xbcc227c6	-0.023700606
12	0x3c162f30	0.009166524
13	0xbd22844c	-0.03967695
14	0xbde6f6e5	-0.1127756
15	0x3d916657	0.07099598
16	0x3d45b284	0.04826595
17	0x3d4370da	0.047715046
18	0xbcd95940	-0.026531816
19	0xbd3c385b	-0.045952182
20	0x3c9dc188	0.019257322
21	0xbd02f97c	-0.031976208
22	0x3d3d8250	0.046266854
23	0xbd849558	-0.064737976
24	0x3d4557a8	0.0481793
25	0xbd2dc9ea	-0.04242889
26	0x3caa150c	0.020761989
27	0x3d5c358e	0.05376201
28	0x3b11de40	0.0022257715
29	0x3d4cb6a0	0.049978852
30	0x3d7e5a70	0.062097967
31	0x3d6d4b84	0.057933345
32	0xbd3dd441	-0.046345
33	0x3cc3de00	0.023909569
34	0x3d516b54	0.051127747
35	0x3cf34ac0	0.02969873
36	0xbdd7a15e	-0.10528825
37	0xbd8f6823	-0.070022844
38	0xbcd78118	-0.026306674
39	0xbd5c87a5	-0.0538403
40	0x3d2668a4	0.040627137
41	0xbdad3c1b	-0.0845873
42	0xbd7d7a4f	-0.06188422
43	0x3c5628fa	0.013071293
44	0xbc96ec83	-0.018423324
45	0xbd335644	-0.04378344
46	0xbd3b829c	-0.045778856
47	0xbd561dac	-0.05227439
48	0xbd694660	-0.05695188
49	0x3bc6164b	0.006045138
50	0xbd68026e	-0.056642942
51	0xbc8033a0	-0.015649617
52	0x3d6f5218	0.0584279
53	0x3bf972d7	0.007612567
54	0xbe0ad1dd	-0.13556619
55	0xbd112c96	-0.03544291
56	0x3d42ddec	0.047574922
57	0x3d638c06	0.05555346
58	0x3c0779a8	0.008268751
59	0xbd2c1961	-0.04201639
60	0xbd713f9b	-0.05889855
61	0xbd251594	-0.04030378
62	0x3d547100	0.051865578
63	0xbd8ce273	-0.06879129
64	0x3d2af986	0.04174187
65	0xb8d692f1	-0.00010231685
66	0xbda28247	-0.07935005
67	0xbd15176a	-0.036399283
68	0xbc2bd5b0	-0.010487959
69	0x3cdf9284	0.027291544
70	0xbce1b69d	-0.027552897
71	0x3d003f86	0.03131058
72	0xbdd0a0ee	-0.10186945
73	0x3d2b37be	0.041801207
74	0xbd623a08	-0.055231124
75	0xbd096285	-0.03354122
76	0xbd3eff2a	-0.046630062
77	0xbcb159b4	-0.02164922
78	0xbcf48314	-0.02984766
79	0xbc9f1641	-0.019419791
80	0xbd476b2e	-0.0486862
81	0xbd9626b2	-0.07331599
82	0xbdaf0daf	-0.08547532
83	0xbccdb9ac	-0.02511295
84	0xbc1dc239	-0.009628826
85	0xbd1d7650	-0.03844291
86	0x3d5e95e8	0.05434218
87	0x3ce739b0	0.02822575
88	0xbd04aaca	-0.03238944
89	0xbd36314c	-0.044480607
90	0xbd308fb0	-0.04310578
91	0x3d173704	0.0369177
92	0x3bbb85e0	0.0057227463
93	0x3cfac830	0.030613035
94	0xbc5fac20	-0.013651878
95	0xba78bd80	-0.0009488687
96	0xbd8177cc	-0.063216776
97	0xbb8a3910	-0.004218228
98	0xbc9497c0	-0.018138766
99	0x3d2ce50c	0.042210624
100	0xbc1937a8	-0.009351648
101	0xbc9ab144	-0.018883355
102	0x3bdb9770	0.0067014024
103	0xbcc5b4dc	-0.024134092
104	0xbd7d9cde	-0.06191718
105	0xbd732e64	-0.059370413
106	0xbceb0248	-0.028687611
107	0xbcbe94a2	-0.023264233
108	0xbcfb6fec	-0.030693017
109	0x3cbab9f1	0.022793742
110	0x3b5007c0	0.00317429
111	0xbd498d1a	-0.04920683
112	0x3d4bb646	0.049734376
113	0xbd4626b0	-0.04837674
114	0xbd9b08e0	-0.07570052
115	0x3d190784	0.037360683
116	0xbc746468	-0.014916517
117	0xbc8e4eb8	-0.01737152
118	0xbbdd3000	-0.006750107
119	0xbd09e92c	-0.033669636
120	0xbc860128	-0.016357973
121	0xbd70b6be	-0.058768027
122	0xbcd79b68	-0.02631922
123	0x3c4efa08	0.012632854
124	0x3d09d2d5	0.03364833
125	0xbdeaa4b8	-0.11457199
126	0x3bf35160	0.007425472
127	0xbd33eea4	-0.043928757
128	0xbc830fc0	-0.015998721
129	0x3cd5c524	0.02609498
130	0xbd573a72	-0.052545972
131	0x3d3974f4	0.04527755
132	0x3d1b1520	0.037861943
133	0xbcd29727	-0.02570684
134	0x3c893364	0.016748138
135	0xbc940441	-0.018068435
136	0x3d0b6a20	0.034036756
137	0xbca4ac78	-0.02010177
138	0xbdfa8177	-0.12231725
139	0xbdd022f3	-0.10162916
140	0x3d5674fc	0.05235766
141	0x3c6ee398	0.01458063
142	0xbd07fd14	-0.03320034
143	0xbd426776	-0.04746195
144	0x3b60e200	0.0034314394
145	0xbd166f89	-0.036727462
146	0xbd00dc52	-0.031460114
147	0x3ae03f88	0.0017108778
148	0xbb5dd780	-0.0033850372
149	0x3c5fbe40	0.013656199
150	0x3caa78f0	0.02080962
151	0x3ca55e2a	0.020186502
152	0xbd51f448	-0.051258355
153	0x3d15b1e0	0.036546588
154	0xbc37d820	-0.011220962
155	0x3b381160	0.0028086528
156	0xbd04c612	-0.032415457
157	0x3c30f388	0.01080025
158	0xbd4a64e8	-0.049412638
159	0xbd352476	-0.044224225
160	0xbde3d6a7	-0.11124926
161	0xbd12b952	-0.035821266
162	0xbc360b6d	-0.011111123
163	0x3d2c3a8f	0.042048033
164	0x3ccca5d8	0.024981424
165	0xbd7ec532	-0.06219978
166	0xbd103e24	-0.035215512
167	0xbd1d0990	-0.038339198
168	0xbcf5870c	-0.029971622
169	0xbd95da1d	-0.073169924
170	0xbd5519f4	-0.052026704
171	0xbca1bf4f	-0.019744543
172	0x3d0c980e	0.0343247
173	0xbcfc49e4	-0.030796953
174	0x3b915d90	0.0044362023
175	0x3d404054	0.046936348
176	0xbd37bf6c	-0.04486029
177	0xbdf82249	-0.121159144
178	0xbc714fbd	-0.014728484
179	0x3b2aeb01	0.0026080015
180	0xbd977d5e	-0.07396959
181	0xbc3a25e8	-0.011361577
182	0x3d1c7c42	0.03820444
183	0xbaf7f140	-0.0018916503
184	0x3d07ab83	0.03312255
185	0xbd5a6ed0	-0.053328335
186	0xbba98b30	-0.005174063
187	0xbd1b0590	-0.0378471
188	0x3c99bf84	0.01876808
189	0x3d4bac82	0.049725063
190	0xbcd522bc	-0.02601754
191	0xbd862a7e	-0.065510735
192	0x3d3ee55b	0.04660545
193	0x3c7806ce	0.015138341
194	0xbd097856	-0.033562027
195	0x3d46b65e	0.048513763
196	0xbd68dbeb	-0.056850355
197	0xbd85e128	-0.06537086
198	0xbd2523b8	-0.040317267
199	0x3d544408	0.051822692
200	0xbd7fb337	-0.062426772
201	0xbd2ab55e	-0.04167687
202	0xbd2ff2cc	-0.04295616
203	0xbd619ade	-0.055079333
204	0x3ca1c121	0.019745411
205	0xbd1b4b78	-0.03791377
206	0x3bb83a50	0.0056221858
207	0xbd42b7a6	-0.047538422
208	0xbdb458ad	-0.08805976
209	0xbabb6e40	-0.0014299825
210	0x3d6720ae	0.05642765
211	0x3c032cea	0.008006314
212	0x3d804bd7	0.06264465
213	0x3d5276aa	0.051382698
214	0x3d65c0fe	0.056092255
215	0xbcb1e1ea	-0.02171417
216	0xbd31dc50	-0.043422997
217	0xbdf83bd9	-0.1212079
218	0x3cd2c358	0.025727913
219	0x3be89e86	0.0070989756
220	0x3d6d784a	0.057976045
221	0xbd699604	-0.05702783
222	0xbc8c583c	-0.017131917
223	0xbcb2e839	-0.021839248
224	0x3bf98af0	0.0076154396
225	0xbcc5ef44	-0.024161942
226	0xbc098a88	-0.008394845
227	0xbc670468	-0.014100172
228	0x39c1402f	0.0003685965
229	0xbd054936	-0.032540523
230	0xbd9e6866	-0.07734756
231	0xbd2b597c	-0.041833386
232	0xbd7a4a6e	-0.061106138
233	0xbc894380	-0.01675582
234	0xbb6ce000	-0.0036144257
235	0xbc88a3c8	-0.01667966
236	0xbd877ed0	-0.066159844
237	0x3d144f5c	0.036208495
238	0xbd9f5cd7	-0.0778138
239	0xbd65bf98	-0.05609092
240	0xbd11b7fa	-0.035575844
241	0x3d086fcc	0.033309743
242	0x3d4ca902	0.049965866
243	0x3d250fb8	0.040298194
244	0xbcbe5800	-0.023235321
245	0xbca35cfc	-0.0199418
246	0xbd335f1c	-0.043791875
247	0xbd377a0d	-0.04479413
248	0xbccc1f40	-0.024917245
249	0xbd7d0620	-0.06177342
250	0xbd56a70d	-0.052405406
251	0x3d116f42	0.035506494
252	0xbcf47d78	-0.029844984
253	0x3cc86828	0.024463728
254	0xbd71061a	-0.05884371
255	0x3c616a68	0.013758279

fc2.bias f4 [128]
0	0xbc93fd2d	-0.01806506
1	0xbd82c7c7	-0.06385761
2	0x3c6f8140	0.014618218
3	0xbdb7e239	-0.089786954
4	0x3cc5a8c7	0.02412833
5	0xbdb991fa	-0.09061046
6	0x3ce67b56	0.028134983
7	0xbd995443	-0.07486775
8	0xbd11f826	-0.035637043
9	0x3ca0d208	0.0196314
10	0xbcd1815a	-0.025574375
11	0xbde17372	-0.110083476
12	0xbd098a66	-0.033579253
13	0xbd65f0db	-0.0561379
14	0x3d289d98	0.041165918
15	0x3ce57782	0.028011087
16	0xbcfd6ccb	-0.030935666
17	0xbddc3146	-0.10751586
18	0xbaf749d1	-0.0018866603
19	0x3c0a2fc1	0.008434237
20	0xbda66d7f	-0.081263535
21	0xbcbc569f	-0.022990523
22	0xbd7761c5	-0.060395975
23	0xbe0079ae	-0.12546417
24	0x3d328010	0.04357916
25	0xbde4024a	-0.11133249
26	0xbb0e9b32	-0.0021759984
27	0xbd8b1cb5	-0.06792585
28	0xbdddb4c8	-0.10825497
29	0x3db6ee6a	0.089321926
30	0x3cf57ec0	0.029967666
31	0xbd34075e	-0.04395234
32	0x3d5e69a0	0.05429995
33	0xbc8bdb31	-0.017072292
34	0xbb98002c	-0.0046386924
35	0xbc2a593e	-0.010397254
36	0x3c2e8e37	0.010654024
37	0x3cf810e5	0.030281493
38	0xba869e2c	-0.0010270528
39	0x3df70883	0.1206217
40	0xbd982d54	-0.07430521
41	0xbdbd86da	-0.092542365
42	0x3d66162e	0.056173496
43	0xbc20482f	-0.009782835
44	0xbc8c2a87	-0.017110122
45	0xbd9e2875	-0.0772256
46	0xbdac9a99	-0.08427925
47	0x3d91cf21	0.07119585
48	0xbd4d0032	-0.050049014
49	0xbc4b8900	-0.0124228
50	0xbd3cdc4c	-0.04610853
51	0x3d38008e	0.044922404
52	0x3d9dc89a	0.07704277
53	0xbdcc74d0	-0.09983218
54	0x3cae7fe0	0.02130121
55	0xbc23ac2e	-0.009989781
56	0xbd45a66d	-0.04825442
57	0x3cf3e843	0.029773837
58	0x3bd9c4c8	0.0066457726
59	0xbdb322c3	-0.08746865
60	0xbd32bb39	-0.04363558
61	0xbd84b49c	-0.06479761
62	0xbda5e3f1	-0.08100117
63	0xbceb77cf	-0.028743653
64	0xbd3ea504	-0.04654409
65	0xbddd86ff	-0.10816764
66	0xbd1a896d	-0.037728716
67	0x3de0c73c	0.10975501
68	0xbd054dae	-0.032544784
69	0x3c029c0d	0.007971776
70	0x3af1bb70	0.0018442702
71	0xbda82aa1	-0.08211256
72	0xbd8f2a9a	-0.069905475
73	0xbd8ed2e1	-0.06973816
74	0x3d3c1ec4	0.045927778
75	0xbe02f40f	-0.12788413
76	0x3e047c3b	0.12938015
77	0xbd0fbf26	-0.035094403
78	0xbdc7b481	-0.09751225
79	0x3d5eaab7	0.054362025
80	0xbcb0a07c	-0.0215609
81	0x3c8cadba	0.017172683
82	0xbd589588	-0.05287698
83	0xbe0cb317	-0.13740192
84	0x3ce475c1	0.02788818
85	0xbd22d242	-0.0397513
86	0xbd622c53	-0.055218052
87	0xbd50ef1b	-0.05100928
88	0xbd266d17	-0.04063138
89	0xbd3ddfdf	-0.04635608
90	0xbd77a205	-0.06045725
91	0x3d3ff9e1	0.046869162
92	0x3df544e5	0.11976031
93	0x3d8eb4fd	0.069681145
94	0xbd0554ed	-0.032551695
95	0x3de166ec	0.11005959
96	0xbdf43b17	-0.11925333
97	0x3dcae64f	0.09907209
98	0x3d937ef1	0.072019465
99	0xbcfb9603	-0.03071118
100	0xbdd0a154	-0.10187021
101	0x3cd60a61	0.026127996
102	0x3cf51207	0.029915823
103	0xba2e1eb1	-0.00066421466
104	0x3dba598b	0.0909911
105	0xbc8a1c4d	-0.016859198
106	0xbd863a66	-0.06554107
107	0x3c2e5cfe	0.010642288
108	0xbc36a36a	-0.011147359
109	0xbdc3111e	-0.09524749
110	0x3d28d7aa	0.0412213
111	0x3d790482	0.060795315
112	0x3c245afc	0.010031458
113	0xbe374a3e	-0.17899415
114	0x3cfa8e3a	0.030585397
115	0x3d1fafa9	0.038985882
116	0x3b291abb	0.0025803286
117	0x3c4da4e3	0.012551519
118	0xbd89fdcb	-0.0673786
119	0xbd04c28a	-0.03241209
120	0xbd8001a0	-0.0625031
121	0x3c8fe709	0.01756622
122	0x3d168b67	0.03675404
123	0x3d8ce510	0.06879628
124	0xbddc31c2	-0.10751678
125	0x3a0a05a9	0.00052651257
126	0xbd700b9b	-0.058604818
127	0x3ab7651e	0.0013991927

fc3.weight f4 [64, 128]
0	0x3d57bdf9	0.052671406
1	0xba7f8646	-0.00097474863
2	0x3dac43c1	0.084113605
3	0x3c741962	0.01489863
4	0xbd4b55fa	-0.04964254
5	0xba51537c	-0.00079851574
6	0x3bba506c	0.0056858566
7	0xbce292e0	-0.027657926
8	0x3d9740f5	0.073854364
9	0xbde95e77	-0.11394971
10	0x3e045d1d	0.12926145
11	0x3e0569c4	0.13028628
12	0x3c7337f1	0.01484488
13	0xbd276078	-0.040863484
14	0xbcbfd728	-0.023418024
15	0xbc7d0481	-0.015442968
16	0xbb69cbea	-0.003567452
17	0x3b82ba52	0.0039894963
18	0x3ccdaaad	0.025105799
19	0x3e36d369	0.17854084
20	0x3dec4737	0.11537021
21	0x3e2dd351	0.16975142
22	0x3da1408e	0.07873641
23	0xbd85e164	-0.065371305
24	0x3d9b882a	0.075943306
25	0xbd80a352	-0.06281151
26	0xbd74353b	-0.059621077
27	0x3cced8df	0.025249897
28	0xbdaa43cc	-0.083137125
29	0x3dc18cf4	0.09450713
30	0x3e0f7af1	0.14011742
31	0xbcc039e5	-0.023465106
32	0x3dd3b872	0.103379145
33	0x3d5ddf47	0.054168012
34	0xbda0adf5	-0.0784568
35	0x3c27efaf	0.010250016
36	0xbcadbb95	-0.02120761
37	0x3e042c2d	0.12907477
38	0xbd86c105	-0.06579784
39	0xbc997018	-0.018730208
40	0x3db1e35d	0.08685944
41	0x3e45c685	0.1931401
42	0x3d4c9586	0.049947284
43	0x3db35777	0.08756917
44	0xbd7ace14	-0.061231688
45	0xbc90c3d3	-0.017671501
46	0xbc25f631	-0.010129497
47	0x3d1e52a8	0.038653046
48	0xbd8fafbd	-0.07015941
49	0x3dd682a7	0.10474139
50	0x3db58853	0.088638924
51	0xbddc4376	-0.10755055
52	0x3d25f0d0	0.04051286
53	0xbdd223ba	-0.102607206
54	0xbdebb545	-0.11509184
55	0x3ce0dab7	0.027448041
56	0xbd2d7657	-0.042349186
57	0x3cefe789	0.02928521
58	0x3d575c2f	0.052578148
59	0x3d8a671e	0.06757949
60	0xbd31dd84	-0.043424144
61	0xbdba10e4	-0.09085253
62	0x3dc48dcb	0.09597357
63	0xbd9cd0b2	-0.07656993
64	0xbd6e9578	-0.058248013
65	0xbbeb9636	-0.0071895374
66	0x3ccd92aa	0.025094349
67	0xbd6fe9fa	-0.058572747
68	0x3cd9edc9	0.026602643
69	0x3cdff5c1	0.027338864
70	0xbd3e10bf	-0.04640269
71	0x3dfc4faf	0.12319886
72	0xbddb565b	-0.107098304
73	0x3d29cb72	0.041453786
74	0x3d52fbce	0.05150967
75	0xbda83672	-0.082135096
76	0x3cce4cf9	0.025183188
77	0x3dbccb0a	0.09218414
78	0x3dc7d01c	0.097564906
79	0xbcb2072a	-0.021731932
80	0x3cd95d3d	0.026533717
81	0xbd4a984c	-0.049461648
82	0x3b1f189a	0.0024276138
83	0xbe294b13	-0.16532545
84	0xbd3f7942	-0.0467465
85	0xbc585cfd	-0.013205764
86	0x3df323b5	0.11872045
87	0x3dc77bc9	0.09740407
88	0xbbcbb2ba	-0.006216374
89	0xbd6f09a2	-0.058358796
90	0xbd8bad32	-0.06820144
91	0xbdde6e2a	-0.10860856
92	0x3da2f480	0.07956791
93	0xbd06e9e0	-0.032937884
94	0x3d0c5a69	0.03426591
95	0xb9cc6144	-0.0003898238
96	0xbd066ba1	-0.032817487
97	0xbdda28a7	-0.10652285
98	0x3d607eea	0.054808535
99	0xbd894cf6	-0.06704132
100	0x3c14a9e7	0.009073711
101	0x3e2cc3ca	0.16871563
102	0x39cc036c	0.00038912462
103	0xbd88f59f	-0.066874735
104	0x3cf9599d	0.030438239
105	0x3d865e79	0.06560988
106	0x3c9bf532	0.019037817
107	0x3d8320f0	0.06402767
108	0x3c4997d4	0.012304265
109	0x3c9c34b2	0.019068096
110	0x3be7e40c	0.007076746
111	0x3ad414ed	0.0016180553
112	0xbcc0211a	-0.023453284
113	0x3cf5eb3e	0.030019399
114	0x38b0fec0	8.439785e-05
115	0x3d4fe163	0.050752055
116	0xbc2810c8	-0.010257907
117	0x3da30817	0.079605274
118	0x3dbf6e86	0.093472525
119	0x3d218d6b	0.039441507
120	0xbbdfe05e	-0.0068321666
121	0x3ddfb269	0.10922701
122	0x3d4b8bab	0.049693745
123	0x3d299bff	0.041408535
124	0xbe467984	-0.19382292
125	0x3e60fa26	0.21970424
126	0x3dd8af7d	0.10580347
127	0x3dc35ff9	0.0953979
128	0x3c4d4ddf	0.012530773
129	0xbdc85bf2	-0.09783162
130	0x3d28fd8a	0.04125742
131	0x3d91d06a	0.0711983
132	0x3d1b51af	0.037919696
133	0x3c8b1bd3	0.016981041
134	0x3dab7518	0.08371943
135	0xbc04c104	-0.008102659
136	0xbde2bed5	-0.110715546
137	0x3d92a081	0.0715952
138	0x3e0ef446	0.1396037
139	0x3aa6ffd6	0.001274104
140	0xbc79fe48	-0.015258379
141	0x3d3bad45	0.04581954
142	0xbdd8665f	-0.10566401
143	0x3baf34f5	0.005346889
144	0x3dc944f7	0.09827607
145	0xbda17ba0	-0.07884908
146	0xbd79f4dc	-0.06102453
147	0x3e02afcc	0.12762374
148	0xbd37854b	-0.044804852
149	0x3e0d9540	0.13826466
150	0xbd6f5692	-0.05843217
151	0x3ce19d03	0.02754069
152	0x3cc64c43	0.024206286
153	0x3d29e29e	0.041475885
154	0xbdfa76f9	-0.122297235
155	0xbd5ab077	-0.053390946
156	0x3d9743e5	0.07385997
157	0x3c12360b	0.008924018
158	0x3da3e685	0.080029525
159	0x3c932df2	0.017966244
160	0x3d8268bd	0.063676335
161	0x3cc3fe8b	0.023925086
162	0x3bff34ad	0.007788262
163	0xbdf7445e	-0.12073587
164	0x3ccdf9a7	0.025143458
165	0x3d36ee0f	0.044660624
166	0xbdca6d79	-0.098841615
167	0x3d12768d	0.03575759
168	0x3d111c68	0.03542748
169	0x3e15efab	0.14642207
170	0x3e318a2e	0.17337868
171	0xbdb26868	-0.0871132
172	0xbcea3b7b	-0.028592816
173	0xbda81d31	-0.08208693
174	0xbd804e16	-0.06264894
175	0xbd03a709	-0.03214172
176	0x3d0a640e	0.033786826
177	0x3b39cec5	0.0028352004
178	0x3c16a1d3	0.009193855
179	0xbcea8d25	-0.028631756
180	0x3cbb1c4c	0.022840641
181	0xbdd2befa	-0.10290332
182	0xbd409c9a	-0.047024347
183	0x3d283f60	0.041076064
184	0xbb131fb8	-0.0022449326
185	0x3dfeccbb	0.12441393
186	0x3dd9b094	0.10629383
187	0xbce236db	-0.027614048
188	0x3c35e652	0.011102276
189	0x3cd2ed67	0.025747968
190	0x3d60f4f6	0.054921113
191	0xbaf02e23	-0.0018324297
192	0xbd4b9856	-0.049705826
193	0x3ce7e2c5	0.028306374
194	0xbe039863	-0.128511
195	0xbe3e67cc	-0.18594283
196	0xbdb92274	-0.090397745
197	0x3dcb7497	0.09934347
198	0xbc2b300f	-0.01044847
199	0x3d9bd078	0.07608122
200	0xbdfa55cd	-0.122233965
201	0x3d9ea592	0.07746424
202	0xbd6621a5	-0.05618443
203	0x3b960437	0.004578139
204	0xbbbdcf82	-0.005792559
205	0x3c740f5f	0.014896243
206	0x3c4dbf94	0.012557883
207	0xbd818991	-0.06325067
208	0x3d8c8c34	0.06862679
209	0x3b0745e7	0.002064103
210	0x3dae8fb8	0.08523506
211	0x3d45d686	0.04830029
212	0xbd803637	-0.06260341
213	0x3d24e5dd	0.040258277
214	0x3d2e922d	0.042619873
215	0x3d9778f3	0.07396116
216	0x3c2974ae	0.01034276
217	0xbd7b058c	-0.061284587
218	0xbe1a55c4	-0.1507178
219	0xbe04d62a	-0.12972322
220	0x3d8b9c94	0.06816974
221	0x3d440f4c	0.04786615
222	0x3d0aa513	0.033848833
223	0xbdc90019	-0.09814472
224	0x3dacccd7	0.084375076
225	0xbd31d9e8	-0.043420702
226	0xbd006730	-0.031348407
227	0x3cea4438	0.028596982
228	0xbd8b1668	-0.06791383
229	0x3e516b15	0.20451005
230	0x3c9c73fa	0.01909827
231	0x3c84764c	0.01616969
232	0xbdea1af9	-0.11430926
233	0x3dbac036	0.091186926
234	0x3d601011	0.054702822
235	0x3be44923	0.0069667264
236	0x3e0a81f1	0.13526131
237	0xbe0f7b93	-0.14011984
238	0xbe157697	-0.1459602
239	0xbd8baee3	-0.06820466
240	0xbbf69f87	-0.0075263414
241	0x3dbd46aa	0.09241994
242	0x3c723b59	0.014784657
243	0x3d8ca2bb	0.06866976
244	0xbd9fd109	-0.07803542
245	0x3d1d699f	0.038430806
246	0xbcb92e3d	-0.022605056
247	0x3d4e23eb	0.050327223
248	0x3d99717c	0.074923486
249	0xbd634d39	-0.055493567
250	0x3d9abb1f	0.07555222
251	0x3e239a68	0.1597687
252	0xbd61f879	-0.055168603
253	0xbd6af2d7	-0.057360496
254	0x3d116b2c	0.035502598
255	0xbd51a5b3	-0.051183414

fc3.bias f4 [64]
0	0xbd5f2a05	-0.054483432
1	0x3d2a5f05	0.041594524
2	0x3d804f44	0.06265119
3	0xbc8f94cf	-0.017527012
4	0x3c74eb33	0.014948654
5	0x3df2f66a	0.11863406
6	0x3cc8f98a	0.024533052
7	0x3c0991d9	0.008396589
8	0xbdaca5da	-0.08430071
9	0x3bb280ed	0.005447498
10	0xbd54d78b	-0.05196337
11	0x3d9f4679	0.077771135
12	0xbd5ed0c0	-0.0543983
13	0xbca2efdc	-0.019889764
14	0xbb0b0b24	-0.0021216357
15	0xbde74efd	-0.11294363
16	0x3c39f3bb	0.011349614
17	0xbd643404	-0.05571367
18	0xbd856753	-0.06513848
19	0xbd812df2	-0.063075915
20	0x3d9c5e60	0.07635188
21	0xbd48b9a6	-0.049005173
22	0x3d867ca9	0.06566746
23	0xbd76bf90	-0.060241282
24	0xbe1df192	-0.15424183
25	0xbbf0576a	-0.0073346393
26	0xbca4d1c8	-0.020119563
27	0xbd858d07	-0.065210395
28	0xbd35eeee	-0.044417314
29	0x3e037976	0.12839302
30	0x3da75f78	0.08172506
31	0x3b667519	0.003516501
32	0x3d32ce19	0.04365358
33	0xbdf44914	-0.11928001
34	0x3b647989	0.003486248
35	0xbdb279cd	-0.08714638
36	0x3e040947	0.12894164
37	0x3c4c7719	0.012479567
38	0xbd926a72	-0.07149209
39	0x3c8ec3e3	0.01742739
40	0x3e01e14d	0.12683602
41	0x3ddfd9c6	0.10930209
42	0x3e01279b	0.12612765
43	0xbb90f973	-0.004424268
44	0x3ce04324	0.027375765
45	0xbd5ab865	-0.05339851
46	0x3d1c8b17	0.038218584
47	0xbdcf69ae	-0.10127579
48	0x3d46fddd	0.048581947
49	0x3d7d1b85	0.061793823
50	0xbe0446e9	-0.12917675
51	0xbd53c0ea	-0.05169765
52	0xbcd5367d	-0.026026959
53	0xbd155f4d	-0.03646784
54	0xbd85903b	-0.065216504
55	0xbd4ce5fe	-0.050024025
56	0x3d99cbe0	0.07509589
57	0xbc93ea05	-0.018055925
58	0xbd9e97ce	-0.07743798
59	0xbe045adc	-0.12925285
60	0x3c84a9e6	0.016194295
61	0xbd4624e0	-0.04837501
62	0xbdc0643f	-0.093941204
63	0x3c0499ed	0.008093339

fc4.weight f4 [10, 64]
0	0xbe10690e	-0.14102575
1	0x3db08543	0.08619168
2	0x3d32ec16	0.04368218
3	0xbde00171	-0.10937775
4	0x3d26314b	0.040574353
5	0xbe11f288	-0.14252675
6	0xbdec5401	-0.1153946
7	0xbdb41143	-0.08792355
8	0x3d16543a	0.03670142
9	0x3bfe318b	0.007757371
10	0x3c38c7df	0.011278122
11	0xbe0e7b4e	-0.13914225
12	0x3e44ca8f	0.19217895
13	0xbd8765f8	-0.06611246
14	0x3c817cd3	0.015806591
15	0x3e3df16e	0.1854913
16	0x3dfb5547	0.12272125
17	0x3d4f3cf3	0.050595235
18	0x3dc5e743	0.0966325
19	0x3d1eb48c	0.0387464
20	0xbae1b72d	-0.0017220728
21	0xbdbc128d	-0.09183226
22	0x3d9654c9	0.0734039
23	0x3d00f472	0.03148312
24	0xbce98f1e	-0.028510626
25	0x3c350a16	0.011049768
26	0x3c1fe73f	0.009759723
27	0xbd91cdab	-0.07119306
28	0xbe295e1c	-0.16539806
29	0xbd385d6d	-0.045010973
30	0x3d628d29	0.055310402
31	0x3dd0091c	0.101579875
32	0x3e016847	0.12637435
33	0xbd0ed106	-0.03486731
34	0x3d930de2	0.07180382
35	0xbe0d0d45	-0.13774593
36	0x3e0359d6	0.12827238
37	0xbdf5a9de	-0.1199529
38	0xbda2f7d4	-0.07957426
39	0xbd1aa075	-0.03775068
40	0xbd09f83e	-0.033684008
41	0xbe179117	-0.14801441
42	0xbde45df4	-0.11150733
43	0x3dc98d22	0.09841372
44	0xbe138b1f	-0.14408539
45	0xbd356e9e	-0.044294946
46	0xbded9ff0	-0.11602771
47	0xbdc4ce25	-0.096096314
48	0xbda95daa	-0.08269818
49	0xbdcfab1e	-0.1014006
50	0xbdf2de12	-0.11858763
51	0x3da450b5	0.08023206
52	0x3dce7473	0.10080805
53	0x3dcb8a75	0.09938518
54	0xbe296637	-0.16542898
55	0x3d2c452e	0.042058162
56	0x3d825339	0.0636353
57	0xbb527a5e	-0.0032116394
58	0xbcd0d252	-0.025490914
59	0xbdf66ddc	-0.12032673
60	0x3e08d68a	0.1336309
61	0xbdd128de	-0.10212873
62	0xbe4dd975	-0.20102485
63	0xbdba3d9d	-0.09093783
64	0x3dfbab08	0.12288481
65	0xbe40a56b	-0.18813102
66	0xbe49c4b8	-0.19703948
67	0x3db9b20e	0.09067164
68	0xbe008ef6	-0.12554535
69	0x3ce13a0a	0.027493495
70	0xbe25b034	-0.16180497
71	0xbd2ee360	-0.04269731
72	0xbb907f8a	-0.004409735
73	0x3c9320f1	0.017960044
74	0xbdbf172f	-0.09330594
75	0x3e18922b	0.14899509
76	0x3d313575	0.04326387
77	0x3dc26877	0.09492581
78	0x3dca2481	0.09870244
79	0x3b07d797	0.0020727867
80	0xbccedbf2	-0.025251362
81	0xbe114e67	-0.14190064
82	0xbd65db17	-0.056117143
83	0x3b9d4295	0.004799197
84	0xbe090ce9	-0.13383831
85	0xbd68d7ca	-0.056846417
86	0xbe5fed5f	-0.21867894
87	0x3e129b0b	0.14316957
88	0xbcefd7ad	-0.029277647
89	0x3d858ad6	0.065206215
90	0xbdbe5bd3	-0.09294858
91	0x3dadccf3	0.084863566
92	0x3dd1452f	0.10218274
93	0x3e262636	0.16225514
94	0x3d923ab4	0.07140103
95	0xbdf9e99c	-0.122027606
96	0x3d1f4a9a	0.038889505
97	0xbd5d8909	-0.054085765
98	0xbe2d1f71	-0.16906525
99	0x3dc788b3	0.0974287
100	0xbe027b8c	-0.12742442
101	0xbe5db707	-0.2165185
102	0xbdd14445	-0.102180995
103	0xbd2a9037	-0.04164144
104	0xbe5b09ca	-0.21390453
105	0x3cd21885	0.025646457
106	0x3d8550fd	0.06509588
107	0xbda9ce85	-0.082913436
108	0xbb4b1c11	-0.003099207
109	0x3e176ced	0.14787646
110	0xbe0ff381	-0.14057733
111	0x3d15314b	0.036423963
112	0x3e3a0f0e	0.18169805
113	0x3dd3558f	0.103190534
114	0x3d0d4a36	0.0344946
115	0x3d80a0d8	0.062806785
116	0xbe3c74d2	-0.18403938
117	0x3d88c2c6	0.06677775
118	0x3e0fcbef	0.14042638
119	0xbe0d12cb	-0.137767
120	0xbdd7e0e0	-0.105409384
121	0x3d49dea6	0.0492846
122	0xbd84fa80	-0.064930916
123	0x3ca100cd	0.019653702
124	0xbd9a980a	-0.075485304
125	0x3d968a93	0.0735065
126	0xbd6b9cc3	-0.057522546
127	0x3dac89da	0.084247306
128	0x3d256caa	0.040386833
129	0x3df3a5a2	0.11896826
130	0xbce83c6c	-0.028349124
131	0xbbfbf789	-0.0076894206
132	0xbddcdb76	-0.10784046
133	0xbe36e999	-0.17862548
134	0x3cdb0b62	0.026738826
135	0xbbc59aa5	-0.006030398
136	0xbd30727d	-0.043077935
137	0xbcb125ce	-0.021624472
138	0xbd0fcd7d	-0.03510808
139	0x3e174e60	0.14775991
140	0xbcb33e95	-0.021880427
141	0x3db99389	0.09061343
142	0x3e200365	0.15626295
143	0xbd4fc5ed	-0.050725866
144	0x3e327aea	0.174297
145	0x3c23baa0	0.009993225
146	0xbb3facc4	-0.0029247263
147	0xbbdb1d01	-0.006686807
148	0x3c3c7e27	0.011504686
149	0x3e27c331	0.16383053
150	0x3d4b58ec	0.04964535
151	0xbdda1a2f	-0.106495254
152	0xbcadd9f3	-0.02122209
153	0x3cda4c5d	0.026647741
154	0x3dfb8240	0.122807026
155	0xbdc9fdf1	-0.098628886
156	0x3e1a1a26	0.15049037
157	0x3dcd34c2	0.100198284
158	0xbccd0c00	-0.025030136
159	0x3d576d5c	0.052594528
160	0x3b3eff9e	0.002914406
161	0xbd5e7392	-0.054309435
162	0xbe44da9d	-0.1922402
163	0xbe44b7c3	-0.19210725
164	0xbd8ab0a4	-0.06771973
165	0xbe0bff7a	-0.13671675
166	0xbe39aa42	-0.18131354
167	0x3df67a73	0.12035074
168	0xbd68feab	-0.056883495
169	0xbe03ef2e	-0.12884209
170	0x3d714ead	0.05891292
171	0x3dd8e4c2	0.10590507
172	0x3d0bd6f0	0.034140527
173	0x3c1ae5e3	0.009454223
174	0x3cf1c236	0.029511552
175	0x3dc02f66	0.093840405
176	0xbe694f7e	-0.2278423
177	0xbcc3e98c	-0.023915075
178	0xbe2014c9	-0.15632929
179	0xbddc2b00	-0.10750389
180	0x3dc844ee	0.09778772
181	0x3db4227c	0.0879564
182	0x3c944b9a	0.018102456
183	0x3e05f066	0.13079986
184	0xbd26f7fb	-0.040763836
185	0xbd5e27dd	-0.054237235
186	0x3d5090b0	0.050919235
187	0xbce4f775	-0.027950028
188	0x3d9c7171	0.07638825
189	0x3cbc4184	0.022980459
190	0x3ddedb7c	0.10881707
191	0x3ca01bfa	0.01954459
192	0x3de2b52b	0.11069711
193	0x3cc143a6	0.023591828
194	0x3ce66c96	0.02812795
195	0x3d0917a0	0.033469796
196	0x3dc64ac0	0.09682226
197	0x3e49aba6	0.19694385
198	0xbc7758c2	-0.015096845
199	0x3bc4485a	0.0059900703
200	0xbd55dc0d	-0.05221181
201	0xbe00f7b5	-0.12594493
202	0xbd92a5ef	-0.071605556
203	0xbe1df46d	-0.15425272
204	0xbde598c5	-0.11210779
205	0x3d1f5dbc	0.03890775
206	0xbd1457c0	-0.036216497
207	0x3c2a8ae1	0.010409088
208	0xbcfc2867	-0.030780984
209	0xbdc7a0d7	-0.09747475
210	0x3d7e898b	0.06214289
211	0x3dfa16cf	0.12211382
212	0x3d93ab5b	0.07210418
213	0xbbcec48a	-0.0063100504
214	0xbde89a6d	-0.113575794
215	0xbd275b0f	-0.040858325
216	0x3b346faf	0.002753239
217	0x3c21ce7c	0.00987589
218	0xbcd5d079	-0.026100384
219	0x3da20207	0.07910543
220	0x3c184761	0.009294362
221	0x3dc19e39	0.09454007
222	0x3dffbadc	0.124868125
223	0x3dcd4b59	0.10024137
224	0xbddbcc67	-0.10732346
225	0x3d6c5a12	0.057703085
226	0xbe0f1c52	-0.13975647
227	0xbd61574a	-0.055014886
228	0xbe325812	-0.17416409
229	0xbc81b956	-0.015835445
230	0x3b65c8b3	0.0035062253
231	0x3e162da3	0.14665847
232	0xbdc0bbc1	-0.09410811
233	0x3e2b491d	0.16727109
234	0x3daa6edc	0.08321926
235	0xbc647c13	-0.013945597
236	0xbd080e32	-0.033216663
237	0x3e1c22b6	0.15247616
238	0xbd51c300	-0.051211357
239	0xbe379fdc	-0.17932075
240	0xbe669e1b	-0.2252125
241	0x3d26225c	0.04056011
242	0xbcbef5ea	-0.02331062
243	0x3c874e41	0.016516807
244	0x3e1b9000	0.1519165
245	0xbcf91815	-0.030406991
246	0xbd61edaa	-0.055158295
247	0xbd361314	-0.044451788
248	0xbdc8bb31	-0.09801329
249	0x3e15829b	0.14600603
250	0xbe0fbdcf	-0.1403725
251	0xbc73dc6c	-0.014884096
252	0xbd88e531	-0.0668434
253	0x3ddd8548	0.10816437
254	0x3dc73851	0.097275384
255	0xbc9ba53e	-0.018999692

fc4.bias f4 [10]
0	0x3d929438	0.07157177
1	0x3d864714	0.06556526
2	0xbdf10e05	-0.11770252
3	0xbd6f39e8	-0.058404833
4	0x3d485375	0.048907716
5	0x3de58779	0.1120748
6	0xbd9f51b2	-0.07779254
7	0xbd2d5178	-0.042314023
8	0x3ce27959	0.027645754
9	0xbd679bdb	-0.05654512
