src/95546121171.pt (torch, 973831 bytes, 8 tensors)

fc1.weight f4 [256, 784]
00000000: 23ef 5dbc aee1 8b3b aec1 8e3b c76b aebc
00000010: 93c6 b13c 5783 9a3c 8112 bd3c fecd 13bd
00000020: f198 0e3c 5523 883c 6fcc 86bc 9995 5bbb
00000030: c096 21bd 1da6 eebc 3558 893c 6593 c33b
00000040: 8799 bb3b 6931 3ebb f31b 1abc f755 62bc
00000050: 0320 1f3c f4d3 00bd 6a7b 21bd 2965 d73b
00000060: 63f4 d13c 4e61 2dbd 394a bdbc 1241 71bc
00000070: dcba ffbc 8064 0ebd 995e cbbc 09e2 b53c
00000080: 6b4e 5f3c b7da a6bb ebf2 f2bc 5e5c 6cbc
00000090: 2546 febb 8e48 eabc 6c91 113c 7fec b9bc
000000a0: 1578 b2bc f827 31bd 8296 f7bc b84c b1bb
000000b0: d3ab 66bb 4651 bf3a c65c c73b a145 99bc
000000c0: d39c 9c3c 366d 2fbb f680 e8bc ddc7 d23c
000000d0: 370d 543c b933 38bb 5559 f0bc c5e6 cfbc
000000e0: b303 d13c cf83 443c a2db 16bd 8f58 1ebd
000000f0: 8407 933c e830 ebbc 7f19 803c 2f94 1eba
00000100: 5bbb 2cbc cb9f 20bc 64af e1bc c156 b1bc
00000110: 8a26 12bd 3824 18bd 9ec3 86bc 4073 23bd
00000120: aebb 58bd 5f88 abbc e113 e7bc 5675 3abd
00000130: 5866 90bc f379 fcbc d2e2 21bc 57b2 39bd
00000140: 829a f2bc 4ee5 c5bc 23e2 d73c d7cd 8dbc
00000150: 65f2 dfbc d703 09bc 3e7b 333c 1a5d 66bc
00000160: 525f b7bc e098 323c d2a7 813c 5e82 6d3c
00000170: 519e 84ba 9e89 a23b 19e9 4bbd 5162 c4bb
00000180: 53ef 9b3b d650 72bd 3e35 1ebd cc83 fabc
00000190: 9557 3dbd 01c4 98bd 0bee 41bd d687 9ebd
000001a0: 4bad efbc 5913 76bc c2e7 53bd 8826 cf3a
000001b0: d326 563c 06fa 90bc f7b1 38bd fc5f 24bd
000001c0: 9f97 b3bc b66b 523c f9fc 663c aad0 0abc
000001d0: f7c1 e8bc 0fb3 b2bb 2fb5 cdbc fb45 093d
000001e0: e0d4 f93c d99c 553d eaa2 1b3c 6656 143d
000001f0: a74b 5e3d fe7a 423d 5d7d be3d 7042 e23c
00000200: fc3a 313d 3518 953b e04a adbb 65d1 65bd
00000210: b601 34bd d44e 28bd 66f0 a3bd e3c3 6ebd
00000220: 128e 04bc 345e 4f3c 4d95 c0bc 3d9d 8a3c
00000230: d1b7 d6bc 89b2 c1bc 32bd bd3c 700f cf3b
00000240: d2d1 6bbc f427 e03a f50a 5c3d e834 8d3d
00000250: d3c3 653d d2b0 1a3d 28ae 1c3d 2864 083e
00000260: 52f8 143e e073 f33d b175 2f3e 04a0 b03d
00000270: aa74 0c3e db2a c33d 5fce 813d 6d72 6ebc
00000280: 7472 523c 0004 a4bd 6363 f9bc f104 24bd
00000290: 3c8d 533b ba10 323c bc79 6fbc 06a8 a33c
000002a0: 304e 1ebd f0c4 22bd dd46 1fbc c76a a9bc
000002b0: a14b f7bc 49c5 283d 3a76 b6bb 1034 443b
000002c0: 31ca 20bb 4a9e 3f3d 2f1d b63d c3e9 273e
000002d0: 3c09 153e db88 5a3e d487 343e b1a5 323e
000002e0: f723 1a3e 2597 193e 949e 5b3d af35 ddbc
000002f0: 9613 c1ba 6cff 31bd 0f50 41bc 74a6 01bd
00000300: e32c edbc cc82 ca3b dd5a b8bc ac6f aa39
00000310: 9717 0abc b8cd debb 864b 0e3c 4e6a 3bbb
00000320: 2ca5 7c3c d9b8 f73c bbd5 a039 554f 093d
00000330: a00e 9d3d 3ef2 843d a2b7 523d b144 333d
00000340: b479 ee3d 4e63 9b3d ad10 ec3d ba47 d63d
00000350: d163 ab3d b16a 933d 6a8d e53c bb7a 85bd
00000360: 12cd 16bd 2da8 b2bc b278 0fbb 868c f3bc
00000370: 32ab 9e3c 6d69 993d 0081 da3a 5271 36bc
00000380: 512f 33bd b590 13bd ccbf 4dbd 8adc 0e3c
00000390: 50f8 cfbc 41b2 c83b 5531 833c 00a9 493d
000003a0: ceb6 873d acee 883d 85dc d43d 5854 263d
000003b0: 5b79 9e3d a814 c23c 2e85 61bd d7e9 dabc
000003c0: 3296 5d3b 3359 20bd 2538 693d f0a1 e83c
000003d0: 649e 9b3c a648 243d 56a6 ab3c 5e90 213c
000003e0: 9c82 c43d 5596 703d 1981 f13c 5ece 3e3c
000003f0: 963f 26bd 1bb6 9a3c c738 c3ba 9597 053c
-0.013545784 0.0042688465 0.0043565845 -0.021291627 0.021701133 0.018861456 0.023080112 -0.03608512
0.008703456 0.01661841 -0.016454903 -0.0033505915 -0.039450407 -0.029131943 0.016765693 0.0059684985
0.005725089 -0.002902115 -0.009406078 -0.013814441 0.009712222 -0.031452134 -0.039424337 0.0065733385
0.025629228 -0.042329125 -0.023106681 -0.014724987 -0.031217031 -0.034763813 -0.024825381 0.022202509
0.013629536 -0.005091991 -0.029656848 -0.014426319 -0.0077598267 -0.02859905 0.008884769 -0.022695778
-0.021785775 -0.043251008 -0.030223135 -0.005410757 -0.003519763 0.0014596365 0.0060840575 -0.01870996
0.019117748 -0.0026767976 -0.028381806 0.025730068 0.012942604 -0.0028107 -0.029339472 -0.025378594
0.02551446 0.011994316 -0.036830552 -0.038658675 0.01794792 -0.028709844 0.015637157 -0.0006049303
-0.010542716 -0.009803723 -0.027549453 -0.021647813 -0.035681285 -0.037143916 -0.0164507 -0.039904833
-0.05291336 -0.02093905 -0.028207721 -0.045522057 -0.017626926 -0.030819869 -0.009880738 -0.045336094
-0.02961469 -0.024157193 0.026352948 -0.017310066 -0.027337262 -0.008362732 0.010954676 -0.014060283
-0.02238432 0.010900706 0.015827093 0.014496414 -0.0010117983 0.004960253 -0.049782846 -0.0059931655
0.0047587543 -0.059159122 -0.038624994 -0.030580424 -0.046226103 -0.0745926 -0.047346156 -0.077407524
-0.029257437 -0.015019261 -0.051734693 0.001580433 0.01307078 -0.017697345 -0.045091596 -0.0401306
-0.021922885 0.012843063 0.014098399 -0.008472601 -0.028412802 -0.0054534744 -0.02511081 0.033514004
0.030497015 0.052151535 0.009499291 0.03621521 0.054271366 0.047480576 0.09301255 0.02761957
0.043269143 0.004550005 -0.005288467 -0.056107897 -0.043946944 -0.0410908 -0.08004837 -0.05829228
-0.008090513 0.012656737 -0.023508692 0.01692068 -0.026210697 -0.023644703 0.023161504 0.006318979
-0.014393287 0.0017101751 0.053721387 0.06894857 0.056094956 0.037766285 0.038252026 0.13319457
0.14547852 0.11887336 0.1713474 0.086242706 0.13716379 0.095296584 0.0633819 -0.014553648
0.012844671 -0.080085754 -0.0304429 -0.040043775 0.0032280227 0.010868246 -0.014616426 0.01997758
-0.038648784 -0.039738595 -0.009721485 -0.020680798 -0.03018743 0.04120377 -0.005568293 0.0029938258
-0.0024534578 0.046781816 0.08892285 0.16397767 0.14554304 0.21341269 0.1762994 0.17446019
0.15052782 0.14999063 0.05361803 -0.027003137 -0.0014730569 -0.04345648 -0.011798873 -0.031652883
-0.028952068 0.006180143 -0.022504264 0.0003250813 -0.008428476 -0.006799426 0.008684998 -0.0028597298
0.015420239 0.03023951 0.0003067682 0.033522923 0.07668805 0.064915165 0.051444657 0.04376668
0.11644307 0.075873 0.11526618 0.104628995 0.08368648 0.07198084 0.028021533 -0.065175496
-0.036816664 -0.021808708 -0.0021892008 -0.029730093 0.019368742 0.074908115 0.0016670525 -0.011135416
-0.043746296 -0.036026675 -0.05023174 0.008719573 -0.02538696 0.006124765 0.016014734 0.049233437
0.06626664 0.06686148 0.10393623 0.04060778 0.077379905 0.02369149 -0.05505865 -0.026722832
0.0033811447 -0.039147567 0.05693831 0.02839753 0.018996425 0.040108345 0.020953339 0.00986108
0.09595224 0.058737118 0.029480504 0.011645881 -0.040587984 0.018885663 -0.001489424 0.008153816

fc1.bias f4 [256]
00000000: 2367 d2bb ee7f 16bd d25f 2cbd 1bd1 a93c
00000010: e091 28bd bf72 4b3b 2de6 8b3c 1cfe 753c
00000020: 0d2f 13bc cb6d c4bc db3b 54bd 4e7e 2bbd
00000030: 740d 44bd e804 24bd 8301 abbc 46c2 c5ba
00000040: 175d 9f3b f666 22bc 3af0 90bc 4e5b e6bc
00000050: 94a9 543b 71be 37bd 861c 8a3c 6cca 3c3c
00000060: d1ae 53bd 3bb0 02bc 9e14 ea3b 2ae4 823c
00000070: bb36 48bc c665 0fbd 28ac 183b 7953 cc3c
00000080: 2c7f a6bc c18e 043c 8af2 f5bb c4fe 43bd
00000090: 0d60 853c 77b8 d73c d1a1 bebc 6646 abbc
000000a0: 14bc 81bb 908b 103c 6b2d 253d 1f6e 1abd
000000b0: aa30 9f3c 13d6 acbc 8a7e 98ba 0777 c3bc
000000c0: 3366 53bc e0ef 9cba 0003 90bc ee11 b0bb
000000d0: 2727 30bd e4ab ddbc d117 2dbc 17a6 4cbd
000000e0: 6e0b ad3c 14da 983c 4771 ec3b b003 4fbd
000000f0: 7391 ffbc 1c02 2dbd 328f 31bd ef1c 10bd
00000100: 7275 8dbc bbf2 21bc ffe0 bdbb e2b5 06bc
00000110: ac0f bd3b 9441 d2bc 711c d7bc 2ea1 0abd
00000120: 5921 fc3c 4f2a 2d3c 37fb a6bc 1a3c cd3c
00000130: c9b6 7e3c 85ef 1ebd 2831 fe3c d5fd 153c
00000140: 872c 2d3c 7975 903c e61e e7bb b3fd 29bc
00000150: 132c 4ebd 1ab2 f5bb 126f aa3c b47a 2fbd
00000160: afda 27ba 281d c03c c97f e8bb d22d 43bb
00000170: a47e ad3b 9346 b5bc d8ec f2bc 048b 9c3c
00000180: 9f99 cebc 98ef e1bc 62bc 43bd 3509 48bc
00000190: c52e cdbb 074b f7bc e40f 53bd 7884 e13b
000001a0: 8e18 30bd feb5 42bd 4b90 58bd e2fc 9e3c
000001b0: b955 56bd 14a8 07bb 5052 adbc cea2 2abc
000001c0: 9aae 473b 6830 06bd 907a 83b7 eb7f 0f3d
000001d0: 3a5f 37bd 7108 3c3c c41c 05bd 92d4 8bba
000001e0: 5a6a e5bb 2247 57bd a3b5 a8bc d6d5 84bc
000001f0: 2c04 0a3b 42f6 2c3c 545e 9dbc 1f48 45bd
00000200: 954c 72bd b840 a2bc a9b9 1abd a151 a5bc
00000210: 4c85 cfbc fa50 56bd e4ff 063c 5118 0ebd
00000220: ddc0 f8bb 2bb4 88ba 6215 cbbc 2fd9 1ebd
00000230: 7fb7 29bd 37df 19bd c1b7 25bc 740c 113c
00000240: 5a84 1a3c ba17 fbbc 95ea c43b 059e 5ebd
00000250: fb81 51bc 4f8c 18bb bd84 b5bc 10af 2dbc
00000260: 6c8d 31bb ff2c 3fbd 6a14 fbbc 0d34 36bd
00000270: cd4c 9e3b f7bd 493c 6a81 353c 85ac 563c
00000280: b8f9 5bbc a2dd c3bb 78c4 9b3b cfd9 103d
00000290: 65f9 a8bc 12aa 8a3c 1468 e33b 3ebc 5bbd
000002a0: ea11 5cbd a509 0cbb b8c0 5cbd 556c e5bc
000002b0: 267c fdbb 73fd 27bd 138d 51bd d681 6e3c
000002c0: 3e1d a0bc cc73 6a3c 1b67 84bc b56b 933c
000002d0: f145 aebb dd2d 843a 64b8 0ebd fe6f 073c
000002e0: ce1f e7bc 7e9f c2ba ea9b c6bc 31c1 96bc
000002f0: a1e8 debc e5d9 313c 7b4e 67bc ae1a 0abd
00000300: 38b1 68bc 1344 f7bc 7edc 03bd 42cc 083c
00000310: 3591 4b3a 097c 2f3b f9c3 cebc 64a7 34bd
00000320: 6f90 513d 2688 85bb ce62 4a3b 7d20 e3bb
00000330: b462 07bc b042 83bc 8709 44bd b96d 823c
00000340: 924a 0fbc 3603 bd3c de36 0ebd d85b 5e3c
00000350: e1ad fdbb 2ce1 eabc c9c3 15bd c6e3 e03c
00000360: 8abb f53a a175 f3ba f85b 16bd 1e7a 67bc
00000370: 6b7a 8d3c 5227 67ba f511 b1bc 7b29 0a3d
00000380: 8118 71bc 7801 983c 20cd cbbc d366 4abd
00000390: 0d55 e1bc 200b 4a3c 5d13 abba 99d9 34bc
000003a0: aa6a 22bd 290b 69bc bb30 35bd 2c43 80bc
000003b0: fd73 fbbc e054 60bb 6ec3 673c fe25 a5bc
000003c0: 162d 4f3c b3c1 83bc 2929 32bd e0d1 dfbc
000003d0: 4b5f 2f3d ea0e 963c a89d a5bc e862 30bc
000003e0: 68f3 193c 873b 083c 5497 20bc 2878 b7bc
000003f0: 0bb1 50bd 4dd6 7c3c 7f0c 9ebc b421 b1bc
-0.0064209863 -0.036743097 -0.04208357 0.020729592 -0.041154742 0.0031043736 0.01707753 0.015014198
-0.008983386 -0.023978135 -0.051814895 -0.0418685 -0.047864392 -0.04004374 -0.020874744 -0.0015087805
0.004863392 -0.009912243 -0.017692674 -0.02811971 0.003244971 -0.044859353 0.016859304 0.0115228705
-0.05168039 -0.007976587 0.007143571 0.015977938 -0.01222008 -0.035009168 0.0023295972 0.024942147
-0.020324312 0.008090676 -0.0075057195 -0.047850385 0.016281152 0.026333077 -0.02327052 -0.020907592
-0.0039591882 0.008822337 0.040326517 -0.037702676 0.019432385 -0.021098172 -0.0011634391 -0.023860468
-0.012902784 -0.0011973344 -0.017579556 -0.005373231 -0.04300609 -0.027059503 -0.01056476 -0.049963083
0.021123614 0.018658675 0.007215652 -0.050540626 -0.031197285 -0.04223834 -0.043349452 -0.035183843
-0.017267916 -0.009884532 -0.005794644 -0.008222075 0.0057696905 -0.025666036 -0.02625868 -0.03384512
0.03077762 0.010569169 -0.02038346 0.025053073 0.015546509 -0.038802642 0.031029299 0.009154757
0.010569698 0.01763414 -0.007053244 -0.010375428 -0.050335 -0.007498038 0.020804916 -0.04284163
-0.0006403131 0.023451403 -0.0070953113 -0.002978195 0.0052946378 -0.022128379 -0.029653952 0.019109257
-0.025219737 -0.027580068 -0.047787078 -0.012209226 -0.006261679 -0.030187143 -0.051528826 0.0068822466
-0.042992167 -0.047536843 -0.052871983 0.019407693 -0.052327845 -0.0020699548 -0.021157414 -0.010414792
0.003046906 -0.032761008 -1.567349e-05 0.0350341 -0.04476855 0.011476622 -0.032498136 -0.0010668209
-0.0070012035 -0.052558072 -0.020594424 -0.016215246 0.0021059616 0.010556759 -0.019210018 -0.048164483
-0.059155066 -0.01980625 -0.037774716 -0.020180525 -0.025332116 -0.05232332 0.00823972 -0.03469116
-0.0075913505 -0.0010429671 -0.02479047 -0.03878134 -0.04143476 -0.03756639 -0.010114611 0.008853067
0.009430969 -0.030650962 0.0060094097 -0.054349918 -0.012787337 -0.002327699 -0.022158021 -0.01060082
-0.002709235 -0.04667377 -0.030649383 -0.044483233 0.0048309327 0.012313358 0.011078218 0.013102655
-0.013426237 -0.0059773484 0.0047536455 0.03536397 -0.020626733 0.016926799 0.0069398973 -0.05364632
-0.05372802 -0.0021368053 -0.05389473 -0.028005758 -0.007735747 -0.041013192 -0.05115993 0.0145573225
-0.019545194 0.014309835 -0.016162446 0.017995695 -0.0053183963 0.0010084469 -0.034843817 0.008266447
-0.028213408 -0.0014848558 -0.024244267 -0.018402668 -0.027210535 0.010855173 -0.014117832 -0.03371685
-0.0142024085 -0.030183828 -0.0321927 0.00834948 0.0007765473 0.0026776812 -0.025239931 -0.04410495
0.051163133 -0.004075068 0.0030881646 -0.006931363 -0.008263279 -0.01602301 -0.04786065 0.01592146
-0.008745806 0.02307282 -0.034720294 0.013571702 -0.0077416752 -0.028671823 -0.03656367 0.02745236
0.0018747908 -0.0018574485 -0.036708802 -0.014128236 0.017270287 -0.000881781 -0.021615008 0.033730965
-0.014715315 0.018555388 -0.024878085 -0.049414467 -0.027506376 0.012331754 -0.0013052035 -0.011038207
-0.039652504 -0.014223852 -0.044235926 -0.01565703 -0.030694956 -0.0034230277 0.014145715 -0.020159718
0.012645027 -0.016083574 -0.043496285 -0.027321756 0.042815488 0.018317658 -0.020216778 -0.010765769
0.0093964115 0.008314974 -0.009801704 -0.022396162 -0.05095009 0.015431953 -0.019293068 -0.021622516

fc2.weight f4 [128, 256]
00000000: 7a85 bc3d 4ac2 80bd d328 a93d 2293 493d
00000010: 0a7a c8bb 6001 11bc a216 44bd a95f 1cbd
00000020: d685 dd3c 7816 dabc 8a86 a1bd 4842 243d
00000030: 4e09 323d a182 19bd b7b0 c83b d509 66bd
00000040: d340 0b3d 98e6 f23c b57a 1cbd db14 773d
00000050: 2011 76bd da31 f53c 7ec8 09bd 5c15 b6bc
00000060: 689f 32bd 87fe 2abc 1012 113c b345 9fbc
00000070: 1cb5 ec3c 01d8 8abc 674c 5cbc 6759 183d
00000080: a4ac a63c ee1c 20bd b478 dd3d bb28 4a3d
00000090: 5e78 a23c c53a 9bbd 24ec e03c d31c b0bb
000000a0: 8e42 6dbd de28 093d 4a05 253d 9fd3 38bd
000000b0: da31 e53c 3420 88bd 4853 db3d 2014 a63d
000000c0: 509c 853c 95ed 16bd 1e80 223d 1bf2 2c3d
000000d0: de62 69bd 0f1a 853d de00 943d 2085 eabb
000000e0: 2544 3dbe dae5 6abd 5f48 9abb 5e95 a4bc
000000f0: 5bcf b23b 88c5 d13c 02c5 27bd a93e 693d
00000100: 3d87 2fbd f894 383d 7c61 0f3d 5aa4 25bd
00000110: 3132 15be 4802 113d 2bb9 f03d fc1c babc
00000120: 5a8e 23bc 46a2 603d 7716 e23d 4236 b93d
00000130: ccac 293d f232 4c3d 882c 06bd 5e1a 2abc
00000140: 94e5 57bd 3621 293d 23e0 9bbd b49e 0e3d
00000150: 6cbc 403d 83d8 a43a 0d77 f5bd 20a1 133d
00000160: e004 4bbc d758 27bd afd9 71bd a4a2 03bd
00000170: 9b5b d7bc 3ac7 033b 8026 1c3d 75d7 923d
00000180: 1b82 2ebd 9fdf 1f3b 7c7d 243c a249 643d
00000190: a418 bd3c f6ef ff3c d304 513b ada2 56bd
000001a0: dcf0 a83c 82af 59bd 5c9a 5b3c 7a9d 483d
000001b0: 859f 623c 0685 1fbd 99a3 993c d3af c0bc
000001c0: 80e5 e53c 9a85 143c cfad 2e3d fada 69bc
000001d0: d9aa 293d 1301 053d 47db 043d 9ed7 e83d
000001e0: 5dc5 1fbe 5672 0abd 4710 573d f930 64be
000001f0: bc9e d93c 4d12 b93c 4877 3b3d d418 52bd
00000200: c0c3 66bd a8d9 a4bc c6fb 05bd 895c 013d
00000210: b71d 8d3c efe0 b6bd 86fb 3c3d 49da 1bbd
00000220: 3a3c 4d3c d539 a03d dc3a d03c 116b 94bc
00000230: 5711 ffba 94a1 09bd 42aa 6dbd 03f0 523d
00000240: c11e 94bd b1aa cf3c 84a9 823c 66f3 12bd
00000250: 4354 d13c 4cf8 ad3c a959 403d 1f88 ad3b
00000260: f454 9a3d 202b 853d f496 703a d0d4 18bd
00000270: d117 bebb 8a06 a3bc 27f3 b03c 7621 a43d
00000280: adde 9dbe 9ad7 b7be c497 843d 1898 af3d
00000290: 329d 0b3d ae30 e6bc 7fd0 96bc 1a9b 85bc
000002a0: 440d 2dbd 6630 61b9 fdbb c1bb d7a7 e83b
000002b0: 35ce 93bc d716 e5bc e306 76bd 0989 fd3c
000002c0: c837 663d 412b 093d f41a 75bd eeb1 b4bd
000002d0: 5dba 3f3d 2a91 033e 7394 e03c b887 1cbc
000002e0: d590 16bc ebb2 a7bd 447e 8bbc e32f 57bc
000002f0: 644d 663c d044 f0bc 0c61 7f3d 628a 00be
00000300: 3b71 6d3c 8fdb ba3c ae3a 1cbd 0ce1 433d
00000310: 5e71 243d 64bd 8b3c 0fe9 81bc ecb9 9b3c
00000320: 8ec1 b33d f1fd 9cbd 80c1 1eba ab30 91bb
00000330: b95d 8bbc f735 53bd 490b 523d 05f4 893b
00000340: 6d8d 76be 2a42 5bbc 8288 4ebd 3423 fdbc
00000350: 3361 1dbe 6d3a 52bd d873 07bd eaf7 3abd
00000360: 7bc3 813d 2102 94bd 4058 0f3b 149d 313d
00000370: 154d 7fbd e3ac a7bd 0751 35bc 6d7b c1bc
00000380: ca23 45bd ae8a dc3d a31e 963c 6299 cbbd
00000390: 6513 2c3c 5105 76bd 2579 2a3c 4e1a 6c3d
000003a0: 5977 01be 90c9 87bb ac3c 16bd 5cf4 833c
000003b0: b506 2c3d eb45 d33d 922a 1f3d 5fc1 24bd
000003c0: 55cc 993d 2c9e 373c f688 e3bd ac0d 803c
000003d0: ab1e 7a3e 6c2f c23d b30c babc a168 05be
000003e0: 4ca8 f4bc c54b 7f3d 413c 3e3d 3478 b2bc
000003f0: 9921 9cbc 774d d8bd 9ea0 573d 13df a2bd
0.09205146 -0.06287058 0.0825974 0.049212582 -0.006118064 -0.0088504255 -0.047873147 -0.038177166
0.027041357 -0.026622042 -0.078869894 0.040102273 0.043465905 -0.037478093 0.0061245817 -0.05616172
0.033997368 0.029650971 -0.03820296 0.060322624 -0.060074925 0.029930998 -0.03363847 -0.022226982
-0.043609053 -0.010436661 0.008854404 -0.019442415 0.028894953 -0.016948702 -0.01344595 0.037194636
0.020345993 -0.03909009 0.10814038 0.04935525 0.019832786 -0.07579569 0.02745635 -0.00537453
-0.0579248 0.03348624 0.040288247 -0.045123693 0.027977873 -0.06646767 0.10709244 0.08109307
0.016309887 -0.03684767 0.039672963 0.042223077 -0.056979053 0.06499111 0.07226728 -0.007156983
-0.18483026 -0.05734811 -0.0047083343 -0.020090755 0.0054568476 0.025606886 -0.040959366 0.056944523
-0.042853583 0.045063943 0.035005078 -0.04043994 -0.14569928 0.035402566 0.11754068 -0.022718899
-0.00998267 0.054842256 0.11039441 0.09043552 0.041424558 0.049853273 -0.032757312 -0.010382263
-0.052709177 0.041291438 -0.0761111 0.03481932 0.047054693 0.0012576733 -0.11985598 0.036042333
-0.012391299 -0.04085621 -0.05904549 -0.032137528 -0.026288798 0.0020107762 0.038122654 0.071700014
-0.042604547 0.0024394763 0.010039683 0.055734284 0.023083039 0.031242352 0.0031893745 -0.052401233
0.020622663 -0.053145893 0.013403501 0.048978306 0.013831978 -0.03894522 0.018754767 -0.02352134
0.028063536 0.009065056 0.042646226 -0.0142733995 0.0414227 0.032471728 0.03243568 0.11369251
-0.15602632 -0.033800445 0.052505758 -0.22284307 0.026564948 0.022591734 0.045768052 -0.05129321
-0.056339025 -0.020123318 -0.032710813 0.03158239 0.017226083 -0.089296214 0.04613831 -0.03804997
0.012526566 0.078235306 0.025418691 -0.01811746 -0.0019460124 -0.03360136 -0.0580237 0.051498424
-0.07232428 0.025349947 0.015949972 -0.035876654 0.025552874 0.021236561 0.046960507 0.005295768
0.07535735 0.06502366 0.0009177767 -0.03731233 -0.005801179 -0.019900579 0.02160032 0.08014195
-0.3083395 -0.35906678 0.064742595 0.085739315 0.03408546 -0.028099384 -0.018409966 -0.01630931
-0.04224898 -0.00021475702 -0.0059123025 0.007100086 -0.018042663 -0.027964992 -0.06006516 0.030949133
0.05620554 0.033488516 -0.059840158 -0.08823 0.04680859 0.12848344 0.027414536 -0.009553842
-0.009189804 -0.08188423 -0.017027982 -0.013133976 0.014056537 -0.029329687 0.06234841 -0.12552789
0.014492328 0.022809772 -0.0381419 0.047822043 0.040147178 0.017058082 -0.015858201 0.019009553
0.08777152 -0.07665623 -0.00060560554 -0.0044308505 -0.017012464 -0.051565137 0.051280294 0.0042099976
-0.24077387 -0.013382474 -0.050423153 -0.030900575 -0.1536911 -0.05132525 -0.03306946 -0.045646586
0.06336113 -0.072269686 0.002187267 0.043362692 -0.06232937 -0.081872724 -0.011066682 -0.023618424
-0.048129834 0.107686386 0.018325156 -0.09941365 0.010502671 -0.060063664 0.01040486 0.057642274
-0.12643184 -0.004143901 -0.036678955 0.01610773 0.041998584 0.1031607 0.038858958 -0.040223476
0.07509676 0.011207145 -0.111101076 0.01563152 0.24425761 0.09481701 -0.022711134 -0.13028194
-0.029865406 0.06232812 0.04644418 -0.021785833 -0.01905899 -0.1056165 0.05264341 -0.07952704

fc2.bias f4 [128]
00000000: 3b20 473d 9ea2 bf3d 1e07 89bd 6e9f 8fbc
00000010: 9227 55bd 1b28 d23c 0d61 2fbd 661e a2bd
00000020: 1dc1 8bbd b0dd 0cbd afc9 eabc 6f25 48bd
00000030: cd6e 74bd fd07 20bd 7b89 2b3d 8670 86bd
00000040: a299 84bd f0a0 9abd 3668 993c 2f16 83bd
00000050: d44d f13b 77e7 4cbd ce69 8e3d 0da0 703c
00000060: 58c5 203c 958f 25bd 226d d3bd a791 f63c
00000070: 571e 0c3d 6d52 aabc 904f c7bd 3e35 04bd
00000080: 87b4 4f3d f54d 63bd 9cda 4fbd 56fa ffbd
00000090: 4039 84bd b56c 363a 2d8b 813c b91d 9bbd
000000a0: ddb9 6ebd b677 28bd 36c6 88bd 7a6c 6b3d
000000b0: e1f8 fe3c ec6e 58bd ee55 9d3c 64ba a3bd
000000c0: f0ca 48bc 2894 763d 16d9 7abb 3ca4 d4bd
000000d0: c68a 8bbd bf9b c93c 49d1 adbd 7e00 d2bc
000000e0: af62 053d de43 faba a1a1 443d fe02 dbbd
000000f0: e519 c13c d247 6bbc 121c f83b 058d 9f3d
00000100: 1980 8fbd e981 353b 2ee3 27bd ecd0 31bd
00000110: 8c1e bfbd b776 583d 863d 88bd 2c6a 48bd
00000120: 4ba7 033b 2c84 853c 87fb 953c fb69 f8bd
00000130: 1888 8d3b ba0d 2a39 caa5 00bc 78fe 8d3c
00000140: 6183 4a3d ec1b 24bd b29f 0bbb 659b e9bc
00000150: e81d 67bd bc29 51bd 6226 80bd 1ac3 38bd
00000160: b01d bd3c 6ec3 9ebd 3634 a4bb 3981 9abd
00000170: dcef babd 3b58 b3bc 21bd 01bd 44a1 a5bc
00000180: 9e39 88bd fb1c c63c ce17 a3bd 428c debc
00000190: 2562 783c 0b4e 9fbd c194 30bc cf7c 6fbc
000001a0: c3d1 e1bc 0d4c 4c3d f4ed e73c 3243 dabd
000001b0: 1e36 e73c 3aa3 7d3c b3f7 663d 6805 a6bd
000001c0: 8048 b2bc d8a2 b03d e6fb 62bd 4a5f b0bd
000001d0: 1e24 643d 046f b5bb 7c90 91bd 1703 35bd
000001e0: e780 f43c e21b 113e 8a23 22bd 5732 a6bd
000001f0: 1019 e4bd 1542 a3bd abd1 b13d 67a1 bcbd
0.04861472 0.09357189 -0.066908106 -0.017532077 -0.05203969 0.02565389 -0.042817164 -0.07915954
-0.06823943 -0.034391105 -0.028660623 -0.048863824 -0.05967598 -0.03907012 0.04187916 -0.06564431
-0.06474616 -0.07550228 0.01872645 -0.064007156 0.007364014 -0.05002543 0.069537744 0.014686597
0.009812675 -0.040420134 -0.1032355 0.03009875 0.03420862 -0.020791257 -0.09731972 -0.03227734
0.050709274 -0.055494267 -0.05074559 -0.1249892 -0.06456232 0.00069589476 0.015813434 -0.075740285
-0.05828272 -0.04112979 -0.06678431 0.0574765 0.031124534 -0.05284016 0.019206014 -0.079945356
-0.012255415 0.060199887 -0.0038276366 -0.10382888 -0.06813578 0.024610398 -0.084871836 -0.025635
0.032564815 -0.0019093712 0.048005704 -0.1069393 0.023571918 -0.014360385 0.0075717056 0.07790569
-0.070068546 0.002769584 -0.04098814 -0.043412134 -0.09331998 0.05284759 -0.0665236 -0.04892938
0.0020088728 0.016298376 0.018308414 -0.12129589 0.004319202 0.00016217577 -0.007852027 0.017333254
0.0494417 -0.04006569 -0.0021304903 -0.02851648 -0.056425005 -0.05106519 -0.06257321 -0.04510794
0.023085445 -0.07752119 -0.005011107 -0.075441785 -0.09127781 -0.021892658 -0.031674508 -0.020218499
-0.066516146 0.02418374 -0.07963525 -0.02716649 0.015160118 -0.077785574 -0.010777653 -0.014617159
-0.027565842 0.049877215 0.028311707 -0.10657348 0.028224047 0.015480811 0.056388568 -0.081065
-0.021763086 0.0862481 -0.05541601 -0.08611925 0.055698507 -0.0055369157 -0.07107636 -0.0441924
0.029846622 0.14170793 -0.039584674 -0.0811507 -0.11137593 -0.079715885 0.08682569 -0.092104726

fc3.weight f4 [64, 128]
00000000: e89e febc 779d 95bd eda7 d7bd 28e9 db3d
00000010: 0f93 483d 9e3a 8c3d ac44 fdbc edcc 033d
00000020: ad43 b03d bd3c 2fbd 4ce5 aa3d f4ec e33c
00000030: cec9 60bd 0723 8b3d 9bca 47bd ea5b f6bb
00000040: 3c83 3c3d 4e69 f13c 15e8 c23d 0411 12bd
00000050: 3a4a ec3c fe23 e4bc e499 313e 55b0 d5bd
00000060: 1214 843d 2421 193c 0195 953d 06a0 4cbd
00000070: cfb3 02be 06d2 83bc 7b5a b1bc a6d1 aebd
00000080: 8e6e 1abd 2a2f 37bd 11a4 703d f3b3 0fbe
00000090: 29d9 e93d 9656 1cbe 3c39 1f3d 7c68 a13c
000000a0: ce83 61bd 7df0 613d 9aa6 99ba b089 433d
000000b0: e3de aa3d c589 a83d 3ea1 f7bd 12bc 663c
000000c0: 3906 d8bb 8ed2 d13d 404e 8dbd 580e 31bd
000000d0: 2817 febc 3dc4 47bb 27ee 813d b8a6 683d
000000e0: 2564 54bd a7c9 b03d c907 8d3d 71ec 78bd
000000f0: 1598 8a3d 7ff0 4abd fcdf 64bd cfb8 493d
00000100: 9f2c 43be 7ac0 36be 64e5 40ba 66f8 a6bb
00000110: 16fd 2b3d 6398 dcbc 7063 8ebd 9603 7f3d
00000120: 68b7 d3bd b221 053d 079a 15bd e960 13bd
00000130: 6758 96bd 000c 3b3e 900a a8bc 0381 5d3d
00000140: bb8b 8d3d 29eb c43c 4f1c c53d 7a62 87bd
00000150: 650b 4abd 9715 c03d f9ad dfbc b245 033c
00000160: f7c1 803d 0f28 92bd 86a7 8cbd 3b3c d8bd
00000170: f2e8 723d c453 a5bc 7b03 f53d 90b9 5fb9
00000180: 6195 8c3d 7a1d 663c 281e 56bd 37a7 443d
00000190: 4027 07bb 321e 013a a7bb 9c3d 7c19 9cbd
000001a0: 30b6 d73d 4104 f03c f159 833d c655 1c3c
000001b0: 4505 18be 13c4 0d3d 4477 11bd 36ce a43d
000001c0: 0485 bc3d eba4 8dbd 7ad5 14bd 6b1f 073d
000001d0: 89aa 82bb dcf8 b13d 67d0 823d 71c4 003d
000001e0: 5e07 d63c b0f4 c9bd 3a6c 9b3d f11f c9bb
000001f0: 5cd5 1c3d a89b a23c adfa 73bd b9a1 d23d
00000200: 2491 e3bd 1a59 ba3c 6a21 bb3d c227 4c3d
00000210: f967 343c 3720 06be c5bf 07bd cd0e 933c
00000220: 8def e03b 31ef 29bd 8903 7fbd 1571 8abb
00000230: 2120 65bd 8377 0cbd e3b1 4fbd c30a c23c
00000240: 4815 cbbd 4d35 4abd 3429 3dbd 4050 9fbd
00000250: 2488 a5bc 5049 4c3c b757 1f3d 9fa2 c8bc
00000260: 7937 f7bd f1b8 423c 9262 323c 97d1 6e3d
00000270: 749f 4d3d 563d b2bd f328 443d 7930 703d
00000280: 7087 983c 5a9a c43a 882c a8bc acf4 9a3d
00000290: aa6e 9c3d 242a b63d 2c2f f63c 21c0 153d
000002a0: 111d 8cbc 75f6 ee3c c4df da3d 7c30 21bd
000002b0: 821d d6bc 8bf7 143e 40b6 75bd 854b 34bd
000002c0: ea5e 27bd 36a8 34be fd55 9abd 9469 823c
000002d0: 3b64 ccbb 8c9f 78bc fa23 8cbd 2793 4bbb
000002e0: 3284 c3b9 c0fe b93c 8a2d a2bd bcf8 c13d
000002f0: a066 2dbd 5f55 5e3d 1875 563d 6b18 1ebc
00000300: 6301 323e 9f60 123e 0af9 793b 11ac 3a3c
00000310: 96d6 e13b 4104 1f3d 9c61 253d 6f64 853d
00000320: 4f6a 493d 647a ee3d e6e5 1f3d b7b1 aebb
00000330: 415a 973c 9630 233c 2ebc 5bbd 79ae 033d
00000340: fb37 7b3d 19cc adbd c90f 8bbc f787 92bb
00000350: 0258 593d c410 ee3d 64d5 dfbc 6a75 013d
00000360: 1244 b63b f08a 483d 272a 383c eff1 2e3d
00000370: a791 7d3c 504f 23bd b9b7 78bd 632f 4ebd
00000380: cc9e 81bd 0328 08be 7fca 7dbd 1953 c33c
00000390: 8278 b63c 7b28 413d aa3e 51bd 0fac c7bc
000003a0: f77d 04bd 5653 b1bc ed81 a83b 1849 723d
000003b0: 44e8 1c3d 3863 cdbd 7ffa 413d 3bb0 943d
000003c0: 501e fe3c eb19 d43d 7880 1d3e 53d0 c2bc
000003d0: ffaf 36bd cb88 0d3d 66d2 453d c9ad 4dbc
000003e0: 1dac afbc 1521 eabd 901c cdbd 6906 1c3d
000003f0: ebbd 933d 4d60 4a3d 8808 f13c 55b6 02be
-0.031081632 -0.07305425 -0.10530076 0.107378304 0.04896837 0.06847118 -0.030916534 0.032177854
0.08606658 -0.042782534 0.08344516 0.027822949 -0.054879956 0.0679379 -0.048777204 -0.007518281
0.046023592 0.029469159 0.095169224 -0.03566076 0.028843988 -0.027849194 0.17343861 -0.10434023
0.064491406 0.00934628 0.07303811 -0.049957298 -0.12763904 -0.016091358 -0.02164959 -0.08536081
-0.03770309 -0.044722714 0.058750216 -0.14033489 0.11418373 -0.15267405 0.038872942 0.019703142
-0.05505734 0.055160988 -0.0011722625 0.04773873 0.083432935 0.082294025 -0.120913014 0.014082925
-0.0065925387 0.10245238 -0.06899691 -0.04322657 -0.031016901 -0.0030481957 0.06344252 0.05679962
-0.051853318 0.08632212 0.068862505 -0.060772363 0.067672886 -0.04954576 -0.05587767 0.049248513
-0.1905999 -0.17846861 -0.00073584006 -0.0050955294 0.04198941 -0.026928132 -0.0695256 0.06225928
-0.10337716 0.032502837 -0.036523845 -0.035981093 -0.0734108 0.18266296 -0.02051285 0.054078113
0.06911417 0.024037914 0.0962454 -0.0661058 -0.049327273 0.09379118 -0.027304636 0.008012222
0.06286996 -0.07136547 -0.0686789 -0.10558363 0.059304185 -0.020181544 0.119635545 -0.00021336065
0.06864429 0.014045114 -0.052274853 0.04801103 -0.002062276 0.0004925459 0.07652979 -0.07622048
0.105327964 0.029298903 0.06413639 0.009541934 -0.1484576 0.03461082 -0.03551413 0.08047144
0.09205058 -0.06916221 -0.0363364 0.032988947 -0.0039876145 0.08690044 0.06387406 0.03143734
0.02612656 -0.098611236 0.07589002 -0.006137841 0.038289413 0.019849613 -0.059565235 0.102847524
-0.11111668 0.022747565 0.091372326 0.049842604 0.011011117 -0.13098226 -0.03314187 0.017951393
0.006864494 -0.041487876 -0.06225923 -0.004224906 -0.055938844 -0.034293663 -0.050706755 0.023686772
-0.099161685 -0.049367238 -0.046181872 -0.07778978 -0.020206518 0.012468651 0.03890201 -0.024491606
-0.120711274 0.011884914 0.010887759 0.05830535 0.050200894 -0.08703105 0.047890615 0.058639977
0.01861927 0.0014999614 -0.020529047 0.07566199 0.07638295 0.088947564 0.03005179 0.03656018
-0.017103704 0.029170254 0.10687211 -0.03935288 -0.026137117 0.14547555 -0.05998826 -0.044017334
-0.040862 -0.17642292 -0.07535932 0.015919484 -0.0062375343 -0.015174758 -0.068427995 -0.0031063051
-0.00037291792 0.022704482 -0.07918842 0.094712704 -0.0423342 0.054280635 0.052357763 -0.009649376
0.17383341 0.1429467 0.0038142824 0.011393563 0.0068920357 0.038822416 0.04037629 0.06513297
0.04917365 0.11644438 0.039037608 -0.005331244 0.018475654 0.009960314 -0.05364626 0.032148812
0.061332684 -0.08486194 -0.0169753 -0.0044717747 0.053062446 0.116242915 -0.027323432 0.031606115
0.005562314 0.048960626 0.011240519 0.042711195 0.015476621 -0.03987056 -0.060722087 -0.05033816
-0.06329116 -0.13296513 -0.061960693 0.023843335 0.02227426 0.047157746 -0.05108515 -0.024374036
-0.032346692 -0.021646183 0.0051424415 0.05915174 0.038307443 -0.1002869 0.047358032 0.07260176
0.031020314 0.10356506 0.15381038 -0.023780977 -0.044601437 0.034554284 0.048296355 -0.012553641
-0.021444375 -0.11432091 -0.100152135 0.03809205 0.07213958 0.049408246 0.029423013 -0.12764867

fc3.bias f4 [64]
00000000: f4c5 65bd 205e 06bd e5c8 28bd 8b2c daba
00000010: 463f 03be cde2 0f3c 3e30 adbd f4d2 e4bc
00000020: e435 e63d 60d8 88bc a4a5 d5bd 1d41 dc3c
00000030: 2e66 0a3d 2735 bbbd 250f 02be c743 f33c
00000040: 2dd6 b4bd 0484 033c 2ea0 523d 140a 92bc
00000050: 61b2 c13d 7f37 0ebd ace5 af3d e9ac 843c
00000060: d25b e6bb f199 23bc eb61 423d e02d b8bc
00000070: 8735 08be 456c 52bd fb94 92bc 10dd 95bd
00000080: 6f4f 5cbd be18 53bc 96c3 bc3d 5601 93bd
00000090: 4788 2fbb 08e9 823d 96b2 c9bd 93b0 80bd
000000a0: 3a38 85bb 5498 cdbd 2006 fb3c 3c2c fcbd
000000b0: b1ab b3bc 53bf 963d cdac 27bd 4c46 6a3c
000000c0: 0583 87bd c9ff a6bd 2b6b c3bc 8587 58bd
000000d0: d14b 9ebd c907 82bd d0be 6cbd 8848 febb
000000e0: 7d62 013e a7aa d6bb 9e69 eebd 6710 693d
000000f0: 67f7 17bd 8ad5 b23d c77e 9bbd a4fa c93d
-0.056096986 -0.03280461 -0.041207213 -0.0016645355 -0.12817106 0.008782101 -0.08456467 -0.027932622
0.112407476 -0.016704738 -0.10431984 0.026886517 0.033788852 -0.091409974 -0.1270109 0.029695405
-0.08829913 0.00802708 0.05142229 -0.017827071 0.09457851 -0.034720894 0.08588728 0.016195731
-0.007029989 -0.009985433 0.047456663 -0.022482812 -0.13301669 -0.051372785 -0.017893305 -0.07317555
-0.05378669 -0.012884317 0.092169926 -0.07177989 -0.0026784108 0.063921034 -0.09848516 -0.06283679
-0.0040655406 -0.1003882 0.030642569 -0.123131245 -0.021932455 0.07360711 -0.04093628 0.014298987
-0.06616787 -0.08154256 -0.023854813 -0.052863616 -0.077293046 -0.06349141 -0.05779916 -0.0077601112
0.12635227 -0.006551105 -0.11641239 0.056900408 -0.037101176 0.087321356 -0.0759254 0.09862259

fc4.weight f4 [10, 64]
00000000: 7a75 0cbe 81c0 1e3e 9b08 d6bd a8d7 31bc
00000010: 5f14 bcbd 000b 56be f969 6a3c cca1 403d
00000020: d3c9 1cbe fdfb d0bd 26cf ec3d df6b 08bd
00000030: a3b7 10bd 4754 33be f534 9c3c 56c4 383d
00000040: 3bef 26be 2691 f3bd fd46 0abe 8262 1d3e
00000050: afab 07be e703 3cbe 7770 e93d 9021 723d
00000060: 7c69 be3a a622 5bbc edc9 e53d 144b 9bbd
00000070: d29c 8cbd 9385 533d 1508 46be 6174 88be
00000080: 396c 283d 6173 1f3d 88ea cc3d c2dd 1abe
00000090: 36db c6bd e0b7 37be 20ac 8bbd af74 31bd
000000a0: b920 d5bd 66b7 d93d b026 583d f950 f6bc
000000b0: ab42 53bd 0809 5f3c c81b d43d e6c0 103e
000000c0: 24a2 023e f91d 9bbd 1a99 e4bd dd5d c2bd
000000d0: b96c 55be 18df 243d 7948 1fbe 92fa 16bd
000000e0: c589 3cbd 98e4 1ebe a5c7 efbd 30d4 f73d
000000f0: 7e4f 33be d093 263d 3860 7ebd 5af0 9e3d
00000100: ca12 de3d f714 89bd 9314 01be 65c5 943d
00000110: 3ccf b03d 4f3c b63d c2d2 063e ba87 253e
00000120: 33a2 3fbe 02a8 1f3e 25d5 d9bd 064f e53c
00000130: b24d f3bc 1af7 27be 3546 033e 815a 5dbe
00000140: fc06 823d cb9b c8bc d976 02be e6c9 0bbe
00000150: 1671 c5bd 5406 313e 6293 d3bd 2758 85bd
00000160: 1ceb e9bd f195 9ebc 4967 1f3e 089e c33d
00000170: 947f 72bd faed 3fbd d033 213c f7b7 83be
00000180: 0dbd ba3c 7868 a5bd 40be d5bc f064 c23c
00000190: e246 4f3d 781f e4bc ab2b eb3c a670 9abd
000001a0: 844b 8dbd f8e1 3cbd 4131 42bd 0e5a 82bd
000001b0: 59b6 a4bd 0d32 6e3d 77cf 2fbe 994d 98bd
000001c0: aea9 0cbe 547f a43d 9f5e 1d3c 3832 11be
000001d0: 5af0 053e d0c7 8fbb 2c6d e7bb 1f04 0d3d
000001e0: 7c1a 023c 6616 b73a 3474 d9bd 954d 02bd
000001f0: 886e 253e 542f fabd 30ae aa3c 5447 3bbd
00000200: ab52 983d 89d8 85bd 6e7f 0a3e 11f3 d13a
00000210: f0f6 ffbd 9a00 ccbd b5b0 aa3b a710 f13d
00000220: 4e1b 413d 6903 1cbe b019 3bbe be42 4abd
00000230: 4f87 b53d 0099 22be 7da9 543d 4308 d93c
00000240: ef13 ee3c 3d0c 3a3d 1662 eabd a94f 5cbd
00000250: c07e 96bd 40a2 d1bd 9e72 57bc 8730 873d
00000260: 27c2 75bd 9a53 b93d b09a 50bc 4d91 44be
00000270: f814 38be d9e7 6a3d cd4d 39be 9335 393d
00000280: 872d 96bd 325c ae3d ac62 c6bd 7bb2 a03d
00000290: 7591 073e 1668 b4bd 80b7 e4bd ddb1 84bd
000002a0: 9f95 cb3c b2b7 da3d 3b87 aebc f486 623d
000002b0: 0737 51bd 06bc 90bd 2998 d43c d42f 13be
000002c0: f767 eb3d 28c0 043e 96ca 7b3d 3107 edbd
000002d0: 8019 35bd ebc6 2e3d f190 b43d 30ca c93c
000002e0: 731f 933d c492 c3bd f10a dfbd 9615 bc3d
000002f0: e6c2 173d 0b28 973d 2e34 e73d acd4 1cbd
00000300: 42dc 1cbe abe8 fc3c 2cb4 fabd c3a3 a4bd
00000310: 53ab 09bd e61f 06be 5bf9 793d 199a 1c3e
00000320: b347 043c 8251 393d 7d53 45bd ff6f 0cbd
00000330: 3a54 91bc 545d 343d c163 443d 62b5 10bc
00000340: 6840 44bd 82d2 07be cf45 58bd 6b35 dfbd
00000350: 541f a9bc 3485 d8bd 1cd3 39be 76d3 a2bd
00000360: d481 f03d 5ace f23d bbdf 65be 225c a8be
00000370: ce8d bb3d 3e05 bcbd 8fdf 5d3d e85e 903d
00000380: c96d 3c3d bef1 983c b464 cb3d 8e12 64bd
00000390: 37d7 73bd 18b1 f93d f965 203d 360a c0bd
000003a0: e42f 9dbd 9cb7 99bd 02ad f73d 2d4e c2bd
000003b0: d3a7 cd3b c978 a3bb e77b 0ebe 0ba7 293d
000003c0: 62a7 acbc 6049 3b3d 33cd 8b3d 35f7 b53d
000003d0: cd33 0c3d e85c 55bb 22a9 2d3c 16ae c3bd
000003e0: 4a4c 443d 1954 db3d 980b 9bbc b1f4 b23d
000003f0: 4a7c 403d e95c c63c fbd5 ad3d 2b97 ff3c
-0.13716689 0.15503122 -0.1045086 -0.010854639 -0.09183573 -0.20902634 0.014307492 0.0470293
-0.15311365 -0.10204313 0.11562948 -0.033306 -0.03533138 -0.17512618 0.01906822 0.045109116
-0.16302197 -0.11892919 -0.13503642 0.15369609 -0.13249086 -0.18360864 0.11398404 0.05911404
0.0014527286 -0.01337496 0.11220155 -0.075826794 -0.068658486 0.05164106 -0.1933902 -0.2665129
0.041118834 0.038928393 0.10005671 -0.15123656 -0.0970978 -0.17941236 -0.068199396 -0.04332417
-0.10406632 0.106306836 0.05277127 -0.030067908 -0.05157725 0.013612993 0.10356861 0.14136085
0.12757164 -0.07574076 -0.11162014 -0.09490559 -0.20842256 0.04025182 -0.1555499 -0.036860056
-0.046029825 -0.15516889 -0.11708001 0.121010184 -0.17510793 0.04066831 -0.06210348 0.07760687
0.108434275 -0.06693452 -0.12605505 0.072642125 0.08633277 0.08898222 0.13166335 0.16165057
-0.18714218 0.15591434 -0.10636357 0.027991783 -0.029700134 -0.16402856 0.1281975 -0.21616556
0.063489884 -0.02448835 -0.1274065 -0.13651237 -0.0964071 0.1728757 -0.103308454 -0.06510954
-0.11421797 -0.019358607 0.15566744 0.095516264 -0.0592037 -0.04685781 0.009839013 -0.25726292
0.022795225 -0.080765665 -0.026091695 0.023729771 0.05060471 -0.027847037 0.028707346 -0.07541017
-0.06899169 -0.046113938 -0.047410253 -0.06364833 -0.080425926 0.0581532 -0.17168985 -0.074366756
-0.13736603 0.080320984 0.009605079 -0.14179313 0.13079968 -0.004387833 -0.007062575 0.03442776
0.007940885 0.0013968467 -0.10617867 -0.03181227 0.16155446 -0.122160584 0.020835012 -0.04572232
0.07437643 -0.065354414 0.13525173 0.0016017874 -0.124982715 -0.09961052 0.0052090534 0.11770754
0.04714518 -0.15235676 -0.18271518 -0.049380057 0.08863699 -0.15878677 0.05191945 0.026493197
0.02906224 0.045421828 -0.1144449 -0.053786907 -0.073483944 -0.10236025 -0.013149885 0.06601053
-0.05999961 0.09049149 -0.012732193 -0.19196053 -0.17976749 0.057350013 -0.18096085 0.045217108
-0.073329024 0.085136786 -0.09686789 0.078465424 0.13239081 -0.08808915 -0.11167812 -0.06479237
0.024851618 0.10679568 -0.021304717 0.055304483 -0.05107787 -0.070671126 0.025951462 -0.14373714
0.11494439 0.12963927 0.061472498 -0.11573637 -0.04421377 0.04267017 0.08816708 0.024632543
0.07183733 -0.09549478 -0.10890759 0.09183805 0.037051104 0.073806845 0.11289249 -0.038288757
-0.15318397 0.030872663 -0.12241396 -0.080390476 -0.033610653 -0.13098106 0.06102882 0.15293159
0.008073735 0.045243748 -0.048175324 -0.034286495 -0.017740358 0.044034317 0.047946695 -0.0088323075
-0.047912985 -0.13263896 -0.05280095 -0.108988605 -0.020644821 -0.105722815 -0.18146938 -0.07950489
0.11743513 0.11855765 -0.22448628 -0.32882792 0.091579065 -0.09180687 0.05416828 0.07049352
0.046003137 0.01866996 0.09931317 -0.055681758 -0.059531417 0.12191981 0.03915975 -0.093769476
-0.0767515 -0.07505724 0.120935455 -0.09487567 0.0062761097 -0.004988764 -0.13914452 0.04141907
-0.021075908 0.045724273 0.06826248 0.088850416 0.03422909 -0.0032556597 0.010599406 -0.09554689
0.047924317 0.107094 -0.018926427 0.087380774 0.04699353 0.024214225 0.08488079 0.031200012

fc4.bias f4 [10]
00000000: 83b5 0cbc 8dc6 4f3d 1728 91bd 6cba 683b
00000010: d339 103d a336 133d 69c3 ca3d dc99 69be
00000020: 2412 893c a773 183c
-0.008588198 0.050726462 -0.07087725 0.0035511507 0.035211395 0.035940778 0.09900553 -0.22812599
0.016732283 0.009304917
