src/global_model.pt (torch, 973831 bytes, 8 tensors)

fc1.weight f4 [256, 784]
000000 6d 1e 9e bc ac f1 89 3c 8c 71 7f 3b b5 89 98 bc
       -0.019301618 0.016838871 0.0038977591 -0.018620351
000010 42 46 e8 3c c0 85 13 b9 3c a8 ad 3b 84 46 c4 bc
       0.028353814 -0.00014068838 0.005299596 -0.023959406
000020 d8 d6 47 3c d4 64 8f 3a bc 3c 31 bb 20 0d 1e 3b
       0.012197219 0.0010940083 -0.0027044257 0.002411671
000030 14 5f 5e bc b4 e4 fe bb fc 0a a5 3c 0c f1 0b ba
       -0.013572473 -0.0077787284 0.02014684 -0.0005338348
000040 67 97 0c bb 05 64 5f bc 39 1e 98 3b 67 36 8d bc
       -0.0021452548 -0.013634686 0.0046422747 -0.017237855
000050 e8 ab c1 3c 60 00 8e b9 22 2e 0c bd fc 74 f0 bb
       0.023641542 -0.0002708463 -0.034223683 -0.0073381644
000060 58 31 68 3c 34 41 0e bd 87 12 5f bc 16 a1 b6 bc
       0.014171921 -0.03473015 -0.013615257 -0.022293609
000070 7f f6 83 bc ea 10 e4 bc b3 d1 a2 bb e4 0c 0e bb
       -0.01610875 -0.027840097 -0.0049688458 -0.0021675164
000080 bd ba ab bb b6 9a b5 bb 1e b1 c8 bb 90 af a4 bc
       -0.005240767 -0.0055421246 -0.0061246296 -0.020103246
000090 a6 ac 83 3a b1 fc 6c bc 76 92 4c 3c d0 4c 69 bc
       0.001004596 -0.014464543 0.012486091 -0.014239505
0000a0 b8 49 41 bb 00 7a e5 bc c6 56 b8 bb 9a 13 05 bb
       -0.0029493403 -0.028012276 -0.0056255786 -0.0020305873
0000b0 75 f1 84 3c 74 8f 07 bc b2 7a 99 3a 66 5f db 3b
       0.016228417 -0.008273948 0.001170954 0.006694722
0000c0 79 dd b4 3c 76 2c fe b9 40 21 0d 3b 04 36 36 bb
       0.022078263 -0.0004847978 0.002153471 -0.0027803192
0000d0 7d fc 1e 3c 27 f9 6a 3c 5a 7a 10 bc 20 6a a1 bc
       0.009703753 0.014341629 -0.008818233 -0.019703925
0000e0 ac 4e f2 3c 11 13 87 3c ec 43 9e bc b9 64 ce bc
       0.02957853 0.016488584 -0.019319497 -0.025194513
0000f0 40 63 b2 b9 54 0d ad 3b d6 61 8d 3c 2f b5 92 3a
       -0.00034024753 0.00528113 0.017258566 0.0011192913
000100 cc 0b c5 bb 77 dd b9 bc fe bc d2 bc bb 9a fe bb
       -0.006013369 -0.02268861 -0.025724884 -0.00776991
000110 9f d6 e6 bc f2 9e 17 bd 35 0b d0 bc 20 9e ed bc
       -0.028178511 -0.037016816 -0.025395969 -0.029006064
000120 4e fc 20 bd a4 fa be bc 18 79 31 bc c9 c4 81 bc
       -0.039303117 -0.023312874 -0.010832094 -0.015840905
000130 b5 4e df bc 7c 1a d6 bc c0 0c e9 bb b6 9d 9e bc
       -0.02725921 -0.026135676 -0.0071121156 -0.019362312
000140 5e 7f 77 bc 92 07 a1 bc 58 8d e2 3a 31 29 f5 bb
       -0.01510605 -0.01965693 0.0017284555 -0.007481717
000150 ac 91 e1 bc 94 72 ef ba 60 4f 90 3c da e8 bf bc
       -0.027535282 -0.00182684 0.017615974 -0.023426462
000160 1a c4 00 3c 8a a1 97 3c 2e 46 f1 bb b8 d1 c8 3a
       0.007859254 0.018509645 -0.0073631024 0.001532129
000170 6b 86 92 bc 0d 0d 97 bb 13 2e 05 bd 53 bd 4c 3c
       -0.017886361 -0.00460971 -0.032514643 0.01249631
000180 88 3b f0 3b 80 64 0a bd 80 03 60 ba 40 39 8c 3c
       0.0073313154 -0.03378725 -0.00085454434 0.017117143
000190 b7 c1 b8 3c c8 1a a1 bb 10 6b e7 ba 61 48 0a bd
       0.022553308 -0.0049165227 -0.0017655808 -0.033760432
0001a0 8e 5d a0 bc ce 4e 03 bd c7 40 c3 bc ac 18 2d 3c
       -0.01957586 -0.032057576 -0.0238346 0.010564964
0001b0 3e 44 cb 3b ba f7 96 bb a4 72 1f bc 74 7b a2 bc
       0.0062032035 -0.004607168 -0.009731922 -0.019834258
0001c0 20 ae ca b9 59 bd ad 3b 00 8f 42 ba c8 6d b0 ba
       -0.00038658176 0.005302113 -0.00074218214 -0.0013460452
0001d0 7c 51 fc bb c8 0e f5 39 64 4a 01 bc 60 b3 f0 3a
       -0.0077001434 0.00046741054 -0.007891271 0.0018364005
0001e0 1e a7 2d 3c eb f3 82 3c 50 e0 54 bb 88 2a a3 3b
       0.010598926 0.01598545 -0.0032482333 0.0049794354
0001f0 05 da 0a 3d d4 bc ce 3c 4b 1b b0 3d 3d 92 68 3d
       0.033899326 0.025236525 0.08598956 0.05678009
000200 ce 09 8d 3d 6d 72 bf 3d e8 61 b1 3d f0 a5 1e 3d
       0.06886636 0.09347997 0.08661252 0.03873247
000210 20 77 ff 3b de 2b 00 bd ec 9b 56 bd 40 06 4b bd
       0.007796183 -0.031291835 -0.052394792 -0.049566507
000220 58 07 67 bc 18 fb e6 3a 56 24 c2 3b e8 36 d8 3a
       -0.014100872 0.0017622439 0.0059247417 0.0016495856
000230 4a fa 66 bc a0 9b 63 3b e5 3b 93 3c 00 96 65 3c
       -0.0140977595 0.003473021 0.017972896 0.014012814
000240 7c e0 92 bb 00 11 19 bc 4c a8 cc 3c 8d 3c cf 3c
       -0.004482327 -0.009342432 0.024982594 0.025297428
000250 e1 8f 0b 3d 62 35 99 3c 02 13 9a bc 2c 9c 8a 3c
       0.03407276 0.018702213 -0.018807892 0.016920172
000260 70 d1 44 bc f0 1a 19 bc e6 5c 99 3d 42 dd 94 3d
       -0.012012824 -0.009344801 0.07488422 0.07268764
000270 e6 ee e0 3d bb db 0b 3e 6d d8 14 3e 76 0c d9 3d
       0.10983066 0.1365804 0.14535685 0.1059808
000280 54 48 c8 3d 3a 32 0c 3d 96 88 d9 bb 00 a0 ca 39
       0.097794205 0.034227587 -0.0066385968 0.00038647652
000290 72 25 35 3b ac 67 11 bc b6 6f 2f 3c e8 db 9f bb
       0.0027640727 -0.008874815 0.010707786 -0.00487851
0002a0 dc f7 a1 bc 76 2f ff bc e4 ad 41 3c bb 9b 9d bc
       -0.019771509 -0.03115056 0.011821244 -0.019239297
0002b0 3e 3f cf 3b 77 84 2b 3c c4 77 84 3c e3 7a dd 3b
       0.0063246777 0.010468594 0.01617039 0.006759034
0002c0 70 02 47 bc 78 2b e8 3c 64 79 2c 3c 52 14 a2 3c
       -0.012146577 0.02834104 0.010526989 0.01978508
0002d0 24 0e e6 bc 42 e0 37 bd c4 55 b4 bc 30 ea 1c 3c
       -0.028082915 -0.044891603 -0.022013552 0.009577319
0002e0 3e 2f 3a 3d e6 d5 16 3e 73 98 19 3e 6a b6 f1 3d
       0.04545521 0.14730033 0.14999561 0.11802371
0002f0 73 b1 15 3e 44 9b b1 3d 54 9c 41 3d 6e 94 ed bc
       0.14618473 0.08672193 0.047268227 -0.02900144
000300 2f 2e 1c bd 2c 12 12 3c 32 8f f1 bb af c6 2e 3c
       -0.03812998 0.008915465 -0.0073718065 0.010667487
000310 b8 b3 2d bc 20 db d5 3a ae 7e 6e 3c 60 bd 21 bc
       -0.01060193 0.0016315915 0.01455657 -0.009871811
000320 b2 83 02 3d 90 51 a3 3c 92 26 00 3c 29 4f d6 3c
       0.031863876 0.019936353 0.007821696 0.026160793
000330 42 08 dc 3c f0 a5 60 3d 78 88 43 3d 54 5a 96 3b
       0.026859406 0.05484575 0.04773757 0.0045884047
000340 00 22 8e b9 be ff 74 bd 49 58 35 bd 2b 2e b2 bd
       -0.00027109683 -0.059814207 -0.04427365 -0.08700212
000350 0a 6c c5 bd ee 22 f0 3c f2 6b c4 3d 0c 3f e7 3d
       -0.096397474 0.02931353 0.095909014 0.11291322
000360 b6 52 35 3e eb 15 29 3e a0 6a e0 3d 40 26 e0 ba
       0.17707333 0.16512267 0.10957837 -0.0017101243
000370 10 24 58 3a 2f 8d a1 3c 78 2a f2 bb a8 ab 3d bc
       0.000824512 0.019720642 -0.0073903166 -0.011576571
000380 d9 19 f3 bc f2 07 a0 bb 8d ed 1e bd 4c de 77 bb
       -0.029675411 -0.0048837597 -0.038800765 -0.0037821708
000390 e6 7f 15 bc 7e 27 b2 3b ee a9 03 3d c9 7b b6 3c
       -0.009124732 0.0054368367 0.03214448 0.022275822
0003a0 47 3c 9a 3d 8e 89 e0 3d 95 cb 04 3e 22 fa 58 3d
       0.07531028 0.109637365 0.12968285 0.05297292
0003b0 d7 52 06 3d ee fe 1d bd 1b 68 39 be 17 3b 56 be
       0.032793846 -0.038573198 -0.1810612 -0.20920978
0003c0 91 e8 38 be 9c f2 5a bd 14 64 e4 3d fb 17 20 3e
       -0.18057467 -0.053454027 0.11151901 0.15634148
0003d0 58 81 33 3e 1e 5c 38 3e d8 7c fb 3d f7 db 23 3d
       0.1752981 0.1800389 0.122796714 0.040004697
0003e0 b3 92 b2 3c 6a e2 33 3c 2c 2c 31 bb 50 0a 0a bc
       0.021798467 0.010979274 -0.0027034385 -0.00842531
0003f0 c8 db 09 bd dd 28 b0 3c 45 58 ee 3b ac db e4 3c
       -0.033656865 0.02150386 0.007273706 0.027936779

fc1.bias f4 [256]
000000 cd 64 b8 bc 12 cf 20 bd c8 6a 1a bd 90 8c a8 ba
       -0.022509003 -0.039259978 -0.03769949 -0.0012859274
000010 4e ac b0 bc 9d 4d a1 bc 58 61 87 bc 6e 4f e7 bb
       -0.021566536 -0.01969033 -0.01652591 -0.0070590293
000020 4b c1 9d bc 9c fc 12 bb 10 bc ab bc 43 d1 27 bc
       -0.019257208 -0.00224284 -0.020963699 -0.010242763
000030 2e a2 23 bc f5 e4 d9 bc 37 5a 81 bc 1f aa f0 bb
       -0.009987397 -0.026598433 -0.015790088 -0.0073444988
000040 36 71 e5 ba 2a f7 d8 bc 7d 57 e6 bc a4 98 fc bc
       -0.0017505053 -0.026485045 -0.02811789 -0.030834503
000050 4a c5 10 3c 24 19 be bc 70 d6 7d bb c0 b3 01 3c
       0.0088361 -0.023205347 -0.003873255 0.007916391
000060 42 54 b3 bc 60 3e b2 bc b2 82 7b bc 78 61 aa 3b
       -0.021890763 -0.021758258 -0.015350984 0.0051996075
000070 96 3e 9e bc bd 32 9d bc 15 80 a7 bb c8 76 36 3b
       -0.019316953 -0.019189233 -0.005111704 0.0027841795
000080 10 f5 6a bc af ea 92 bb 5c 52 e4 bb c8 7f ab bc
       -0.014340654 -0.004483543 -0.006967826 -0.020934954
000090 13 d1 08 bc 98 f4 88 3c da 8f c6 bc 98 58 47 3b
       -0.008350628 0.016718194 -0.024238516 0.0030417796
0000a0 f1 4f 26 bc 7a ef 3c bc e7 1c a1 3c 74 4b 21 bd
       -0.010150895 -0.011531705 0.019667102 -0.0393786
0000b0 ac 2e 6c 3c 38 a7 7e bb ae 23 e8 3b 9a 55 4b bc
       0.014415424 -0.0038856994 0.0070843315 -0.012410546
0000c0 54 3c 0a bc 1e a4 96 bc 02 fa 12 bb b6 17 e0 bc
       -0.008437235 -0.018388804 -0.0022426848 -0.027355056
0000d0 2b c0 27 bd b0 5d c6 ba 5b 88 b6 3b 29 4e 10 bd
       -0.04095475 -0.0015134122 0.005570454 -0.03523079
0000e0 b8 92 71 bc 86 d7 8a bc e7 d3 8c bc ed 7d d4 bc
       -0.014744453 -0.016948473 -0.017190887 -0.025938952
0000f0 9b 0e bc bc f5 e2 25 bd 3c 0e 3e bd 84 69 54 bc
       -0.022956183 -0.040499646 -0.046400294 -0.01296461
000100 78 71 81 bc ac 8a 7c bc 49 76 02 3c b3 1c 5a bc
       -0.015801176 -0.015413921 0.007962772 -0.0133125065
000110 d2 6c c8 bb e0 dd 93 bc 62 41 d5 3b be a9 c4 bc
       -0.006116488 -0.018050134 0.0065080384 -0.02400672
000120 74 86 5c 3b 2e c0 55 bb f3 9f 94 bc f8 c6 0a 3c
       0.0033649476 -0.0032615769 -0.018142676 0.008470289
000130 3f f8 82 3c 17 c4 ba bc c0 1c f9 b9 30 cd 9d 3b
       0.015987514 -0.022798581 -0.000475144 0.00481572
000140 ce 00 a3 bc d6 b6 11 3c a2 2e 87 3b ea 6d 4c 3b
       -0.019897845 0.008893689 0.004125432 0.0031193444
000150 ed aa e2 bc ce 36 b8 ba 20 0a 2c bc 60 32 0b bc
       -0.027669394 -0.0014054419 -0.010500461 -0.008495897
000160 ce ad 51 bc c0 bf 31 b9 ae dd ae bc 31 c0 0c bb
       -0.012797786 -0.00016951468 -0.02134594 -0.002147686
000170 fc e2 bb bc 6a 1b 94 bb 48 12 8f bc 76 16 4e 3c
       -0.022935383 -0.0045198696 -0.017464772 0.012578597
000180 16 82 ae bc dd 1e 05 bd fa 82 2c bd ef 3d a4 bc
       -0.021302264 -0.032500137 -0.042117096 -0.020049063
000190 f7 2e 28 bb 08 f5 f8 ba 90 c7 05 bd 14 2a 32 bb
       -0.002566276 -0.0018993923 -0.03266102 -0.0027185725
0001a0 82 0e 2d bd 96 a4 42 bd 8c 9d 2d bd 0c 8b f6 bb
       -0.042250164 -0.047520243 -0.042386577 -0.0075239
0001b0 e6 79 4a bd b2 33 71 3c f2 31 b5 bc 6a c0 35 bc
       -0.049432658 0.014721798 -0.022118542 -0.011093238
0001c0 0d bc 1d 3c 16 69 f0 bc bb 61 43 bb 24 14 2d 3c
       0.009627354 -0.029346984 -0.002981289 0.010563884
0001d0 ce 2c 2c bd 24 d5 84 bc ae b3 2e bd da a5 1e bc
       -0.042034917 -0.016214915 -0.042651825 -0.009683097
0001e0 22 42 5d 3b 6d 02 d1 bc f0 34 97 bc 64 55 0a 3b
       0.0033761342 -0.025513852 -0.01845786 0.0021108026
0001f0 17 6e 81 bc d4 d2 34 bb 40 d4 e9 bb 6a 83 8b bc
       -0.015799565 -0.0027591484 -0.007135898 -0.017030437
000200 54 e2 7f bc 61 fa 82 bc bc bc dc bc 60 db f1 bc
       -0.015617926 -0.01598853 -0.026945464 -0.029523551
000210 48 e4 02 bd 03 1e d6 bc ac 12 3f bc 6c 11 2c bc
       -0.031955987 -0.026137358 -0.011662167 -0.010502201
000220 49 e0 8f bc 24 59 03 bc cf cd f7 bc 97 8c 9d bc
       -0.017563002 -0.008016858 -0.030249504 -0.019232078
000230 35 06 9e bc 83 e3 0e bd db cf ad 3b 51 cf 14 bc
       -0.01929007 -0.03488494 0.0053043193 -0.009082631
000240 0c 80 87 bc 03 1e b5 bc 5e 0a f4 3b dc 2b 07 bd
       -0.01654055 -0.022109037 0.007447525 -0.033000812
000250 98 a0 50 ba 51 22 bd bb fa 3e bf bc 8d ab 8a bc
       -0.00079585006 -0.005771913 -0.02334546 -0.016927505
000260 7f 03 ee bb c8 c3 0c bd 53 5b ea bc 7f 8f 1f bd
       -0.0072636004 -0.0343664 -0.028608 -0.038955208
000270 3c 92 87 ba 80 41 33 bc 47 2c 7c bc ac 6f 00 3b
       -0.0010343264 -0.010940909 -0.015391416 0.0019597812
000280 c2 af 70 3c 8a 05 26 bc 1c 55 dd bb 60 8e 93 bb
       0.014690341 -0.010133157 -0.0067545306 -0.0045030564
000290 ee ba d4 bb e8 1d a5 3a 97 91 89 3c 8c a3 14 bd
       -0.0064920103 0.0012597414 0.016793055 -0.036288783
0002a0 62 ae eb bc 42 2f 7c bc c0 f9 19 bd a4 b6 e4 bc
       -0.028769676 -0.0153921265 -0.037591696 -0.027919121
0002b0 cc e2 4b bc 3c 7d c4 bc 56 81 31 bd b7 1f 12 3c
       -0.012444209 -0.023985498 -0.043336235 0.008918694
0002c0 8e 87 36 bd 3b 00 21 3c ae e9 8b bc 90 9b 0f bb
       -0.04456287 0.009826715 -0.0170792 -0.002191279
0002d0 d0 f2 ef 39 f1 25 15 bc 88 0f a2 bc 6a ab 36 bc
       0.00045766542 -0.009103284 -0.019782797 -0.011149267
0002e0 67 45 7c bc 76 ab a7 bb 01 ab 7a bc 08 8e e5 bc
       -0.015397406 -0.0051168753 -0.01529956 -0.028021827
0002f0 d0 97 50 bc e2 01 5d 3c 74 8d cd bc d4 94 ac bc
       -0.012731507 0.013489218 -0.025091864 -0.02106706
000300 6b 2c 8e bc 0c 31 cc bb 16 86 10 bd 58 28 3c 3c
       -0.017355165 -0.006231433 -0.035284124 0.011484228
000310 c6 46 75 3c 02 d6 01 bb 2e c1 6d bc 90 f2 e4 bc
       0.014970487 -0.0019811396 -0.01451139 -0.027947694
000320 48 ef 5a 3c 24 67 8a bc b2 ee ae bb 25 4c aa bc
       0.013362713 -0.016894884 -0.0053385133 -0.020788262
000330 36 91 9b bc 3c ed 3f bc 96 e0 35 bd 9e 03 a9 bb
       -0.01899014 -0.011714276 -0.044403635 -0.005157902
000340 df 4a 68 3c ca 44 9a 3c cd 60 82 bc 8e 22 19 bc
       0.014178007 0.01883163 -0.015915299 -0.009346617
000350 05 2a fd bc 5c 46 67 bc 50 3b 23 bd a8 70 39 3c
       -0.030903826 -0.014115896 -0.039851487 0.011318363
000360 0b 50 b4 bb 51 c0 ee bb 64 23 ca bc d2 ce 93 bc
       -0.005502706 -0.0072861095 -0.024675079 -0.018042956
000370 6e e9 8a bc 7a d7 90 bc 80 3a ea bc 27 ab ce 3c
       -0.016957011 -0.017680872 -0.028592348 0.025228096
000380 d8 bc 73 bc 25 2f 09 3c ee 1e f4 bc f8 11 9d bc
       -0.014876567 0.008373057 -0.029799905 -0.019173607
000390 31 12 15 bd 54 5c 46 bb 72 85 f4 3a 96 7a 4f 3b
       -0.0363943 -0.0030267434 0.0018655492 0.003165876
0003a0 bf 1f 0f bd 90 e7 87 39 cc 08 fb bc f2 e3 d9 bc
       -0.034942385 0.00025921734 -0.030643843 -0.02659795
0003b0 2f 31 78 bc b6 b6 8c 3b 38 b7 25 3c 4a 91 2a bc
       -0.015148445 0.004294242 0.010114484 -0.010410616
0003c0 c1 d5 45 3c f2 06 d3 bb 52 7a 72 bc 0a 65 35 bc
       0.012074889 -0.006440037 -0.014799671 -0.011071453
0003d0 c1 3c 08 3d 69 48 85 bc 64 1e cd bc 4a 8b 7c bc
       0.033261064 -0.01626988 -0.025038905 -0.0154140685
0003e0 ee 66 96 3b 9b 70 a0 bb 41 30 ca bc ce ac 1d bd
       0.004589907 -0.004896236 -0.024681212 -0.038494878
0003f0 0f aa ad bc 0a 87 1a 3b 6f bb 8b bc 03 d7 ef bc
       -0.021199254 0.0023579025 -0.017057149 -0.02927733

fc2.weight f4 [128, 256]
000000 21 c5 e5 3c fc c1 64 bc 3a 93 90 3d c3 3b 35 3d
       0.0280481 -0.013962265 0.07059331 0.044246446
000010 2d 34 c7 bc 20 d5 98 bc ea 92 2b bd fd 1c 04 bc
       -0.024316872 -0.018656313 -0.041888155 -0.008063552
000020 c8 52 7d 3b 78 f8 0e bd 12 c9 53 bd ca 5c 06 3c
       0.0038654078 -0.034904927 -0.051705427 0.008200834
000030 1a 95 d7 3c 76 03 1e bd da 6b 5a bd 64 0b f3 3b
       0.026316214 -0.03857752 -0.05332551 0.0074171294
000040 ac 79 28 3d 13 72 1e 3d aa 93 04 bd 00 72 eb 3b
       0.04113166 0.03868301 -0.032367386 0.0071852207
000050 5c 30 a7 bc f0 08 86 ba 48 e7 ce 3b af 1a 32 bd
       -0.020408802 -0.0010226052 0.006314192 -0.04348248
000060 00 c2 15 3b 8c 89 d8 bc 14 9e 72 3c b4 92 8c 3c
       0.0022851229 -0.026432775 0.014808197 0.017159797
000070 e4 f0 7e 3c a0 4a 87 3c 56 47 c7 3c 76 d2 42 3d
       0.0155603625 0.016515076 0.024326008 0.047563992
000080 de fb 54 bc b8 b7 f8 bb 2f 17 a3 3d 0e e7 21 3d
       -0.012999503 -0.0075902604 0.07963406 0.03952699
000090 46 03 2f bd 74 51 95 bd c0 b0 16 3a 3f 8b f2 bc
       -0.04272773 -0.072909266 0.00057483837 -0.029607413
0000a0 d4 b3 0d bc 58 4f d1 bc 0a ea 30 bc 60 49 83 bc
       -0.008648831 -0.02555053 -0.010797987 -0.016026199
0000b0 ae 8a 9c 3b 56 cb 61 bd f4 23 fb 3c 28 15 6c 3c
       0.004777274 -0.055125557 0.030656792 0.014409341
0000c0 38 78 a6 bc 97 55 7c bc a0 04 0b bc 96 b0 59 3c
       -0.020320997 -0.015401266 -0.008484989 0.01328673
0000d0 40 e7 3d 3a 3c b1 14 3d dc a2 01 bd 3a 7d ae bc
       0.0007244237 0.036301836 -0.031649455 -0.021299947
0000e0 aa 8c 8c bd 80 3a 6b ba e2 55 e9 3a 10 64 fe bc
       -0.06862767 -0.0008973256 0.0017802084 -0.031053573
0000f0 b0 e5 da bc 40 cb f0 bb f8 af b2 3b f4 18 c2 bb
       -0.026720852 -0.007348448 0.005453106 -0.005923385
000100 e0 b6 11 ba af 29 b8 3c 12 a3 b5 bc e2 5d 1d bd
       -0.00055585615 0.022480814 -0.022172485 -0.03841961
000110 8c ef 9f bd c5 65 00 3d 84 4b 38 3d 20 c4 8c 3b
       -0.07809362 0.031347055 0.044993892 0.004295841
000120 b9 12 65 bd 02 ed 45 3d e6 f2 e1 3c ff 09 e9 3c
       -0.05592606 0.04832173 0.027581643 0.02844715
000130 f0 92 2a bb 30 0c 67 3c 09 37 00 bd 70 23 74 bc
       -0.0026027523 0.014102027 -0.031302486 -0.014901027
000140 61 a8 4f bd 2e 2c 83 bc e9 76 a5 bd 78 07 9f 3b
       -0.050697688 -0.016012277 -0.08079321 0.0048531853
000150 de 4b 99 3c 8c 4f 98 bc 19 2c 06 bd fc 9e 03 3d
       0.018712934 -0.018592618 -0.0327569 0.03213404
000160 02 6c b7 bc 12 c5 2e bd b0 34 51 bd 00 a3 1c 3b
       -0.02239037 -0.04266841 -0.051075637 0.0023900867
000170 23 7a 28 bc 8c a0 85 3c f0 76 48 3c fa e5 10 3d
       -0.010283026 0.016311906 0.012235388 0.035375573
000180 da b8 58 bd 02 25 69 ba 04 b2 84 bb 57 97 48 3d
       -0.052910663 -0.0008893759 -0.0040495414 0.048972454
000190 a0 f9 e0 3b 64 7d ca 3b ed 0c a2 3b 8e be 1c bd
       0.006865695 0.0061794985 0.0049453885 -0.038267665
0001a0 70 24 a9 bc f3 6e 66 bd 34 6a fa bb 52 a6 52 3c
       -0.020647258 -0.056258153 -0.007642055 0.012857037
0001b0 2a 20 0a bc 1b 50 04 bc 91 a4 33 3c 82 f2 14 bd
       -0.00843052 -0.008075739 0.010964529 -0.036364086
0001c0 83 54 1f 3d 4a 05 a1 bc f1 63 87 bc 8b 21 3d 3c
       0.038898956 -0.019655842 -0.016527148 0.011543642
0001d0 7e 23 59 3c dc 66 f7 3b 8e 6a 52 3c 08 e3 23 3d
       0.013253091 0.0075501036 0.012842787 0.040011436
0001e0 82 85 b0 bd 8a 94 3d bd 26 85 56 3c 58 41 d7 bd
       -0.086192146 -0.046284236 0.0130932685 -0.1051051
0001f0 33 a2 f6 3c 25 60 3c bd 74 e1 d9 3c bc 03 43 bd
       0.03010664 -0.045990128 0.026596762 -0.047610983
000200 d0 25 14 bd f0 ad 43 3b 1c 9b 2e bd be 68 1d 3d
       -0.036168873 0.0029858314 -0.042628393 0.038429968
000210 fc a3 e1 3c b9 86 6b bd 9c ca 00 3d 6a dc e5 bc
       0.027544014 -0.05750153 0.031443223 -0.028059203
000220 2e b9 be 3c 6e 1d ee 3c c0 72 46 bd b7 3d 75 bd
       0.02328166 0.029066768 -0.048449278 -0.05987331
000230 71 7c ce 3c 5c d1 1b bc ab d3 3a bd 68 44 04 3b
       0.025205823 -0.009510364 -0.04561202 0.0020182375
000240 b1 17 0d bd c2 68 ba bb 40 1e fe bb 6a f1 8b bc
       -0.034446422 -0.0056887576 -0.007755071 -0.017082889
000250 53 99 35 3c b6 eb 8e 3c 10 cb 0a 3d 32 c0 50 3c
       0.011083919 0.01744638 0.03388506 0.012741135
000260 40 6b 45 3c 10 04 50 3d b1 ce a8 bb ba 53 8d bc
       0.012049496 0.050785124 -0.0051515927 -0.017251838
000270 0c 89 9c bc 8c 19 95 bb a9 d6 63 bc 76 1e 93 3c
       -0.019108318 -0.0045501646 -0.013906159 0.01795886
000280 57 d4 56 be c4 2e 4a be ad ac db 3c b0 da 82 3d
       -0.20979439 -0.19744402 0.026815737 0.063893676
000290 1e f0 f1 3c c4 ee 38 bd 64 a6 db bc 1d d7 df bc
       0.029533442 -0.04514958 -0.02681274 -0.027324254
0002a0 65 e8 13 bd b5 4a 16 bd 74 51 ed bc b2 2a cf bb
       -0.0361103 -0.03669234 -0.028969504 -0.0063222283
0002b0 e7 61 05 3c 5e b0 f0 bc 31 db e3 bc 6c 82 1f 3d
       0.0081410175 -0.029380973 -0.02781448 0.03894274
0002c0 70 e1 b9 3b a8 8c 33 bd 72 b7 18 bd 96 5a 2f bd
       0.005672626 -0.043835312 -0.037284322 -0.042811
0002d0 be 80 5e bc 97 dd 6f 3d 3e 63 06 3d e0 85 bb bb
       -0.013580499 0.058560934 0.03280949 -0.0057227463
0002e0 9c 0e 44 3c 2a 75 8a bd 10 e1 35 bc 89 d1 d0 bc
       0.011966374 -0.067606285 -0.011101022 -0.02549054
0002f0 1b 73 86 3c 34 14 27 3c ae cf 94 3c a1 9f c3 bd
       0.016412308 0.010197688 0.018165436 -0.09551931
000300 aa 41 fa 3c 7b 6f 9b 3c 82 d9 12 bd b5 4b 45 3d
       0.03054889 0.018974056 -0.035851963 0.048167903
000310 1a d5 08 bc 9e e3 c5 bc 40 18 e6 bc 7f 10 11 3d
       -0.008351589 -0.024156388 -0.028087735 0.035416123
000320 ca 9f 4f 3c a0 58 72 bd d2 6d b2 bc f3 c0 f3 bc
       0.012672374 -0.05916655 -0.021780882 -0.029755091
000330 40 1b b3 3a b8 40 37 bd 93 12 e9 3c 25 79 b1 bc
       0.0013664737 -0.044739455 0.02845124 -0.021664212
000340 e2 5c 28 be f2 af f2 bb 60 c1 44 3b bf 8c 3b bc
       -0.16441682 -0.007406228 0.0030022487 -0.011447131
000350 8f 76 3a bd 00 f4 f0 37 4c 9a 3c 3c 70 f4 09 bd
       -0.045523223 2.872385e-05 0.011511397 -0.03368038
000360 4c 55 23 3c fd 1e c6 bd 60 ae 64 3c e5 b0 ce 3c
       0.009969067 -0.09673879 0.01395759 0.025230834
000370 58 a6 0e bb f2 3b 8e bd c0 00 67 bc d3 31 ba bc
       -0.002176663 -0.069450274 -0.0140993 -0.022728836
000380 6c f2 a5 bc dd 0e 2b 3d be b2 a2 3b ef 79 68 bd
       -0.020257197 0.04176222 0.0049651554 -0.05675691
000390 66 1d b2 3b 44 a7 3d bd 41 19 09 bd a4 81 01 3c
       0.0054356335 -0.046302095 -0.03347135 0.007904444
0003a0 f4 09 c0 bd e4 35 2b bc ac 0a a5 bc 80 ed 95 b9
       -0.093768984 -0.01044986 -0.02014669 -0.00028596446
0003b0 d6 ed 45 bc cc b6 8e 3d 1c 8f 9f bc 7c 40 45 bd
       -0.01208063 0.069684595 -0.01947742 -0.0481572
0003c0 b0 e0 a1 3c 57 57 b6 3c ea 68 fa bc 8e 16 e5 3c
       0.01976046 0.022258444 -0.030567605 0.027964856
0003d0 ab 53 e2 3d 2d 58 19 3d bb 32 08 bd 24 47 b3 bd
       0.11051115 0.037437607 -0.033251505 -0.08753803
0003e0 c6 63 e0 bc 40 69 91 39 60 56 43 bb a0 cc e0 3b
       -0.027391326 0.00027734973 -0.0029806122 0.0068603307
0003f0 88 4f c8 bc 6d 33 26 bd e0 2b 4b bb c6 b1 06 bd
       -0.024451986 -0.040576387 -0.0031001493 -0.03288438

fc2.bias f4 [128]
000000 49 43 7a 3c 5c 6b 73 3c ec 2d d6 bc 14 ca 5b bd
       0.015274831 0.014857139 -0.026144944 -0.053659514
000010 5d a6 64 bc f3 07 05 bd 88 8d f0 bb 54 b9 9d bd
       -0.01395568 -0.032478284 -0.0073410906 -0.07701364
000020 30 bd 54 bd b0 d2 f1 bb 84 25 de bc 15 c3 a2 bd
       -0.051938236 -0.0073798522 -0.027117498 -0.07947365
000030 9a fc 3e bd 6c fc 42 bd 8a 13 2a 3d 4b 25 9a bc
       -0.04662762 -0.04760401 0.04152254 -0.01881661
000040 d5 f4 43 bd 1b 69 bb bd 99 f3 09 3c 6e a0 e3 bc
       -0.047840912 -0.09150907 0.008419895 -0.02778646
000050 a2 58 17 bd 63 89 15 bd 5c c7 95 3b 5a df 62 bd
       -0.03694976 -0.036507975 0.0045708846 -0.055388786
000060 66 b1 da 3c 0a 65 9b bd fc e1 57 bd 96 f0 9a bc
       0.026695918 -0.07587631 -0.05270575 -0.018913548
000070 9c a5 17 bd cf 59 0c 3d e0 ef 09 bd 4e 1e 1c bd
       -0.03702317 0.034265336 -0.03367603 -0.03811484
000080 14 0f 57 3d c7 9d 14 bd a2 da e2 bc bf a2 8a bd
       0.052504614 -0.03628328 -0.027692143 -0.067693226
000090 f2 ce dc bc 4b c4 7d 3c 94 42 f2 3b 94 d5 b7 3c
       -0.026954148 0.015488694 0.0073931906 0.02244071
0000a0 21 c5 87 bd 5a e1 88 bd f8 d8 ad bb 6e 5a c3 3c
       -0.06629396 -0.066836074 -0.0053054057 0.023846831
0000b0 b4 9c e5 3b f6 2f 85 bd 1e 45 05 bd 18 5a 8f bb
       0.007007206 -0.065032884 -0.03253662 -0.0043747537
0000c0 ee 32 ff bc e8 b1 c3 3c dd 89 cc bc ea 47 f1 bc
       -0.031152215 0.023888543 -0.024968082 -0.029453237
0000d0 a0 ee 91 3b e0 0d 1a bd 51 31 02 bd 4a eb 91 bc
       0.004453495 -0.03761089 -0.031785313 -0.01781239
0000e0 7c 87 00 bc 05 44 64 3c 3a da df 3c e0 12 c7 bd
       -0.007844802 0.013932233 0.027325738 -0.09720397
0000f0 8d 5c 24 bc 96 1d 22 bd 30 62 16 bd 22 5e c9 3c
       -0.010031831 -0.039578997 -0.036714733 0.024581019
000100 9b d2 6e bd f0 da 57 bd 4e 36 21 bd c6 de 07 3d
       -0.058306318 -0.05269903 -0.03935843 0.033171438
000110 b2 e2 80 bd ba 1d f9 3c 98 76 04 bd dc 2f 86 bd
       -0.06293239 0.030409683 -0.032339662 -0.06552097
000120 60 0d 0b bd ac e3 da bc 44 8e 03 3d 0c 29 ff bd
       -0.033948302 -0.02671989 0.032118097 -0.12459001
000130 7c e8 88 3d 18 15 8f bc 3a c9 57 bd fa d4 12 3d
       0.06684968 -0.017466113 -0.05268214 0.03584764
000140 46 66 64 3c 1e 8a 3b bc 83 4f e1 bc 84 e6 a9 bd
       0.0139403995 -0.011446504 -0.027503734 -0.082959205
000150 0f c6 69 bc ff fd 39 bd 8c 3c 71 bd 1a d9 44 bd
       -0.014268412 -0.045408245 -0.058895633 -0.048058607
000160 7e bc 0f bc 5e b3 7d bd 46 14 06 bd 22 11 6a bc
       -0.008772967 -0.061938636 -0.032734178 -0.014286311
000170 24 54 69 3c dc bd c3 3c 07 89 03 bd 9b fe 37 3d
       0.014241252 0.023894243 -0.0321131 0.044920545
000180 5a 3a be bd 8e 6d 7c 3d d0 8d 79 bb 22 11 ed bc
       -0.092884734 0.061627917 -0.0038078912 -0.028938834
000190 0f 95 31 bd e6 96 d3 bc a6 c7 1c 3c ba 5e fa bb
       -0.043355044 -0.02582879 0.009569084 -0.007640687
0001a0 1a e5 01 3d e6 3d 87 3c d2 7d 98 bc 92 77 44 bd
       0.03171263 0.016509008 -0.018614683 -0.047965594
0001b0 69 e4 0b 3c b7 5c 23 bd ae e7 47 3d 9c 0c 26 bc
       0.008538344 -0.03988334 0.04880493 -0.010134842
0001c0 04 36 c0 bb a4 f1 3d bd 92 69 4b bc eb 0e c1 bc
       -0.005865814 -0.046373025 -0.012415307 -0.023566684
0001d0 ca b5 ee 3c c2 da 65 3b 24 c7 8d bd d0 e2 1c bd
       0.029139418 0.0035073017 -0.06922749 -0.038302243
0001e0 cc c2 85 bc c3 18 a3 3d 30 82 b9 ba 38 6a ca bb
       -0.016328238 0.07963707 -0.0014153179 -0.006177213
0001f0 69 25 e0 bd 0a 2e 22 bd 76 2f 67 3c d3 c3 39 bd
       -0.109446354 -0.039594688 0.014110437 -0.04535277

fc3.weight f4 [64, 128]
000000 0a dd 30 3c 84 9c 17 bd b0 90 2d bc 54 6c 7a 3d
       0.010794887 -0.0370145 -0.010593578 0.061138466
000010 c0 ba b0 b9 f7 97 0a 3d 91 b0 4e bc e8 1b 14 3b
       -0.00033708476 0.03383633 -0.012615339 0.0022599641
000020 51 c2 a3 3d 6b 7e a0 bd c3 cf d9 3d 62 e7 a1 3d
       0.07996047 -0.07836612 0.106353305 0.07905461
000030 d2 fb a3 bc 2c cb 5d 3c 18 db 13 bd 3b 19 3c bc
       -0.020017538 0.0135372095 -0.036097616 -0.011480625
000040 7d e6 ad 3c f1 0b 89 3c c0 52 76 3d 28 4f 92 3d
       0.02122807 0.016729327 0.06013751 0.07144004
000050 e3 ac 93 3d d1 4e 91 3d 16 1d 01 3e dc c8 ad bd
       0.0721071 0.07095111 0.12608752 -0.084855765
000060 1e ce 8f 3d 5b fe da bc 1c d3 db 3b 2d 67 4a bc
       0.070217356 -0.026732614 0.006708516 -0.012353701
000070 b5 d5 d7 bd 72 98 20 3d 43 9f 72 3d 1f e0 5e bd
       -0.10538808 0.039207883 0.059233915 -0.054412957
000080 2b 81 06 3d 74 c0 9a 3b b2 6f 21 bc f8 34 85 bd
       0.032838028 0.004722649 -0.00985329 -0.065042436
000090 44 6a 3e 3d 48 53 41 bc 9c 91 5c bc 80 0c ff 39
       0.04648806 -0.011799641 -0.01346245 0.00048646703
0000a0 ec 42 82 3c a4 42 fe 3d 51 c8 c7 3c 28 8e 8a 3d
       0.015901051 0.124150544 0.02438751 0.067653954
0000b0 64 df 35 3c d0 58 04 3d 02 30 86 bd ac 01 d8 3c
       0.011100624 0.03231126 -0.065521255 0.026367985
0000c0 21 30 1d bd 9a 2a d4 3d 4c e8 20 3c 51 65 9a bd
       -0.038375977 0.10359688 0.009821009 -0.07538856
0000d0 f0 94 9b 3b dc 61 58 bd 3c 8e d3 bc 0a 8a 2c 3d
       0.0047479793 -0.0528277 -0.025824659 0.04212383
0000e0 3e ed 40 bd 89 c3 6c 3d e0 b5 78 3d 58 0e 5f 3b
       -0.04710125 0.057803664 0.060720325 0.003403565
0000f0 4c a5 46 3c 92 c4 8f bd 9a 3b a4 3c 2a d1 5f bc
       0.012124371 -0.07019915 0.020047951 -0.013660708
000100 fd d1 fe bd 2c 1d be bd 7f 8b 47 3c 83 64 02 bd
       -0.12442396 -0.09282908 0.012179255 -0.031834137
000110 fd 79 0c 3d 80 57 57 39 d0 6b 6d bd bd e8 bd 3d
       0.034296025 0.00020536594 -0.057964146 0.09272907
000120 e2 86 d7 bd 92 76 17 3d 1c 87 f5 3b e6 e6 71 bd
       -0.10523774 0.03697831 0.007492913 -0.059058093
000130 52 8a c5 bc c2 b8 0c 3e 78 cd 1d 3d 6e 7d 84 3c
       -0.024113808 0.13742355 0.03852603 0.01617309
000140 0a e3 43 3d 6f 45 50 bc 14 15 4a 3d 50 fc ec bd
       0.047823943 -0.012711867 0.049336508 -0.11571562
000150 54 c2 44 bd f7 09 25 3d 37 38 3b 3d 7f e4 57 3d
       -0.04803689 0.040292706 0.045707908 0.052708145
000160 97 0d e8 3c 70 d6 84 bd 5c 2a 8c bd 32 55 db bd
       0.028326793 -0.06486213 -0.06844017 -0.10709609
000170 7c 34 8e 3d c2 93 d9 bc 58 98 9d 3d 06 1f 9e b9
       0.06943604 -0.026559714 0.07695073 -0.00030159223
000180 21 bf 92 3c f8 64 3d bd 20 0c a6 3a 6a e5 1b bc
       0.017913403 -0.04623887 0.0012668408 -0.009515146
000190 2e c0 65 3b e8 44 ad 3d aa 87 1d 3d 8e 87 92 bd
       0.0035057175 0.084604084 0.038459457 -0.07154761
0001a0 4c 06 8b 3d 89 5f 42 3d 3e 57 2a 3d a9 ab 16 3d
       0.067883104 0.04745439 0.041587107 0.0367848
0001b0 c8 6b 8b bd 6c de db 3c 85 f5 68 bc 8a 1e 28 3d
       -0.06807667 0.026839457 -0.014218693 0.04104475
0001c0 be 7c 0c 3d 37 54 a0 bc fb 7c 94 bc 67 80 2b 3d
       0.03429865 -0.019571407 -0.018126002 0.0418705
0001d0 0c 66 e9 bb 7a 80 aa 3d 76 1f a1 3d ee 28 11 3d
       -0.0071227606 0.08325286 0.07867329 0.035439424
0001e0 46 0f 1e 3c c8 ed ad 3b 08 99 80 3d 01 78 90 3c
       0.009647196 0.0053078867 0.062791884 0.017635347
0001f0 2d 44 9f bd 9b 4d f5 3d 4d 64 bd 3c d9 00 cb 3d
       -0.077766754 0.11977693 0.023119116 0.09912271
000200 68 e7 49 bd ac c5 19 bd 18 d0 87 3d 4b e4 77 3d
       -0.04929295 -0.03754203 0.066314876 0.06052045
000210 ad 6b c8 3c 79 79 69 bd 6b 2a cf 3c 96 5c a1 3b
       0.024465406 -0.05700061 0.025288781 0.004924367
000220 dc af 54 bd a2 a3 76 3c c8 66 1e 3d 3f 62 c1 ba
       -0.051925525 0.015053662 0.03867224 -0.0014754011
000230 da cf 11 bd 08 d7 bc 3b a8 1f a0 bd 00 d8 6d 3c
       -0.035598613 0.0057629384 -0.07818538 0.01451683
000240 80 28 e8 b9 23 4b 83 bd 08 8f 5b bd b0 1e cc 3c
       -0.00044280663 -0.064108156 -0.053603202 0.024916977
000250 ae 24 05 bd d5 59 9a 3d b6 fd 1f bc 20 d3 c7 3a
       -0.032505684 0.07536665 -0.009765079 0.0015245415
000260 68 a4 45 bd da 90 da 3c a7 2a 64 bd 00 09 21 3b
       -0.048252493 0.026680399 -0.05570474 0.0024572015
000270 9f 13 7e 3d 95 f6 1f bd 7f fd 82 3d b9 e3 1c 3d
       0.06203043 -0.03905352 0.06396007 0.03830311
000280 99 8a 28 3d 31 48 50 3c ba be d0 bb 64 9f b8 bc
       0.041147802 0.012712524 -0.0063703926 -0.02253694
000290 14 ed 4f 3d 96 d0 88 3d ae e1 0c bd 57 1b 14 3d
       0.050763205 0.066804096 -0.034394912 0.036158886
0002a0 bf 1b 16 3c 7a ce b3 3d 08 7d 0f 3e 53 80 81 bd
       0.009161889 0.08779617 0.1401254 -0.06323304
0002b0 7e 2c e0 bc e5 d1 01 3d 36 29 7b bd 47 f9 1b bd
       -0.027364966 0.03169431 -0.0613186 -0.038079526
0002c0 e0 d6 67 bb fb c0 b1 bd c3 81 07 bd 22 47 d0 bb
       -0.0035375878 -0.08679386 -0.033082735 -0.006356136
0002d0 3d 03 08 3c ec d2 71 bd 47 72 6c bd 2e 86 9b 3c
       0.008301553 -0.05903904 -0.05772617 0.01898488
0002e0 3e 90 ab ba 36 a6 96 3d 28 0c 5e 3c 05 6b 09 3d
       -0.0013089252 0.07355921 0.013552703 0.033549327
0002f0 17 da 7f bc 09 e6 23 3d 07 b5 5b 3d 2f 1e bc bb
       -0.0156159615 0.0400143 0.053639438 -0.005740903
000300 9b 36 7e 3d f8 5c af 3d fe 60 7f bd 0b bd b2 bd
       0.062063795 0.08562654 -0.06234836 -0.08727463
000310 0b 05 2b bd 5c 7b 8d 3d 30 2b 75 3c 74 9a 90 3d
       -0.041752856 0.069082946 0.01496391 0.070607096
000320 a6 a0 15 bd fb 8f c6 3d 7e 77 0c bc 00 6c c5 b9
       -0.03653016 0.09695431 -0.008573411 -0.00037655234
000330 c1 cc cf 3b fa 9f 4b 3c 49 4c a8 bc 52 c9 7e bc
       0.0063415472 0.012428278 -0.020544188 -0.015550928
000340 19 14 85 3d ea 91 29 bd c6 cb 0b 3d 87 85 b3 3c
       0.06497974 -0.04139892 0.03412988 0.021914257
000350 b0 51 9c bb d9 41 a0 3d ec 9d fa 3b a8 33 58 3d
       -0.00477048 0.078250594 0.0076482203 0.05278364
000360 5c 4b 02 3c 70 ea c9 bb 22 d3 8e bd 5c 33 32 bd
       0.007952537 -0.0061619803 -0.06973864 -0.04350601
000370 c9 4e 2b 3d f0 ff 82 3b 4c 25 5c bc e5 0b 98 bd
       0.041823182 0.0039977953 -0.013436627 -0.07424144
000380 2c b8 2c 3c 7d 9e b4 bd d8 18 3f bd a8 cb d6 3c
       0.010541957 -0.08819292 -0.046654552 0.026220158
000390 8f f0 ba bc 9a da 00 3e ad 04 83 bc 86 6b 86 bb
       -0.022819785 0.1258339 -0.01599344 -0.0041021733
0003a0 fa 2c 96 bd 60 6b 0e 3d 4f 20 f5 3c 1e 69 07 3d
       -0.07332797 0.03477037 0.029922633 0.033059232
0003b0 02 bc b1 3d 2f 2d f6 bd ee ef 49 bd 80 15 10 3b
       0.08678438 -0.12020337 -0.04930108 0.0021985471
0003c0 6e 76 40 3c 4a b0 c8 3d 2e a4 ac 3d 4c dd b7 3c
       0.011746986 0.097992495 0.08429752 0.02244439
0003d0 08 29 7b bd 35 79 15 3d 8f 76 52 3c 79 b8 9a 3c
       -0.061318427 0.036492545 0.012845649 0.018886792
0003e0 ea 0c db 3c d9 e3 ad bd c4 85 49 bc 02 9c ca 3d
       0.026739556 -0.08490724 -0.012299959 0.098930374
0003f0 ba 06 0b 3c 28 4a 82 bb b8 f7 04 3d c2 1f b7 bd
       0.00848549 -0.0039761253 0.032462806 -0.08941604

fc3.bias f4 [64]
000000 fc 77 62 bd 94 03 90 3b 46 ab 2f 3c 98 37 1d bc
       -0.055290207 0.004394958 0.010721987 -0.009595774
000010 26 e1 67 bd 62 79 82 3d b7 e3 f5 bc 08 0a 20 bc
       -0.056611203 0.06370808 -0.03001581 -0.009768017
000020 28 40 66 3c 4a 70 b8 bb b5 08 a0 bd c0 56 56 3d
       0.014053382 -0.0056286203 -0.07814161 0.052328825
000030 24 d5 28 bc 1e f1 63 bd 52 3b 84 bd 0b 7e 2a bd
       -0.010304723 -0.05564987 -0.06456627 -0.04162411
000040 b6 97 1d bd 03 53 c3 bc e0 b9 e0 bb 77 b0 25 bd
       -0.03847476 -0.023843294 -0.0068580955 -0.040451493
000050 60 08 af 3d 92 78 2b bd 2a 31 9b 3d 1c 69 b4 bc
       0.08546519 -0.04186303 0.07577737 -0.022022776
000060 71 24 a5 bd d3 e2 0d bc 0e f2 5f 3c 7f 98 33 bd
       -0.08063591 -0.008660036 0.01366855 -0.043846603
000070 42 b1 b5 bd ca bc 1d 3d 39 ba 02 3d 67 a9 0e bd
       -0.088717 0.03851012 0.031915877 -0.034829523
000080 58 05 a6 bb 16 56 87 bd 62 e7 43 3d 92 bd a2 bd
       -0.005066555 -0.066082165 0.047828086 -0.07946314
000090 26 4b 81 3d eb 77 1c 3d 84 0e ae bd 34 ff b9 bc
       0.063131616 0.0382003 -0.084988624 -0.022704698
0000a0 16 6f 7b 3d 90 0b 92 3b 5f 88 a0 3d ea 9d 82 bd
       0.061385237 0.0044569448 0.07838511 -0.06377776
0000b0 cc 5d 32 3b 82 8c 25 3c 60 1b b2 ba e4 20 32 bd
       0.0027216552 0.0101043 -0.0013588481 -0.0434884
0000c0 5a 10 10 bc 1a c8 21 bc 4e b4 9c bd 38 24 56 bd
       -0.008792961 -0.009874368 -0.07651578 -0.052280635
0000d0 70 99 53 bd 70 b7 4c bd a3 ef 7b bd 0f af ec bc
       -0.05166 -0.049979627 -0.061507832 -0.028892068
0000e0 6d 48 ce 3d af 94 49 bc b6 80 c6 bd 84 2d 14 bd
       0.10072408 -0.012303515 -0.096925184 -0.03617622
0000f0 e8 44 2b bc 34 86 9f 3c 83 f1 ad bd e2 8d 5a 3d
       -0.01045344 0.019473173 -0.0849333 0.053357966

fc4.weight f4 [10, 64]
000000 44 6f 0e be 22 03 f7 3d 20 25 f9 bc 66 3c 76 bd
       -0.13909632 0.120611444 -0.03041321 -0.060116194
000010 73 f7 d1 bc c4 fe 33 be c2 06 4f bd ba 80 a7 bc
       -0.025630688 -0.17577654 -0.050543554 -0.020447124
000020 89 69 6e bd e4 18 41 bd 11 f4 81 3d 46 96 b0 bd
       -0.058206115 -0.04714288 0.0634538 -0.086224124
000030 a6 9c a0 3d 43 07 f7 bd e4 d8 8e 3c 84 22 ec 3d
       0.07842378 -0.12061932 0.017437406 0.11530021
000040 5e 12 a5 bc ac f2 0b bd 6e 4d 9d bc a5 0f c5 3d
       -0.02015036 -0.034166977 -0.01920196 0.096221246
000050 1d 6f 89 bd 97 06 0d be a0 e2 bf 3d 01 8b 39 3d
       -0.06710646 -0.13772045 0.09369397 0.04529858
000060 86 a8 5d bc 40 62 98 ba d5 c6 79 3d 60 8c 96 bd
       -0.013528949 -0.001162596 0.060980637 -0.07350993
000070 85 ac ef bd 30 41 59 3b cb 64 8d bd 34 e4 a8 bd
       -0.11702827 0.0033150427 -0.0690399 -0.08246651
000080 55 83 ab 3d d8 12 05 3b 35 fc af 3d 84 f5 13 be
       0.08374659 0.0020305421 0.085930265 -0.14449126
000090 d8 61 7f 3c 68 46 19 be fa 51 97 bd 92 0a 26 bd
       0.015587293 -0.14968264 -0.07388683 -0.040537424
0000a0 6c 0e 8d bd 90 d5 aa bc 38 95 f0 bc e4 f8 0b 3d
       -0.068875164 -0.020853788 -0.029368028 0.034172907
0000b0 ca 5b c8 bd b8 58 7b bc 40 21 cc bb 4e 67 b9 3c
       -0.097831324 -0.015340976 -0.0062295496 0.022632267
0000c0 3c cd b7 3c 8c 64 b5 bd 96 bb eb bd 40 69 f0 bb
       0.02243673 -0.088570684 -0.115103886 -0.0073367655
0000d0 ff 64 5c bd 00 fd 8e 3d 58 57 24 be e0 54 2a 3b
       -0.053807255 0.0698185 -0.16048944 0.002599053
0000e0 5a 39 10 3c 81 2e a2 bd 1d fe 91 bd 00 2a b3 39
       0.008802736 -0.07919026 -0.071285464 0.00034172833
0000f0 d0 e3 a9 bc ec bd fb bc c2 b8 06 be 18 6a da bb
       -0.020738512 -0.03073021 -0.13156417 -0.0066654794
000100 e9 de ec 3d f3 97 02 be a6 6c 25 be ba 3b a7 3d
       0.11565954 -0.12753277 -0.16154727 0.08165689
000110 60 9d a0 bc d2 8a 6e 3d 90 eb 76 bc c4 9d 73 3d
       -0.019606292 0.058237858 -0.015070811 0.05947663
000120 2f 26 c4 bd 20 0c b2 3d 2a 76 cc bd 0c 3c b5 3d
       -0.095775954 0.08693719 -0.099834755 0.08849344
000130 70 3a de 3b bd 85 0d bd 76 58 e8 3d 23 3b db bd
       0.0067818686 -0.03455137 0.113449976 -0.10704639
000140 ff 9f 9c 3c e0 61 aa bd 9f ed bb bd d1 df 86 bd
       0.01911926 -0.083194494 -0.09176182 -0.06585658
000150 74 c5 eb bd c3 a0 6d 3d 88 db 24 be ef dd 1f 3d
       -0.115122706 0.058014642 -0.1609937 0.03903001
000160 84 f0 92 bd b4 ca bb 3c bf 72 00 3d 7e b5 b8 3d
       -0.07174781 0.022923805 0.03135943 0.09018992
000170 ca 0a b0 3c 6f 55 6c 3d 2e 61 26 3d 5e 32 42 be
       0.02148952 0.057698663 0.04062002 -0.18964526
000180 20 a9 fc 3c 7e 16 8a bd 39 d7 c7 bd ef 21 78 3d
       0.030842364 -0.06742571 -0.09757847 0.060579237
000190 a7 53 1d bd f6 3a fa bd 5a 79 16 bd c2 b8 6f bd
       -0.038409855 -0.12218277 -0.036736824 -0.05852581
0001a0 c6 d7 10 be 6b ab 27 bc 72 e1 10 3c 4a 14 96 bd
       -0.14144811 -0.01023374 0.008842813 -0.073280886
0001b0 3a 0f 2b bd 70 f9 d2 3d 7c e1 1f be e7 69 9b bc
       -0.041762568 0.10301483 -0.15613359 -0.018971397
0001c0 80 95 b5 3c 72 ea bb 3d de a1 b4 3c 98 c3 21 bd
       0.022166014 0.09175576 0.02204984 -0.039493173
0001d0 e0 11 da bc 92 8c ff 3c 86 90 88 3d 86 a3 53 bd
       -0.026619852 0.031194959 0.06668191 -0.05166962
0001e0 90 9d 47 bd 59 97 cf 3c 5a 37 af bd ba 34 c7 bb
       -0.048734248 0.025340723 -0.08555479 -0.0060792835
0001f0 06 45 30 3d 82 49 c7 bc ab 45 96 bc 60 cc 9d 3c
       0.043034576 -0.024327043 -0.018343767 0.019262493
000200 00 09 6b 3d 32 9a db 3c c1 ef 5a 3d c5 7a 47 bb
       0.05738163 0.026806924 0.053451303 -0.0030438167
000210 33 69 ee bd f3 74 0e be c8 db 82 3c fd b6 64 3d
       -0.11641159 -0.139118 0.01597394 0.055838574
000220 88 46 05 3b 23 28 b2 bd 0f 0d df bd 61 7b 49 3d
       0.002033623 -0.08699062 -0.108911626 0.04918993
000230 aa b7 08 3d 77 9e 0b bd c4 2d d5 3d 97 83 46 bc
       0.03337828 -0.03408667 0.1040912 -0.012116334
000240 68 3d d0 3d e5 fa e2 3c 7c 5f 70 bd 49 b3 f7 bc
       0.10167962 0.027707526 -0.05868481 -0.030236857
000250 f6 dd fd bc 44 c8 fb 3c 44 7c 95 3c 50 d3 a5 bc
       -0.030989628 0.030735143 0.018247731 -0.020242363
000260 90 57 26 bd b1 e6 6f 3d ea 6e 61 3d 23 c8 14 be
       -0.04061085 0.058569614 0.055037417 -0.14529471
000270 90 d6 6f bc 57 54 a1 3d 4d ef d2 bd 78 51 48 3d
       -0.014638558 0.07877415 -0.10299549 0.04890582
000280 8a 35 10 bd a4 89 7c 3c fa 05 14 be 0b bd 68 bd
       -0.03520731 0.015413675 -0.14455405 -0.05682091
000290 46 72 04 3d 85 33 e6 bd 01 03 16 be 2c 91 e3 3c
       0.032335542 -0.11240295 -0.14649583 0.027779184
0002a0 dc 33 83 bc a8 9a 34 bc 10 0b 9a 3c 1e 14 a5 3d
       -0.01601594 -0.011023201 0.018804103 0.08060478
0002b0 2e c0 0a bc 93 be fa bc 30 2d e3 3c 84 60 cc bc
       -0.008468671 -0.030608451 0.027731508 -0.024948366
0002c0 05 37 67 bd ed 85 58 3d 47 44 42 bd 18 99 e4 bd
       -0.056448955 0.052862097 -0.047428396 -0.11162013
0002d0 5c 70 db 3c f9 c2 85 3d d8 a3 59 3d ac 29 9f 3d
       0.026786976 0.06531329 0.05313477 0.0777162
0002e0 d6 8d 7e 3c 59 53 99 bd 32 85 ed bc b9 d7 02 3d
       0.015536746 -0.074866004 -0.028994177 0.03194401
0002f0 e4 52 68 3d 6c 38 46 3d d5 07 e3 3d 5e 8d 19 bc
       0.056719676 0.04839365 0.11085478 -0.0093720835
000300 b2 06 ae bc 28 16 df 3c 06 19 41 bd e6 2f c0 bc
       -0.021243427 0.027232245 -0.047143005 -0.02346034
000310 16 75 01 3d 80 17 07 3d 2a 23 bc 3c 5c bc a2 3d
       0.031605802 0.032981396 0.022965986 0.07946083
000320 20 ca b4 bc a9 46 25 bd ae 4f 75 bd 6d 10 c1 bd
       -0.022069037 -0.04035059 -0.05989044 -0.09426961
000330 ea f6 84 bd 88 dd 29 3d 04 30 c0 3b f8 ab 4e 3a
       -0.064924076 0.041471034 0.005865099 0.00078839017
000340 4e 2a 21 bd ee a2 eb bd f0 0e 99 3b 20 0b d7 3b
       -0.039346986 -0.11505686 0.00467097 0.0065626055
000350 0c c7 d2 3c 7d 71 65 bd 29 10 17 be fe 80 76 bd
       0.025729679 -0.056016434 -0.14752258 -0.06018161
000360 51 25 76 3d 15 84 83 3d e5 4c 00 be 40 b7 ff bd
       0.06009418 0.06421677 -0.12529333 -0.12486124
000370 ba 96 4e 3d 60 1f b3 3a 52 55 b7 3d 20 d5 ae 3d
       0.050436713 0.0013665967 0.089518204 0.08536744
000380 05 2b fb bc 78 69 1c 3d e0 a7 a5 bc ec b4 62 bd
       -0.030660162 0.03818652 -0.02022165 -0.05534832
000390 e0 4d ef bd c2 42 59 3d 84 c2 ae 3c 20 a2 d8 3c
       -0.11684775 0.05304218 0.021332987 0.026444495
0003a0 d2 f5 ae bd 9e da 3c 3d ef 0d d1 3d af dd 5e bd
       -0.0854298 0.046106927 0.10207736 -0.054410633
0003b0 6f b2 5c bc f0 06 97 3d a7 ec c2 bd 19 36 8d bd
       -0.013470276 0.0737437 -0.09517794 -0.06895084
0003c0 07 33 fc bd de b5 30 3d 71 1f b8 3c c5 ca 57 3d
       -0.1231442 0.043142192 0.02247593 0.05268361
0003d0 f3 9c be 3d d9 e1 89 bc 62 83 b6 bc d0 5b 8f bd
       0.093072794 -0.016831325 -0.022279445 -0.06999934
0003e0 18 2a cd bc 54 96 01 3e 42 1f a3 bd 24 79 14 3d
       -0.025044486 0.12655002 -0.07964946 0.03624834
0003f0 30 9c 22 bc 41 8e 87 3d 26 87 ba 3d da e3 c7 3b
       -0.009924933 0.0661893 0.09107809 0.00610016

fc4.bias f4 [10]
000000 88 fd 00 3d 5a 2a 6e 3d 0e 1b c1 bd 41 ae e0 bc
       0.031491786 0.05814586 -0.094289884 -0.02742684
000010 a4 46 2c 3d 65 91 97 3d dc c6 2d 3c 1d 77 0a be
       0.042059556 0.07400779 0.010606494 -0.13522
000020 be c5 b5 3c f1 7e c1 bc
       0.022189017 -0.0236201
