src/client/global_parameters.pt (torch, 973831 bytes, 8 tensors)

fc1.weight f4 [256, 784]
0	0x3cb96cee	0.02263495
1	0x3bfd5020	0.007730499
2	0x3d07e8b7	0.03318092
3	0x3ba19880	0.0049315095
4	0x3a631a00	0.0008663237
5	0x3c7a03d4	0.015259702
6	0xbc646e5c	-0.013942327
7	0x3c8bf0ac	0.017082535
8	0xbc9d0f7c	-0.019172423
9	0xbcefecba	-0.029287685
10	0x3cb92dc6	0.022604834
11	0x3c13f784	0.00903118
12	0x3cb7f8bc	0.022457473
13	0xbc8de09e	-0.01731902
14	0xbc872cb5	-0.01650081
15	0x3b1f0310	0.00242633
16	0xbc8b7c5c	-0.017027073
17	0xbce6e74a	-0.02818646
18	0x3bafc300	0.005363822
19	0x3ca16898	0.019703194
20	0x3a97dd20	0.0011586286
21	0xbbfd179c	-0.0077237617
22	0xbb045160	-0.0020190105
23	0xbd00e040	-0.03146386
24	0x3b2bb460	0.0026200041
25	0xbc7067c6	-0.014673179
26	0x3cb790f0	0.022407979
27	0xbc91747c	-0.01775574
28	0xbd0e4c9a	-0.03474102
29	0xbc95ba45	-0.018277297
30	0xbd083fdd	-0.03326403
31	0x3ce49f82	0.02790809
32	0xbd0a747c	-0.033802494
33	0xbd0b8cbd	-0.034069765
34	0xbcd539c3	-0.02602852
35	0xbcb5ea1a	-0.022206355
36	0xbcf78d5a	-0.030218769
37	0xbbdae414	-0.006680021
38	0x3c938648	0.018008366
39	0x3ce7edf6	0.02831171
40	0xbc44108a	-0.011966834
41	0xbc7995ea	-0.015233496
42	0x3af557a0	0.0018718131
43	0xbcd8cc98	-0.026464745
44	0x3ca75da2	0.02043039
45	0x3ce33c8e	0.027738836
46	0xbbcb4970	-0.006203823
47	0xbd070268	-0.03296128
48	0xb9884180	-0.00025988743
49	0x3cd07ae6	0.025449228
50	0xbb9385a4	-0.004502015
51	0xbae6d540	-0.0017611161
52	0xbc9f897e	-0.019474741
53	0xbbfcaa08	-0.007710699
54	0xbc0a4880	-0.008440137
55	0xbc28db4a	-0.010306189
56	0x3c93f578	0.018061385
57	0x3c7631b4	0.015026499
58	0xbc04c9d2	-0.008104758
59	0xbc6af860	-0.014341444
60	0x3caf9568	0.021433547
61	0x3c6f1114	0.014591474
62	0xbc8c1f5c	-0.017104797
63	0x3c914460	0.017732799
64	0xbcecb3d1	-0.028894337
65	0x3cf74832	0.030185793
66	0x3cb0b816	0.021572154
67	0x3b9de038	0.0048179887
68	0x3cfb684a	0.030689377
69	0xbc4a2e4e	-0.012340141
70	0xbc63d3c6	-0.013905471
71	0x3ccb928c	0.024850152
72	0xba89ada0	-0.0010504015
73	0xbcba30fc	-0.022728436
74	0x3b74e880	0.0037370026
75	0x3c093cd8	0.008376323
76	0xbb8dfc98	-0.00433309
77	0x3c888e8a	0.01666953
78	0x3b20b870	0.0024523996
79	0xbce514d8	-0.02796404
80	0xbc804de5	-0.015662143
81	0xbd023920	-0.03179276
82	0x3ab57fc0	0.0013847277
83	0xbc88b1e0	-0.01668638
84	0x3c538f7c	0.012912627
85	0x3c2b3f30	0.010452077
86	0x3c376524	0.011193547
87	0xbc97af5e	-0.018516239
88	0x3c2ba39c	0.010476019
89	0x3bd4b120	0.0064908415
90	0x3c305214	0.010761756
91	0xbc1bd74e	-0.009511782
92	0x3b656a20	0.0035005882
93	0xbce599a8	-0.02802737
94	0xbb765980	-0.0037589967
95	0x3c5c4234	0.013443518
96	0x3c268338	0.010163121
97	0xbcb4b49e	-0.022058781
98	0xbd030f6c	-0.03199713
99	0x3bba1c68	0.005679656
100	0xbd026580	-0.03183508
101	0xbcee4e38	-0.029090032
102	0xbd0c272f	-0.034217056
103	0xbc075aca	-0.008261392
104	0x3c646b28	0.013941564
105	0xbc4e8f40	-0.012607396
106	0x3c92e8ea	0.017933328
107	0x3d049899	0.03237209
108	0xbd10d08f	-0.035355147
109	0x3d0fd569	0.035115633
110	0xbb0ad620	-0.0021184757
111	0x3d072105	0.032990474
112	0x3d06359f	0.03276598
113	0xbced771a	-0.028987456
114	0xbb104f80	-0.0022020042
115	0x3ba17e00	0.0049283504
116	0xbcb78af0	-0.022405118
117	0x3b035f00	0.0020045638
118	0xbbfd9ff8	-0.007740017
119	0x3c6c8200	0.014435291
120	0x3cbf74d0	0.02337113
121	0xbce5f11e	-0.028069075
122	0x3b412ab0	0.0029474907
123	0xbb9bdb38	-0.0047563575
124	0xbcedb50a	-0.02901699
125	0xbcd80a8e	-0.02637222
126	0xbc9f05aa	-0.01941188
127	0xbcbebb0c	-0.02328255
128	0xbd013b68	-0.031550795
129	0x3ce596fa	0.028026093
130	0xbc43aa18	-0.011942409
131	0xbb698920	-0.0035634711
132	0xbd0e25b0	-0.03470391
133	0x3c9da452	0.019243393
134	0xbcb02063	-0.021499818
135	0x3d11a3e7	0.0355567
136	0xbcc976cc	-0.02459278
137	0x3ccce70c	0.025012515
138	0xbc873b37	-0.016507728
139	0xbcc788c3	-0.024357205
140	0xbcfd72b1	-0.030938478
141	0xbc8cd910	-0.017193347
142	0x3ca8be30	0.020598501
143	0x3ca5ae3c	0.020224683
144	0xbc1cf0d8	-0.009578906
145	0xbbc87b1c	-0.0061181914
146	0xbccc1b15	-0.024915257
147	0x3c0d90a8	0.008640446
148	0x3c205594	0.009786028
149	0xbcb07800	-0.021541595
150	0x3d0ce167	0.034394648
151	0x3cd5fde8	0.026122048
152	0x3cd9f248	0.026604787
153	0x3d0eb133	0.03483696
154	0x3c3c4550	0.011491135
155	0x3cbf7e88	0.023375764
156	0xbc888e95	-0.01666955
157	0xbc74d94a	-0.014944384
158	0x3c6fdfa0	0.014640719
159	0x3c887228	0.016655996
160	0xbcaaa390	-0.020829946
161	0x3c9d3f16	0.01919512
162	0xbca83435	-0.020532707
163	0xbcfd7053	-0.03093735
164	0xbcde7d30	-0.027159303
165	0x3cc75eb0	0.024337143
166	0x3c8883c0	0.016664386
167	0x3cebf0d6	0.028801363
168	0xbc9e74a3	-0.019342726
169	0x3d053053	0.03251679
170	0x3c129e68	0.0089489
171	0x3ba6e370	0.0050930306
172	0xbcc7c163	-0.024384206
173	0x3d0dbb79	0.034602616
174	0x3c865a08	0.016400352
175	0xbc6edf40	-0.014579594
176	0xbb833708	-0.004004363
177	0xbab509c0	-0.001381211
178	0xbce8fff5	-0.028442362
179	0x3c601240	0.013676226
180	0x3c12ba04	0.008955482
181	0x3cd1c8d0	0.02560845
182	0xbc83688c	-0.016041063
183	0xbc1bf41c	-0.009518649
184	0xbcff7b01	-0.031186583
185	0x3cdec4be	0.027193423
186	0xbd0f378c	-0.034965083
187	0xbc0928ce	-0.008371545
188	0xbcd5f633	-0.026118373
189	0x3d01dfe3	0.031707656
190	0xbb93fbd4	-0.0045161042
191	0x3b76c630	0.003765475
192	0xbd03460d	-0.032049228
193	0x3c81586e	0.015789237
194	0x3bdd4b08	0.006753329
195	0x3c2300fc	0.009948965
196	0xbc3f114a	-0.011661837
197	0x3b8ba658	0.004261773
198	0xbc579d92	-0.013160126
199	0x3ca795aa	0.020457108
200	0xbb831008	-0.003999714
201	0x3cb67762	0.022273723
202	0xbd10a157	-0.035310116
203	0xbc90de57	-0.017684145
204	0x3cd251ac	0.02567371
205	0x3c83973e	0.016063329
206	0xbab46240	-0.0013762191
207	0x3b896fb0	0.0041942224
208	0xbccb2d90	-0.024802
209	0xbcdf3508	-0.027246967
210	0xbd119462	-0.0355419
211	0x3bb5c8f8	0.005547639
212	0x3d037be5	0.032100577
213	0xbc8b5040	-0.01700604
214	0x3c10ac44	0.008830134
215	0xbce727c8	-0.028217211
216	0x3c1b2fc8	0.009471841
217	0x3cae7e78	0.02130054
218	0xbcd35ec0	-0.025802016
219	0xbd0f80c8	-0.035034925
220	0x3cb4fab8	0.022092208
221	0x3c817140	0.015801072
222	0x3d06a595	0.032872755
223	0x3cb4d50c	0.022074245
224	0xbc42499c	-0.01185837
225	0x3ce60212	0.02807716
226	0x3b58c230	0.003307473
227	0xbc03538e	-0.008015526
228	0xbbd8d908	-0.006617669
229	0x3d003aa3	0.03130592
230	0x3b6f1b90	0.0036484934
231	0xbc138720	-0.009004384
232	0x3b961aa8	0.0045808144
233	0x3cba9adc	0.02277892
234	0x3c335454	0.010945398
235	0x3cd0cc98	0.025488183
236	0x3c9550ac	0.018226944
237	0xbc7647c0	-0.015031755
238	0xbb29b080	-0.0025892556
239	0x3cf508f6	0.0299115
240	0xbcda7a3c	-0.026669614
241	0xbd018ef4	-0.03163047
242	0xbc58623c	-0.013207015
243	0x3c3906fc	0.011293169
244	0xbb2a6b50	-0.0026003905
245	0x3a9d7e40	0.0012015775
246	0x3cc0aeaa	0.023520786
247	0x3ae48f60	0.0017437749
248	0xbbd77508	-0.0065752305
249	0x3ca3f038	0.020012006
250	0x3b316420	0.0027067736
251	0x3baf9658	0.0053584985
252	0x3c3f1934	0.011663724
253	0x3d05b5c5	0.032644052
254	0x3cb37180	0.021904707
255	0xbca7bab5	-0.020474771

fc1.bias f4 [256]
0	0xbc77ad4a	-0.015116999
1	0xbc8290ee	-0.015938248
2	0xbc9aabe3	-0.01888079
3	0x3bf38078	0.007431086
4	0xbc50170a	-0.012700805
5	0x3cca14ec	0.02466818
6	0x3b993f48	0.004676733
7	0xbc4044ca	-0.011735151
8	0x3c9ed34e	0.019387867
9	0x3c9ff65c	0.019526653
10	0xbc007892	-0.007841246
11	0x3ca5bcc8	0.02023162
12	0x3b703580	0.0036652982
13	0xbc5f236e	-0.013619287
14	0x3d02b563	0.031911265
15	0xbd01c98c	-0.03168635
16	0x3c578e14	0.013156433
17	0xbce0154a	-0.027353901
18	0x3bfef350	0.00778047
19	0x3bcf3dd0	0.0063245073
20	0x3cd02a92	0.025410924
21	0x3c65cf34	0.014026452
22	0x3cd0d58c	0.025492452
23	0xbce54243	-0.027985698
24	0xbc4a2ca6	-0.012339747
25	0xba4dfe00	-0.00078579783
26	0x3cdd8436	0.027040582
27	0xbc8196a3	-0.0158189
28	0x3cced7b6	0.025249343
29	0xbc56d8fc	-0.013113257
30	0x3a99ab60	0.0011724047
31	0x3c95453a	0.018221486
32	0xbc76c2dc	-0.0150611065
33	0xbc88b987	-0.016690029
34	0xbcc32b78	-0.023824438
35	0xbcc43b00	-0.023953915
36	0xb91a8e00	-0.00014739484
37	0xbb0af1f0	-0.0021201335
38	0xbca9e25a	-0.020737816
39	0x3cda2d62	0.026632968
40	0xbcc2d24e	-0.023781922
41	0xbd11692a	-0.035500683
42	0x3c8be9f8	0.017079338
43	0xbd03d212	-0.03218276
44	0xbcfdbcb1	-0.030973764
45	0xbd122a84	-0.035685077
46	0x3d020c99	0.031750295
47	0xbce9c941	-0.028538348
48	0xbcc2d213	-0.023781812
49	0xbca597d3	-0.020213997
50	0xbc25ae00	-0.010112286
51	0xbca358a0	-0.01993972
52	0xbc2461c0	-0.010033071
53	0xbc00e12a	-0.007866183
54	0x3cc22c20	0.023702681
55	0x3cc34de8	0.02384086
56	0xbbd1a8e4	-0.006398307
57	0xbcabfb75	-0.020993927
58	0xbcf0024a	-0.029297967
59	0x3c1cb144	0.009563748
60	0x3aabe400	0.0013114214
61	0xbcb38098	-0.021911904
62	0xbc780c78	-0.0151396915
63	0x3c4b6ea4	0.0124165155
64	0xbcedd36a	-0.029031474
65	0xbb8a6d68	-0.004224468
66	0x3bf9b110	0.0076199844
67	0x3cb59268	0.022164539
68	0x3cecc002	0.02890015
69	0xbc8821fe	-0.016617771
70	0xbd062013	-0.032745432
71	0xbcca816e	-0.02471992
72	0x3c3e3494	0.011609215
73	0x3c5ac058	0.013351522
74	0xbd017b02	-0.03161145
75	0xbbd1549c	-0.00638826
76	0xbc3abee0	-0.011398047
77	0xbb00afb0	-0.0019635968
78	0x3ce42512	0.027849708
79	0x3be5f880	0.007018149
80	0xbcd8995e	-0.026440319
81	0x3c49063c	0.012269553
82	0x3bd5ba60	0.006522462
83	0xbb479c70	-0.0030458234
84	0x3d096b15	0.033549387
85	0x3bdb9370	0.0067009255
86	0x3cbb9782	0.022899393
87	0xbc8e9e4c	-0.017409466
88	0xbcbd0348	-0.023072854
89	0x3bc921a0	0.0061380416
90	0x3d115f0d	0.035491038
91	0xbc261d00	-0.01013875
92	0xbba62140	-0.0050698817
93	0xbcd1a7c3	-0.02559269
94	0xbd06f253	-0.032945942
95	0x3ce93782	0.028468851
96	0xbceb5c9e	-0.028730687
97	0x3cc2cb58	0.023778602
98	0x3d03c1c7	0.032167222
99	0x3c4da810	0.012552276
100	0xbc562dfc	-0.013072487
101	0x3cba7e36	0.02276526
102	0x3bd486c0	0.00648579
103	0xbd0411e5	-0.032243628
104	0x3cdce142	0.02696288
105	0x3d017749	0.0316079
106	0x3cbd9688	0.023143068
107	0xbca83673	-0.020533776
108	0xbc9caa75	-0.019124249
109	0x3d054985	0.032540817
110	0xbc4c8598	-0.012483023
111	0xbb95ab5c	-0.004567547
112	0x3ca8fac8	0.020627394
113	0x3cc535fa	0.02407359
114	0x3ab08d60	0.0013469867
115	0xbcae6470	-0.021288127
116	0x3cef57ae	0.029216614
117	0x3c9382ee	0.018006768
118	0xbd0aed75	-0.033917863
119	0xbc188eae	-0.009311361
120	0x3cd586be	0.026065227
121	0x3c8256cc	0.015910529
122	0x3cdad370	0.02671215
123	0x3b9fe7d0	0.004879929
124	0x3c938678	0.018008456
125	0x3c06c838	0.008226447
126	0x3cc553f8	0.024087891
127	0xbb4ac080	-0.0030937493
128	0x3c6759d0	0.014120534
129	0xbc5dae6e	-0.013530357
130	0xbbab3e1c	-0.00522591
131	0x3cd7e230	0.026352972
132	0x3ca4cfee	0.02011868
133	0x3cb928b0	0.02260241
134	0x3c84d37c	0.016214125
135	0x3c255b50	0.010092571
136	0x3c42b190	0.0118831545
137	0x3ce87f4e	0.028381016
138	0x3c48f2bc	0.012264904
139	0x3c09ff1c	0.008422639
140	0x3c55fef8	0.013061278
141	0x3cd53910	0.026028186
142	0xbc731cce	-0.014838411
143	0x3cd15a78	0.025555834
144	0x3c949a2a	0.018139917
145	0x3d123e35	0.035703856
146	0x3ca80ab0	0.020512909
147	0x3ce398ba	0.027782787
148	0x3cfa5efa	0.030562866
149	0xbd022ad7	-0.031779137
150	0x3d049859	0.032371853
151	0x3cce10ac	0.025154434
152	0xbbcf3d88	-0.006324474
153	0xbd07147a	-0.032978512
154	0x3cf27e52	0.02960125
155	0x3c83a3f0	0.016069382
156	0x3cc97be6	0.024595212
157	0xbc41766e	-0.011808021
158	0x3cf2f7ee	0.029659238
159	0xbc679438	-0.014134459
160	0x3bf9b2d0	0.007620193
161	0x3cd32a76	0.025777083
162	0x3cb53e0e	0.022124317
163	0x3cfc4eae	0.030799236
164	0x3b2a5c00	0.0025994778
165	0xbc20881c	-0.009798076
166	0x3acda920	0.0015690662
167	0xbcc4a605	-0.024004946
168	0x3c879dd8	0.016554758
169	0x39268b00	0.00015882775
170	0xbccc8f1a	-0.02497058
171	0xbc1bd520	-0.009511262
172	0x3c6f0ba4	0.014590178
173	0x3d0e07c1	0.034675363
174	0xbd0b130a	-0.033953704
175	0xbc916a13	-0.017750775
176	0xbc5a03ae	-0.013306541
177	0x3c3f1ef0	0.011665091
178	0x3c10f054	0.008846361
179	0x3be318b8	0.006930437
180	0x3bf30280	0.0074160695
181	0xbc3288ee	-0.010896904
182	0x3ce9947a	0.028513182
183	0x3ce4397e	0.027859446
184	0xbc8ea2d0	-0.01741162
185	0x3c428f5c	0.011875
186	0xbbe4c978	-0.0069820248
187	0xbbaa8880	-0.0052042603
188	0x3cbf61d8	0.023362085
189	0x3bd985b0	0.0066382512
190	0xbc94b8d3	-0.018154537
191	0xbcee52b1	-0.029092165
192	0x3c93f82e	0.018062677
193	0x3b87e238	0.0041468404
194	0xbcf8330c	-0.030297779
195	0xbcaab25e	-0.020837005
196	0x3ca2b68c	0.019862436
197	0xbd0ed94f	-0.03487521
198	0xbc93337c	-0.017968886
199	0x3b07bd30	0.002071213
200	0xbc97f37e	-0.018548723
201	0xbc2bd398	-0.01048746
202	0xbceb20a3	-0.028702086
203	0xbcedd141	-0.029030444
204	0xbce3192a	-0.02772196
205	0x3cbb3ca8	0.022856072
206	0xbceed498	-0.029154107
207	0x3c91bf82	0.017791513
208	0xbcf93588	-0.030421034
209	0x3ca2311a	0.019798804
210	0x3d0cc54b	0.03436784
211	0x3bdadfe8	0.0066795237
212	0xbd085000	-0.03327942
213	0xbc5746e0	-0.0131394565
214	0xbce5eeb8	-0.028067932
215	0xbc855a00	-0.016278267
216	0x3c65da78	0.014029138
217	0x3c7b19fc	0.015326019
218	0x3cd794ee	0.026316132
219	0x3c4bae34	0.01243167
220	0xbc87435a	-0.016511608
221	0xbb45bb80	-0.0030171573
222	0xbc770ffc	-0.015079495
223	0xbc12bb0e	-0.00895573
224	0x3aea4440	0.0017873123
225	0xbbb642e4	-0.005562173
226	0x3cccaac8	0.024983779
227	0xbb80cac8	-0.0039304234
228	0xbd08ffdc	-0.03344713
229	0xbd0b5c63	-0.034023654
230	0x3bb917b0	0.0056485757
231	0x3cd64396	0.026155274
232	0xbcf47f8c	-0.029845975
233	0x3c659780	0.014013171
234	0x3c186060	0.009300321
235	0x3cc7594a	0.024334569
236	0x3c5ee760	0.013604969
237	0x3cd7684c	0.02629485
238	0x3cb01b5c	0.021497421
239	0x3c92a152	0.01789919
240	0x3c34de88	0.011039384
241	0x3bb48810	0.005509384
242	0x3b72ce30	0.0037049167
243	0x3cc46f9e	0.023979004
244	0xbcda14ae	-0.026621189
245	0xbc9d3ef0	-0.01919505
246	0x3c20fe80	0.0098263025
247	0xbc0c6e4a	-0.008571217
248	0xbc9bb95e	-0.019009288
249	0x3c93c6aa	0.018039066
250	0x3cd4edc8	0.02599229
251	0x3cf92946	0.030415189
252	0xba8d3100	-0.001077205
253	0x3cf3213e	0.029678937
254	0x3c5dbb5c	0.0135334395
255	0xbd0c431c	-0.034243688

fc2.weight f4 [128, 256]
0	0xbbe64f50	-0.0070284978
1	0xbced2480	-0.028948069
2	0x3ca50844	0.020145543
3	0xbadf4440	-0.001703389
4	0xbd05f2e6	-0.03270235
5	0xbab40ec0	-0.0013737306
6	0xbd270a10	-0.04078108
7	0x3d158630	0.036504924
8	0xbd503dd2	-0.050840206
9	0xbd486f56	-0.048934303
10	0x3d3346c6	0.043768667
11	0x3d09af02	0.033614166
12	0x3cd9ebe0	0.026601732
13	0xbcaacdc8	-0.020850077
14	0x3b533260	0.003222607
15	0xbcb3f3bc	-0.021966808
16	0x3d4e484e	0.050361924
17	0x3a9b1300	0.0011831224
18	0x3c6aef98	0.01433935
19	0x3c8d19e8	0.017224267
20	0x3c3d5330	0.011555478
21	0xbd2ff81a	-0.042961217
22	0xbc967ae8	-0.018369153
23	0x3cc53c64	0.024076648
24	0x3d44de26	0.04806342
25	0xbcbf3d20	-0.023344576
26	0x3cb76108	0.022385135
27	0xbd45c46a	-0.04828302
28	0x3d4e23b0	0.050327003
29	0xbc489920	-0.012243539
30	0x3b5595e0	0.0032590553
31	0x3cfb42e4	0.030671544
32	0xbc1c2f00	-0.00953269
33	0x3d23c3ce	0.039981656
34	0xbc9b9948	-0.018993989
35	0x3d392716	0.04520329
36	0x3d207938	0.039178103
37	0xbd570636	-0.052496158
38	0x3d766d84	0.060163036
39	0x3afa14c0	0.001907967
40	0x3d77150a	0.0603228
41	0xbcfbb5bc	-0.030726306
42	0xbb290fe0	-0.0025796816
43	0xbc257168	-0.010097839
44	0xbd795186	-0.060868762
45	0xbc819f08	-0.015822902
46	0xbb3befe0	-0.0028676912
47	0xbd53c666	-0.05170288
48	0x3c9709b8	0.018437251
49	0xbc39a298	-0.011330269
50	0xbd6637fe	-0.056205742
51	0xbc49d088	-0.012317784
52	0x3d2a79a2	0.041619904
53	0x3cb59790	0.022166997
54	0xbd35569a	-0.044272043
55	0x3d5e4fea	0.05427543
56	0x3c43ca40	0.011950076
57	0x3d57c9fc	0.05268286
58	0x3c8332bc	0.016015403
59	0x3d53e394	0.051730707
60	0xbcdfbf98	-0.027313039
61	0x3d36a938	0.044594973
62	0xbd02935e	-0.03187882
63	0xbd36a510	-0.04459101
64	0x3d19525e	0.037432067
65	0x3ce7a064	0.028274722
66	0xba2abd80	-0.0006513223
67	0xbc716e18	-0.014735721
68	0xbb3d6d20	-0.0028904155
69	0x3cfd3c04	0.030912407
70	0x3d563a60	0.052301764
71	0xbd088286	-0.0333276
72	0xbd004290	-0.03131348
73	0xbd378294	-0.044802263
74	0xbc88b820	-0.01668936
75	0x3ad28900	0.0016062558
76	0x3d2b7f4a	0.04186944
77	0xbd2f248a	-0.042759456
78	0x3a31e400	0.0006785989
79	0xbc1c7598	-0.009549521
80	0xbd1006ac	-0.035162613
81	0xbb212820	-0.0024590567
82	0x3cc5ee60	0.024161518
83	0x3d49752c	0.04918401
84	0xbd37ebc2	-0.04490257
85	0x3d67dd42	0.056607492
86	0xbd7e169e	-0.06203329
87	0xbc1cde98	-0.009574555
88	0x3ac4ba00	0.0015009046
89	0xbcb70b40	-0.022344232
90	0xbc87b1bc	-0.016564243
91	0xbcd8c8c8	-0.026462927
92	0xbc9f5a3c	-0.019452207
93	0xbc67ffd8	-0.014160119
94	0xbca20548	-0.019777909
95	0xbcb02c28	-0.02150543
96	0x3d74e3a4	0.059787408
97	0xbcabdff4	-0.020980813
98	0xbd247698	-0.040152162
99	0xbccf8f18	-0.025336787
100	0xbd1a3d34	-0.037656024
101	0x3d10af3c	0.035323367
102	0x3c9331a8	0.017968014
103	0xbcf9bea4	-0.030486412
104	0xbd04d8c8	-0.0324333
105	0xbd5bf0ee	-0.053696565
106	0xbd22728c	-0.03966002
107	0xbc429ef0	-0.011878714
108	0xbcd2f26c	-0.025750361
109	0xbd4a9da6	-0.04946675
110	0x3d5fca4a	0.054636277
111	0x3ce79658	0.028269932
112	0xbd1c698c	-0.038186595
113	0xbc97884c	-0.018497609
114	0x3ceaf3e0	0.028680742
115	0xbd4ccffe	-0.050003044
116	0xbc2daa58	-0.010599695
117	0x3d61510a	0.055008925
118	0x3d399422	0.045307286
119	0xbd323830	-0.043510616
120	0x3d1979e4	0.03746976
121	0xbd35f48c	-0.04442267
122	0x3d2e67b6	0.042579375
123	0xbacb6380	-0.0015517324
124	0xbc26fdb8	-0.010192327
125	0xbd16c1a4	-0.036805764
126	0x3c8a16c8	0.016856566
127	0xbb9c1170	-0.004762821
128	0xbcbd278c	-0.023090146
129	0x3d71acb2	0.059002586
130	0xbd770682	-0.06030894
131	0x3d4b70ce	0.049668126
132	0xbd35acf2	-0.044354387
133	0x3c83042c	0.0159932
134	0x3b9816a0	0.004641369
135	0x3d680662	0.056646712
136	0x3c815cd0	0.015791327
137	0xbcfa653c	-0.03056585
138	0x3c1a76d8	0.009427749
139	0x3d3e4caa	0.04645983
140	0xbd4534b4	-0.048145965
141	0x3d12a18e	0.0357986
142	0xbd353d9e	-0.044248216
143	0xbb1dd0c0	-0.0024080724
144	0x3d7e3ff2	0.0620727
145	0x39e4e400	0.00043657422
146	0xbd624642	-0.055242784
147	0x3d3ebfde	0.046569698
148	0xbaba7000	-0.0014224052
149	0xbd3006b0	-0.042975128
150	0xbcfa6d34	-0.03056965
151	0x3cda0d74	0.026617743
152	0xbc4e8c20	-0.012606651
153	0xbd036226	-0.032076024
154	0xbce7091c	-0.028202586
155	0x3c54d140	0.012989342
156	0x3cca79f8	0.024716362
157	0xbc3dbda8	-0.011580862
158	0xbbec7a40	-0.007216722
159	0x3d79a618	0.060949415
160	0xbd39a1a8	-0.045320183
161	0x3cd7eafc	0.026357166
162	0x3d51ae12	0.051191397
163	0x3d07172a	0.032981075
164	0x3c662b58	0.01404842
165	0xbcdf5e0c	-0.027266525
166	0xbd0ee6b0	-0.03488797
167	0x3c6b72e8	0.0143706575
168	0xbc6ce018	-0.014457725
169	0x3cfe98d4	0.031078734
170	0x3ccf2bdc	0.025289468
171	0xbbd4c970	-0.00649374
172	0xbb290d40	-0.002579525
173	0x3d1a49ec	0.037668154
174	0xbc9b7c6c	-0.018980227
175	0x3d5d517e	0.054032795
176	0x3d692eec	0.056929514
177	0x3d799c6c	0.06094019
178	0xbbdc2f20	-0.006719485
179	0xbc07e6c0	-0.008294761
180	0x3bbb4eb0	0.0057161674
181	0x3d3b98a2	0.04579986
182	0x3d407314	0.046984747
183	0xbbdfad40	-0.006826073
184	0xbd0c9b22	-0.034327634
185	0xbd07d94c	-0.033166215
186	0xbd0c9cc6	-0.0343292
187	0x3cfab708	0.030604854
188	0xbcd7a584	-0.026324041
189	0xbd222292	-0.03958375
190	0xbc3ce798	-0.011529826
191	0xbcbcd398	-0.023050115
192	0xbcc534f4	-0.024073102
193	0xba538d00	-0.0008070022
194	0xbc5e6ef8	-0.013576262
195	0xbbe4c6a0	-0.0069816858
196	0x3d70c1c6	0.058778547
197	0xbd49e86c	-0.04929392
198	0x3d6376f4	0.055533364
199	0x3cffee9c	0.031241708
200	0x3a86eb00	0.0010293424
201	0xbd186f0e	-0.037215285
202	0x3d027842	0.031852968
203	0xbcc7d378	-0.024392828
204	0x3d3e737c	0.046496853
205	0x3cac2c3c	0.021017186
206	0x3d2c37d0	0.042045414
207	0x3d1c0470	0.03809017
208	0x3d6cfe14	0.057859495
209	0xbb042d00	-0.0020168424
210	0xbca88f20	-0.02057606
211	0xbd736580	-0.05942297
212	0xbc524150	-0.0128329545
213	0x3d41e6ec	0.047339365
214	0xbae4e080	-0.0017461926
215	0x3cf386d0	0.02972737
216	0x3d36d534	0.04463692
217	0xbd1075ec	-0.03526871
218	0xbd0e17fe	-0.03469085
219	0x3bb04ec0	0.0053804815
220	0xbd1e0b78	-0.038585156
221	0x3c9e751c	0.019342951
222	0x3c455580	0.012044311
223	0x3ce105f8	0.027468666
224	0x3d35d1c2	0.044389494
225	0x39e8b300	0.00044383854
226	0xbd74d958	-0.059777588
227	0x3d2ceda6	0.042218827
228	0x3d5d6b84	0.054057613
229	0xbc62cfb8	-0.013843469
230	0x3d6c2fa0	0.057662606
231	0xbc66d9b0	-0.014089987
232	0xbd78ddb6	-0.060758315
233	0x3b3fbfc0	0.002925858
234	0x3d3fee52	0.04685814
235	0xbd08aa9e	-0.03336584
236	0xbd293d60	-0.041318297
237	0xbcd04cec	-0.025427304
238	0xbd1452fe	-0.03621196
239	0x3b773a60	0.0037724003
240	0xbd767878	-0.06017348
241	0x3ba84b30	0.005135916
242	0xbce0ab4c	-0.02742543
243	0xbc5147d8	-0.012773477
244	0x3ca2415c	0.019806556
245	0xbc5723b8	-0.013131075
246	0x3d0a5b46	0.03377845
247	0x3cef7e68	0.02923508
248	0xbc8801a4	-0.016602345
249	0xbd63bd64	-0.05560054
250	0xbd448566	-0.04797878
251	0xb9cfac00	-0.00039610267
252	0xbc0d8db8	-0.008639745
253	0x3d1c888e	0.038216166
254	0x3cf448cc	0.029819869
255	0x3cdbd080	0.026832819

fc2.bias f4 [128]
0	0xbbff1240	-0.007784158
1	0x3d7e3492	0.062061854
2	0x3d4b997c	0.04970692
3	0x3c9c2134	0.019058801
4	0x3cf76e60	0.030203998
5	0xbcc3bd8c	-0.023894094
6	0x3d26fe60	0.040769935
7	0x3d7e058a	0.062017
8	0xbcd73710	-0.026271373
9	0xbd053426	-0.032520436
10	0x3d6d3996	0.057916246
11	0x3cafb25c	0.021447353
12	0xbd04b424	-0.032398358
13	0xbcad8a8c	-0.021184228
14	0xbcfe1498	-0.03101568
15	0xbc4e09e8	-0.012575604
16	0xbc179de8	-0.009253956
17	0x3d2d053e	0.042241327
18	0xbc8a224c	-0.016862057
19	0xbc025538	-0.007954888
20	0x3d154fb2	0.036452956
21	0x3bfcdf70	0.0077170655
22	0xbd65eb38	-0.056132525
23	0xbd542674	-0.051794484
24	0x3d5291c0	0.05140853
25	0xbc82bdd0	-0.01595965
26	0xbd103e5a	-0.035215713
27	0x3d5934ae	0.053028755
28	0xbd437126	-0.04771533
29	0x3d3eccca	0.04658202
30	0xbd6f64dc	-0.058445796
31	0x3bdcbbf0	0.006736271
32	0x3c86b74c	0.016444825
33	0x3ce21608	0.027598396
34	0xbc8c4804	-0.017124183
35	0x3c92d124	0.017921992
36	0x3cf02dbc	0.029318683
37	0xbc79aa30	-0.01523833
38	0xbd3897f8	-0.045066804
39	0xbd7f1252	-0.06227333
40	0x3d73409a	0.05938778
41	0xbbafb8b0	-0.0053625926
42	0x3d473dce	0.048642926
43	0xbd7814d6	-0.060566746
44	0xbd0ef9ca	-0.034906186
45	0x3d06d25e	0.032915466
46	0x3d02389c	0.03179227
47	0xbb8a9d30	-0.004230164
48	0xbd099874	-0.033592656
49	0xbd75e894	-0.060036257
50	0x3ccd46d4	0.025058188
51	0xbcde25e8	-0.027117684
52	0x3cf43414	0.029809989
53	0x3d43ea72	0.047831006
54	0x3d21c4c4	0.03949429
55	0x3ca10628	0.019656256
56	0x3d06c4e2	0.032902606
57	0x3d743cc6	0.05962827
58	0xbca1ccc0	-0.019750953
59	0x3d28089e	0.041023843
60	0xbb7e2680	-0.0038780272
61	0x3d67a382	0.056552418
62	0xbd7aa10a	-0.061188735
63	0x3d6d2d50	0.05790454
64	0x3cdc6518	0.026903674
65	0xbd1ad9be	-0.03780531
66	0x3d0a0674	0.03369756
67	0x3d20a3fe	0.039218895
68	0xbc11ca68	-0.008898355
69	0x3c8d6b3c	0.017263047
70	0x3d7b3198	0.061326593
71	0xbb5fc340	-0.0034143478
72	0x3cdfd2f8	0.027322277
73	0x3d481a52	0.048853226
74	0x3d1f3c72	0.038876005
75	0x3be21960	0.0068999976
76	0x3d0c312c	0.03422658
77	0x3b01ba60	0.0019794926
78	0x3b95cfc0	0.004571885
79	0x3d093132	0.033494182
80	0x3d78a9f4	0.060708955
81	0xbb014fe0	-0.0019731447
82	0xbc4f5c00	-0.012656212
83	0x3cba5718	0.022746608
84	0x3d3601b4	0.044435218
85	0x3c455708	0.012044676
86	0x3c0ed1c0	0.0087170005
87	0xbaa67800	-0.0012700558
88	0xbce5caec	-0.028050862
89	0xbc09f6d0	-0.008420661
90	0x3d277312	0.040881224
91	0x3b797880	0.0038066208
92	0x3cb3f688	0.021968141
93	0xbc295308	-0.010334738
94	0xbd34f244	-0.044176355
95	0x3d1a9e00	0.037748337
96	0x3d77dbf2	0.06051249
97	0xbd16d234	-0.03682156
98	0x3c4e3a58	0.012587152
99	0x3cc38610	0.023867637
100	0x3cabf718	0.020991847
101	0x3c08b218	0.008343242
102	0x3d5be3b2	0.053683944
103	0xbb3efe00	-0.0029143095
104	0x3d473676	0.048635922
105	0xbd4014e2	-0.046894915
106	0x3c81e8f8	0.015858158
107	0x3ce20d8c	0.02759435
108	0x3ca05a54	0.019574322
109	0xbd3dd348	-0.04634407
110	0xbd443fe6	-0.0479125
111	0xbd2e850a	-0.042607345
112	0xbc2ece60	-0.010669321
113	0x3cbe2930	0.023213
114	0x3c3429f8	0.010996334
115	0x3d1dad3c	0.038495287
116	0xbcdf71b4	-0.027275898
117	0x3cf5b384	0.029992826
118	0xbcd97b18	-0.026547953
119	0xbc6e3160	-0.014538139
120	0x3d3e413a	0.046448924
121	0x3b60faa0	0.0034329072
122	0xbd247732	-0.040152736
123	0xbc3da9e8	-0.011576153
124	0x3cd56024	0.02604682
125	0xbcd44034	-0.02590952
126	0x3ce89008	0.028388992
127	0xbc8a4a04	-0.016880997

fc3.weight f4 [64, 128]
0	0xbd19da31	-0.0375616
1	0xbd8779b7	-0.06615012
2	0xbc970e2c	-0.018439375
3	0x3caca5e8	0.021075204
4	0x3ca0bcc0	0.019621253
5	0xbcf9eb70	-0.030507773
6	0xbd22c54e	-0.039738946
7	0x3d879557	0.06620281
8	0xbd994c86	-0.07485299
9	0x3b848110	0.0040437058
10	0xbc7551a8	-0.014973082
11	0x3ce51e98	0.02796869
12	0xbc9d727c	-0.01921963
13	0xbd916451	-0.07099212
14	0xbdac0fec	-0.08401474
15	0x3d19843a	0.037479617
16	0x3d0afef8	0.033934563
17	0xbcc9f5e8	-0.02465339
18	0x3d18419e	0.037171952
19	0x3d8e2bcb	0.069419466
20	0xbc925a88	-0.017865434
21	0x3d98c145	0.07458738
22	0xbd7a6c14	-0.061138228
23	0x3d19619e	0.03744661
24	0x3d679e82	0.05654765
25	0xbd48b754	-0.04900296
26	0xbbfe0b80	-0.0077528358
27	0x3cdb07b4	0.026737072
28	0xbd77a586	-0.06046059
29	0x3cd0e55c	0.025499992
30	0xbb5bc840	-0.0033536106
31	0x3abcd0c0	0.0014405474
32	0xbcfe7a20	-0.031064093
33	0x3d294626	0.041326664
34	0x3db01ab1	0.08598841
35	0xbd89ecb4	-0.06734601
36	0x3c1f8bd0	0.009737924
37	0x3d623386	0.055224918
38	0x3cf66570	0.030077666
39	0x3d2caf26	0.042159222
40	0x3b346e80	0.0027531683
41	0x3dab02f9	0.08350176
42	0x3d07558e	0.033040576
43	0xbd113ce9	-0.03545848
44	0x3d053d26	0.03252902
45	0x3d07f9f0	0.033197343
46	0xbd83647a	-0.06415649
47	0x3b5ff3e0	0.003417246
48	0xbcd230a8	-0.025657967
49	0xbda429d2	-0.08015789
50	0x3c015bc0	0.00789541
51	0xbd421abc	-0.047388777
52	0x3d9d9c2f	0.07695805
53	0x3d83d1c9	0.06436498
54	0xbd1a926a	-0.037737288
55	0x3d8af015	0.06784073
56	0x3c1b5c88	0.00948251
57	0xbd6fb0e2	-0.058518298
58	0x3cf3bafc	0.029752247
59	0x3d4a4a82	0.049387462
60	0x3d488ffe	0.048965447
61	0xbb05f080	-0.0020437539
62	0x3d190d76	0.037366353
63	0x3da3e5d1	0.080028184
64	0x3d41e342	0.04733587
65	0x3cd3bc34	0.025846578
66	0x3c663f30	0.014053151
67	0xbda77255	-0.08176104
68	0xbd98841e	-0.07447074
69	0x3d9696c3	0.07352974
70	0xbd297bed	-0.04137795
71	0x3cab71e4	0.02092833
72	0x3d4094de	0.04701697
73	0x3ce5dc14	0.028059043
74	0x3daf54cf	0.08561098
75	0x3d4a2cd6	0.049359165
76	0x3d098bb8	0.03358051
77	0xbda74960	-0.08168292
78	0xbce767fe	-0.02824783
79	0x3cc2bbe8	0.023771241
80	0xbdae5aa7	-0.08513384
81	0xbd261a6e	-0.04055255
82	0xbd1bba8c	-0.0380197
83	0x3cb2d578	0.021830305
84	0xbc9747a8	-0.018466786
85	0xbc7c6598	-0.015405081
86	0xbc863300	-0.01638174
87	0xbb001340	-0.0019542724
88	0xbcdd642e	-0.027025308
89	0xbcbd32f4	-0.023095585
90	0xbc64ab78	-0.013956897
91	0x3c75ac48	0.014994688
92	0x3d4252ee	0.04744237
93	0x3d9993bf	0.074988835
94	0xbda2322f	-0.07919728
95	0xbd2dca95	-0.042429525
96	0x3c8e6ce0	0.0173859
97	0xbcf1abd8	-0.029500887
98	0x3d1486fa	0.036261536
99	0x3d43dfee	0.047820978
100	0x3ca4ebcc	0.020131968
101	0xbc938954	-0.01800982
102	0xbd8037d2	-0.06260647
103	0xbbc67fd0	-0.006057717
104	0xbd86eeec	-0.065885395
105	0xbca26588	-0.019823804
106	0x3c7d3c28	0.015456237
107	0x3cb65050	0.022255093
108	0xbcb3b9a4	-0.021939106
109	0x3ccd7908	0.025082126
110	0x3ccdb058	0.025108501
111	0x3d647b26	0.055781506
112	0x3d11dc5e	0.03561055
113	0xbcd0be18	-0.025481269
114	0x3d9651ab	0.07339796
115	0x3c065018	0.008197807
116	0xbd9fbad7	-0.07799309
117	0x3d9c81c7	0.076419406
118	0x3d6b0eba	0.05738709
119	0x3d5d6642	0.0540526
120	0xbcfb1018	-0.030647323
121	0x3db2f1fd	0.08737562
122	0x3d9753d3	0.07389035
123	0x3cd58514	0.026064433
124	0x3b5b5160	0.0033465251
125	0xbd9cfff2	-0.07666005
126	0xbd83a6ea	-0.06428321
127	0xbcfc06a8	-0.030764893
128	0xbd6c580b	-0.05770115
129	0x3d002566	0.031285666
130	0x3da329b3	0.07966938
131	0x3d6dc532	0.05804939
132	0x3c83c7f8	0.016086563
133	0xbc3c4228	-0.011490382
134	0x3d51968a	0.051168956
135	0xbd17d373	-0.037066888
136	0xbb0f7860	-0.0021891817
137	0x3d80ad91	0.06283105
138	0x3d5ce7aa	0.05393187
139	0xbcfc96b4	-0.03083358
140	0xbd8cf214	-0.0688211
141	0x3d9ea2a7	0.07745867
142	0x3d66dfb6	0.05636569
143	0x3cbd7cf0	0.023130864
144	0xbbbd66d0	-0.0057800785
145	0x3d7c89c6	0.06165483
146	0xbd96531d	-0.07340071
147	0xbb03e720	-0.0020126775
148	0x3d6e58ba	0.058190085
149	0xbdae0bbf	-0.08498334
150	0xbd5fe7f7	-0.05466458
151	0x3d086184	0.033296123
152	0xbd9ee863	-0.07759168
153	0xbda6c8bf	-0.08143758
154	0xbc92b6a4	-0.017909355
155	0xb9bdc900	-0.00036198646
156	0xbd47f33d	-0.048815954
157	0x3c678e18	0.014132999
158	0xbd1b66db	-0.037939887
159	0xbd20dcd4	-0.039273098
160	0xbd96c5b9	-0.07361931
161	0xbce7ccb0	-0.028295845
162	0xbb88ca50	-0.004174508
163	0x3d8a0bd9	0.06740541
164	0x3d727fea	0.05920402
165	0xbc0fb8a8	-0.008772053
166	0xbd906321	-0.07050157
167	0x3d87bca9	0.06627781
168	0x3a8220c0	0.0009927973
169	0xbbc18f90	-0.0059070066
170	0x3c94a010	0.01814273
171	0x3d856f7f	0.06515407
172	0xbd3bcebe	-0.04585146
173	0x3d4b3f36	0.04962083
174	0x3db2d207	0.08731466
175	0x3cfa78a8	0.030575112
176	0xbd2065d8	-0.039159626
177	0xbd00fed9	-0.03149304
178	0x3d8cb7b5	0.06870977
179	0x3d8c2c43	0.0684438
180	0xbc0852a0	-0.008320481
181	0x3d63b246	0.055589937
182	0x3d7b4f2e	0.06135481
183	0xbcefaaa4	-0.029256172
184	0x3c28c9c8	0.010302015
185	0x3d4b915e	0.04969918
186	0xbcfd16d8	-0.030894682
187	0x3d3fd032	0.04682941
188	0x3d618a12	0.055063315
189	0x3d9071b7	0.070529394
190	0x3d1acbc6	0.03779199
191	0x3a4bed00	0.0007779151
192	0xbb75a6c0	-0.0037483424
193	0xbd55c57d	-0.052190293
194	0xbd8c0e01	-0.068386085
195	0xbd0f9571	-0.035054628
196	0xbd19e978	-0.03757617
197	0x3ba0c7e0	0.0049066395
198	0x3d9dbd17	0.07702082
199	0x3cc13280	0.02358365
200	0x3c1703d0	0.009217218
201	0x3cf9707c	0.030449145
202	0x3cd6c9f8	0.026219353
203	0xbccc7cb4	-0.024961807
204	0x3da41813	0.08012404
205	0xbd865f42	-0.06561138
206	0x3da1d7fb	0.07902523
207	0xbda75eb8	-0.08172363
208	0xbd72c403	-0.059268963
209	0x3da059f5	0.07829658
210	0xbca66a58	-0.02031438
211	0x3d9f1c3f	0.077690594
212	0xbd599829	-0.053123627
213	0xbd91c630	-0.071178794
214	0xbcf9c142	-0.03048766
215	0xbd8f1987	-0.06987291
216	0x3d49d592	0.049275942
217	0xbb02f940	-0.001998499
218	0x3d04399a	0.032281496
219	0xbd9b9f42	-0.075987354
220	0xbd8f85f7	-0.07007974
221	0x3c5b1658	0.013372026
222	0xbc3bd640	-0.011464655
223	0xbcea898a	-0.028630037
224	0x3d6ab8e2	0.057305224
225	0xbba72930	-0.0051013455
226	0x3cb833a4	0.022485562
227	0xbd4978ca	-0.04918746
228	0xbcc463dc	-0.023973398
229	0x3c4416f8	0.011968367
230	0xbd9fcab8	-0.078023374
231	0x3d129dce	0.035795026
232	0x3d2015ce	0.039083295
233	0x3c8054c0	0.015665412
234	0xbd03ed1c	-0.032208547
235	0x3db3de59	0.08782644
236	0xbc90722c	-0.017632566
237	0x3d729be6	0.059230708
238	0xbd984e64	-0.07436827
239	0x3c934f00	0.017982006
240	0x3d1ae952	0.037820168
241	0xbc343d10	-0.011000887
242	0x3d9f0711	0.0776502
243	0x3c830384	0.015992887
244	0x3da25ddf	0.07928061
245	0x3c775208	0.015095241
246	0xbd5a460a	-0.05328945
247	0xbcd25c9c	-0.025678925
248	0xbc6f8240	-0.014618456
249	0x3d582e5e	0.052778594
250	0x3c5f0d38	0.013613991
251	0xbd9a58fd	-0.075365044
252	0xbdae7c93	-0.085198544
253	0x3c9d4570	0.01919815
254	0x3d0ec9b2	0.03486032
255	0xbdb211c0	-0.08694792

fc3.bias f4 [64]
0	0x3da250eb	0.0792559
1	0x3d942a8b	0.07234677
2	0xbd2b9a77	-0.041895356
3	0xbd88c2f8	-0.06677812
4	0x3d9a27ef	0.07527148
5	0xbd42eac2	-0.047587164
6	0x3bcf4220	0.0063250214
7	0x3880d400	6.143004e-05
8	0xbb955000	-0.004556656
9	0xbda240f3	-0.07922544
10	0xbd832d7d	-0.064051606
11	0x3a9678c0	0.0011480078
12	0x3b891c80	0.0041843057
13	0xbcbe4cb8	-0.023229942
14	0xbc98de80	-0.018660784
15	0x3cc4dbb8	0.024030551
16	0xbd9e66a2	-0.077344194
17	0x3d0d23b2	0.03445787
18	0xbd8d52fe	-0.06900595
19	0x3ceabb00	0.028653622
20	0x3c737550	0.014859512
21	0xbda8e788	-0.08247286
22	0x3d87b975	0.0662717
23	0xbd0a2028	-0.033722073
24	0x3c684658	0.0141769275
25	0xbb903660	-0.0044010133
26	0xbdae6a21	-0.08516336
27	0xbd1919ca	-0.03737811
28	0xbd4f0870	-0.050545156
29	0xbd8de287	-0.06927972
30	0x3ae53240	0.0017486289
31	0x3c427cd0	0.011870578
32	0x3ca987d0	0.020694643
33	0xbda30293	-0.07959475
34	0xbd40cdf4	-0.047071412
35	0xbdaad0da	-0.083406165
36	0xbd18c1c1	-0.037294153
37	0xbda7a052	-0.081848755
38	0x3d6029c2	0.054727323
39	0x3c7b55c8	0.015340276
40	0x3b60be20	0.003429301
41	0x3daa6309	0.08319671
42	0xbd62f970	-0.055413663
43	0xbcb43b88	-0.022001043
44	0x3d2ed556	0.04268392
45	0xbd95c8c5	-0.073136844
46	0xbd991b41	-0.074759014
47	0xbcf8bdc0	-0.030363917
48	0xbcdada9c	-0.02671557
49	0xbd3a48fb	-0.045479756
50	0x3d736fc6	0.059432767
51	0xbce28a60	-0.027653873
52	0xbd4cdecb	-0.05001716
53	0xbbc60970	-0.0060436055
54	0xbd802860	-0.06257701
55	0x3d8f2907	0.06990247
56	0xbd9717ab	-0.07377561
57	0xbc5fad40	-0.013652146
58	0x3d7d9ef6	0.061919175
59	0xbd3c4186	-0.045960926
60	0xbda56237	-0.080753736
61	0xbd9dc12a	-0.07702859
62	0xbdb169a9	-0.08662731
63	0x3d6d03a2	0.057864793

fc4.weight f4 [10, 64]
0	0xbd495f90	-0.0491634
1	0xbdd64ede	-0.104642615
2	0x3df70f90	0.12063515
3	0x3d5e3258	0.05424723
4	0xbdd441c6	-0.10364108
5	0x3d202f00	0.039107323
6	0x3dbe84fc	0.093027085
7	0x3d408b68	0.04700795
8	0xbda4c832	-0.08045997
9	0xbdce0bcc	-0.10060844
10	0xbdd09fd4	-0.10186735
11	0x3ccdfa68	0.025143817
12	0xbdc71254	-0.09720293
13	0x3d52e2f4	0.05148597
14	0x3d07c210	0.033144057
15	0x3cc9b698	0.0246232
16	0xbbccc940	-0.006249577
17	0xbdc31530	-0.095255256
18	0xbd39bb10	-0.045344412
19	0xbdb9c9e8	-0.09071714
20	0x3d783f84	0.06060745
21	0x3dc94b46	0.098288104
22	0x3c32e090	0.010917798
23	0x3dd62398	0.10456008
24	0xbcf3cb78	-0.029760107
25	0x3d962816	0.073318645
26	0x3d49fd4c	0.04931383
27	0xbd11f430	-0.035633266
28	0x3dd6964c	0.104778856
29	0xbdd3bfd0	-0.1033932
30	0xbdf2fe0a	-0.1186486
31	0x3ddae2cc	0.10687789
32	0xbdc04d08	-0.093896925
33	0x3da9fa7a	0.08299728
34	0xbc4c1740	-0.012456715
35	0xbdd79200	-0.10525894
36	0xbdb4c1bc	-0.088260144
37	0xbded0090	-0.11572373
38	0xbdef6ba0	-0.1169045
39	0xbdc22d0a	-0.09481247
40	0xbb906280	-0.0044062734
41	0x3cb918a0	0.02259475
42	0x3d384ab8	0.044993132
43	0x3bafd8c0	0.005366415
44	0x3d5d2098	0.053986162
45	0xbd13920c	-0.036027953
46	0xbd507984	-0.050897136
47	0xbd6e9c28	-0.05825439
48	0x3d3f14c8	0.046650678
49	0xbbf82c00	-0.0075736046
50	0xbdfa7872	-0.12230004
51	0xbdb707a2	-0.08937003
52	0x3de98380	0.11402035
53	0x3c1c55a0	0.009541899
54	0xbd96064a	-0.07325418
55	0xbdaf2266	-0.08551483
56	0x3d34cdac	0.044141456
57	0xbd848ac6	-0.064717814
58	0xbc607d90	-0.013701811
59	0xbde07868	-0.10960466
60	0xbaa60780	-0.001266703
61	0x3d90c45a	0.07068701
62	0x3c2b1c10	0.010443702
63	0xbdd0e9d2	-0.10200848
64	0xbd897c68	-0.06713182
65	0x3d74068c	0.059576556
66	0xbdf5b570	-0.11997497
67	0xbd66af1c	-0.05631934
68	0x3da44ed2	0.08022846
69	0x3d37bae4	0.044855967
70	0xbd9778c6	-0.073960826
71	0xbded1a26	-0.11577253
72	0xbccd7288	-0.025079027
73	0x3d952426	0.072822854
74	0x3da91cfe	0.08257483
75	0xbdbcfd30	-0.09227979
76	0x3dfa4436	0.122200415
77	0x3d859b40	0.06523752
78	0xbdda9cee	-0.10674463
79	0x3d3117b0	0.04323548
80	0xbdf15270	-0.11783302
81	0xbde3b602	-0.111186996
82	0xbd2817a4	-0.04103817
83	0xbdc8cd54	-0.09804788
84	0x3dfe7b5c	0.12425873
85	0xbccbe080	-0.024887323
86	0x3df49d32	0.11944045
87	0x3db5c0b4	0.08874646
88	0xbce100c8	-0.027466193
89	0x3d370098	0.0446783
90	0xbdaa9432	-0.08329047
91	0xbce7ad08	-0.02828075
92	0x3dd80596	0.105479404
93	0x3d18d7c0	0.03731513
94	0x3daa4b48	0.0831514
95	0x3d81891c	0.0632498
96	0x3d4f8c70	0.05067104
97	0xbd03ed70	-0.03220886
98	0x3d9cfaca	0.07665022
99	0xbd3769e0	-0.044778705
100	0xbd59ebe0	-0.053203464
101	0xbd58a558	-0.05289206
102	0x3d18dfd0	0.03732282
103	0xbd4d79f4	-0.05016513
104	0xbd022300	-0.03177166
105	0xbdcbfe10	-0.09960568
106	0xbda019e0	-0.07817435
107	0xbd22fcdc	-0.039791927
108	0x3cbeb228	0.02327831
109	0xbc858478	-0.016298518
110	0xbdc3192c	-0.095262855
111	0x3ddd0126	0.10791235
112	0x3dc4da82	0.096119896
113	0x3cb8a368	0.022538856
114	0x3de8b5f8	0.11362833
115	0xbdd0664e	-0.10175763
116	0xbddf2064	-0.1089485
117	0x3d417ec4	0.047240034
118	0xbdd32fb4	-0.10311833
119	0x3cb9ded8	0.022689268
120	0xbd76cb64	-0.060252562
121	0x3d86fa4a	0.065907076
122	0xbd9f3bcc	-0.07775077
123	0x3d688cdc	0.05677496
124	0x3d856d2a	0.06514962
125	0xbae35080	-0.0017342716
126	0x3dbf1cb6	0.09331648
127	0x3dd70a1e	0.104999766
128	0xbd7689d0	-0.060190022
129	0xbd00ff98	-0.031493753
130	0xbdb8197c	-0.08989236
131	0xbcd920d0	-0.026504904
132	0x3cf9e228	0.030503348
133	0x3dae6b0e	0.08516513
134	0x3de07560	0.109598875
135	0x3d60d7d0	0.054893315
136	0xbb79a800	-0.003809452
137	0x3dfc697c	0.12324807
138	0xbcdda7e8	-0.027057603
139	0x3de2eb68	0.110800564
140	0xbd42ee0c	-0.0475903
141	0x3de5cf28	0.112211525
142	0x3dd196c8	0.10233837
143	0x3d70484c	0.058662698
144	0x3d6d7a94	0.057978228
145	0xbdbee550	-0.09321082
146	0xbbb96680	-0.005657971
147	0xbd483fb4	-0.048888877
148	0x3dcc6a5a	0.099812225
149	0xbd4d3928	-0.050103337
150	0x3d67eae0	0.05662048
151	0xbd4b354c	-0.049611375
152	0x3d7cc4b0	0.061711013
153	0xbd70add4	-0.058759525
154	0xbdf42cd6	-0.11922614
155	0xbbe6f2a0	-0.007047966
156	0x3b4d2700	0.0031303763
157	0xbde5cd14	-0.11220756
158	0xbd9e441e	-0.07727836
159	0xbde88114	-0.11352745
160	0x3de42b92	0.11141123
161	0xbcc6a170	-0.024246901
162	0x3dc35ece	0.09539567
163	0x3d8ec55a	0.069712356
164	0x3dbcca78	0.09218305
165	0xbda538fa	-0.08067508
166	0xbd15172c	-0.03639905
167	0x3c5ea990	0.013590232
168	0x3d5b2f28	0.05351177
169	0xbdfa959a	-0.122355655
170	0xbddff296	-0.109349415
171	0x3d558738	0.052130908
172	0xbdc83d96	-0.097773716
173	0x3d819d62	0.063288465
174	0xbd3edad0	-0.046595395
175	0x3dae4878	0.08509916
176	0x3d8cbfae	0.068724975
177	0xbde96c42	-0.11397602
178	0x3db75dd2	0.08953442
179	0xbd23fb9c	-0.040034875
180	0xbd6df9c8	-0.058099538
181	0xbdcf12c4	-0.10111001
182	0xbdf0ef84	-0.11764434
183	0xbcd5e270	-0.02610895
184	0xbdf9ec26	-0.12203245
185	0x3da97a0c	0.08275232
186	0xbdcedefc	-0.10101125
187	0xbdba47e6	-0.09095745
188	0x3da42106	0.08014111
189	0xbc241360	-0.010014385
190	0xbdcc1424	-0.09964779
191	0x3c485f00	0.012229681
192	0x3dcf3f02	0.1011944
193	0xbc085f50	-0.0083235055
194	0xbd8a032a	-0.06738885
195	0x3dfe11b4	0.1240572
196	0x3db8e858	0.09028691
197	0x3cb343d0	0.021882921
198	0xbc8977a0	-0.016780674
199	0x3dde1060	0.10842967
200	0x3dcf2392	0.101142064
201	0x3dba2cc2	0.09090568
202	0x3dbd00e0	0.092286825
203	0xbc06dfc0	-0.008232057
204	0x3ab67d00	0.0013922751
205	0x3b692d80	0.0035580099
206	0x3c588580	0.013215423
207	0x3d9c76c8	0.07639843
208	0x3b891580	0.004183471
209	0xbda89392	-0.08231272
210	0x3da635e2	0.08115746
211	0xbde22726	-0.11042623
212	0x3dc9f3c0	0.09860945
213	0xbd552688	-0.0520387
214	0xbbf87400	-0.0075821877
215	0x3defa4ec	0.11701378
216	0xbd11d134	-0.035599902
217	0xbd9c9c30	-0.07646978
218	0x3c1593c0	0.009129465
219	0x3ddb3980	0.10704327
220	0xbdb63312	-0.0889646
221	0x3d9d8c26	0.07692747
222	0xbd801d64	-0.06255606
223	0xbc839cc0	-0.016065955
224	0xbca7d6b0	-0.020488113
225	0x3de316b8	0.11088318
226	0xbdd69156	-0.104769394
227	0x3cffbbb8	0.031217441
228	0x3d51cc6c	0.051220343
229	0x3d936c20	0.071983576
230	0x3dca243c	0.098701924
231	0x3c6e4ca0	0.014544636
232	0x3d8c8106	0.06860547
233	0xbd795bb4	-0.06087847
234	0x3d357888	0.0443044
235	0x3d526474	0.05136533
236	0xbca24ae0	-0.019811094
237	0x3d9e3c46	0.0772634
238	0xbdeafcd8	-0.11474007
239	0x3ca50940	0.020146012
240	0xbd20a00c	-0.039215133
241	0x3d654ac8	0.05597952
242	0x3c6125d0	0.013741925
243	0x3dd67030	0.10470617
244	0x3db956ac	0.090497345
245	0xbc27af50	-0.010234669
246	0x3dd74a88	0.105122626
247	0x3dcb47fa	0.09925838
248	0xbdf85d6a	-0.12127192
249	0x3d838f40	0.06423807
250	0xbce8b108	-0.028404728
251	0x3d71aaa0	0.05900061
252	0x3d347af0	0.044062555
253	0x3da47822	0.08030726
254	0xbdc5d4a4	-0.096596986
255	0x3bdb3b20	0.006690398

fc4.bias f4 [10]
0	0xbd9ade6a	-0.07561953
1	0xbda67d28	-0.081293404
2	0xbc8c8f10	-0.017158061
3	0x3da2b870	0.07945335
4	0x3dd1f948	0.10252625
5	0xbb3584c0	-0.0027697533
6	0x3db8c196	0.090212986
7	0xbdb75108	-0.08951002
8	0x3dd63268	0.10458833
9	0x3d7bd8ec	0.06148617
