src/client/global_parameters.pt (torch, 973831 bytes, 8 tensors)

fc1.weight f4 [256, 784]
0	0xbaefd9a0	-0.001829911
1	0xbb69beb0	-0.0035666637
2	0x3ca79a36	0.020459276
3	0xbceaef1e	-0.028678473
4	0xbd097267	-0.03355637
5	0xbc6d6566	-0.014489507
6	0x3cc03ef2	0.023467515
7	0xbcc6d158	-0.024269745
8	0xbc6d9698	-0.014501236
9	0xbc7f342a	-0.015576402
10	0xbd01b5f6	-0.031667672
11	0xbcf59fcc	-0.029983424
12	0xbcca05d3	-0.02466098
13	0x3a583c00	0.0008248687
14	0x3d06b727	0.03288951
15	0x3c900e78	0.017585024
16	0xbbc74b24	-0.0060819555
17	0xbc2d84ca	-0.010590741
18	0x3c191cc4	0.009345237
19	0xbcc05a3e	-0.02348053
20	0xbbce80f0	-0.0063019916
21	0xbbcd8454	-0.0062718783
22	0x3ca358fa	0.019939888
23	0xbcbb1e63	-0.022841638
24	0x3c830178	0.015991911
25	0xbcc1f300	-0.023675442
26	0xbba58eb0	-0.00505241
27	0x3ccd9388	0.025094762
28	0x3c295604	0.010335449
29	0x3ac3c4c0	0.0014935955
30	0xbcb3dd25	-0.021956036
31	0xbb796cd0	-0.0038059242
32	0xbd0037db	-0.031303268
33	0xbbfbc848	-0.0076837875
34	0x3c990b6c	0.018682204
35	0xbceb2a65	-0.028706739
36	0x3c8e485a	0.017368484
37	0xbc8f565e	-0.017497238
38	0xbd0fb725	-0.03508677
39	0xbcb0f4de	-0.021601137
40	0x3c63fd10	0.013915315
41	0xbbd45164	-0.006479429
42	0x3cc048ec	0.023472272
43	0x3b1d81b0	0.0024033599
44	0x3cc8052e	0.024416532
45	0x3cef8f92	0.029243264
46	0x3b0fa880	0.0021920502
47	0x3c2609f4	0.010134209
48	0x3cb9a0ac	0.022659622
49	0x3afaa4a0	0.0019122548
50	0x3cc6ff8a	0.024291772
51	0x3d001889	0.0312734
52	0xbbba6040	-0.0056877434
53	0x3d05b1b9	0.032640193
54	0x3cba8b2e	0.022771444
55	0x3d0c78cb	0.034294885
56	0xbd0f9212	-0.035051413
57	0xbccc0ed3	-0.024909412
58	0x3c0df7e0	0.008665055
59	0x3c8d0942	0.017216329
60	0x3cc62c88	0.024191156
61	0xbc4a3aea	-0.012343148
62	0xbbd4dd08	-0.0064960755
63	0x3caa2fac	0.020774685
64	0x3c92f172	0.017937396
65	0xbd057336	-0.032580577
66	0x3d040ed3	0.0322407
67	0xbc940cae	-0.018072452
68	0xbcc65060	-0.024208248
69	0x3ba82790	0.0051316693
70	0x3cffdc7a	0.031233061
71	0x3bc0dbf0	0.0058855936
72	0x3c1852dc	0.009297099
73	0x3cb72dea	0.02236076
74	0x3cf32546	0.02968086
75	0xbd04e277	-0.032442536
76	0xbc0759fc	-0.0082612
77	0x3c47b898	0.012190007
78	0xbd0f836a	-0.035037436
79	0xbcb87f03	-0.022521501
80	0x3c6a4ce0	0.014300555
81	0x3c3ee564	0.011651371
82	0xbcebde8c	-0.028792642
83	0x3c7ac894	0.015306611
84	0xbcacab1a	-0.021077681
85	0xbc755606	-0.014974123
86	0x3cb3cb6c	0.021947585
87	0x3be7b060	0.007070586
88	0xbd0a28e0	-0.033730388
89	0x3cb4b23e	0.022057649
90	0x3cadc526	0.021212172
91	0xbcbc86dc	-0.023013525
92	0x3c766154	0.015037853
93	0xbd110378	-0.0354037
94	0x3ce55302	0.027993683
95	0xbcc3099a	-0.02380829
96	0xbcd2ff18	-0.025756404
97	0x3c367754	0.0111368485
98	0x3cbb2dee	0.02284905
99	0xbc323e2e	-0.010879083
100	0xba27ea00	-0.0006405413
101	0xbd096d45	-0.033551473
102	0xbd024f65	-0.031813998
103	0xbcf5068c	-0.029910348
104	0x3bd4a3b0	0.0064892396
105	0x3c103edc	0.008804049
106	0x3cdce406	0.026964199
107	0xbc03d75c	-0.008046951
108	0x3ca9355e	0.02065533
109	0x3c7059a4	0.0146698095
110	0x3d06c663	0.03290404
111	0x3cb8a71e	0.022540625
112	0xbc753498	-0.014966153
113	0xbcd99b15	-0.026563207
114	0x3c58a2f0	0.013222441
115	0x3cca72da	0.024712969
116	0x3d0f49f1	0.034982625
117	0xbcfaa2bc	-0.030595176
118	0x3cff3002	0.031150822
119	0x3c4ca360	0.0124901235
120	0x3d057d4b	0.03259019
121	0xbcb12b53	-0.021627104
122	0x3c4e8824	0.012605701
123	0xbc9d62da	-0.019212175
124	0xbb6f2cb0	-0.0036495142
125	0xbc2b28e0	-0.010446757
126	0xbceb4bee	-0.02872273
127	0x3ca45486	0.020059835
128	0x3cdd3fbe	0.027007934
129	0x3d053683	0.03252269
130	0x3c0131c8	0.007885404
131	0xbc00230a	-0.007820854
132	0x3d01900d	0.03163152
133	0xbca344a0	-0.019930184
134	0xbcc0baac	-0.023526512
135	0x3a886e60	0.0010408871
136	0xbd0c56aa	-0.034262337
137	0xbc373adc	-0.011183467
138	0xbba82914	-0.00513185
139	0xbcaacdf8	-0.020850167
140	0xbc6372ae	-0.013882322
141	0x3d0a0631	0.03369731
142	0xbbc055dc	-0.0058696102
143	0xbcdb274a	-0.026752133
144	0xbbbedc88	-0.005824629
145	0xbcd6d7d3	-0.02622596
146	0x3bc34c50	0.005960025
147	0xbce9ef48	-0.028556481
148	0x3cb9fffa	0.022705067
149	0xbbb59b1c	-0.005542172
150	0xbcb0b0a0	-0.021568596
151	0xbc9b52d5	-0.018960396
152	0x3bed4c60	0.0072417706
153	0xbcaaa22c	-0.020829283
154	0xbb183200	-0.0023223162
155	0xbb2c5be0	-0.002629988
156	0x3b964ea8	0.0045870133
157	0xbbf1cf48	-0.007379446
158	0xbc9db0b5	-0.0192493
159	0x3baffba8	0.005370576
160	0x3cca317c	0.0246818
161	0xbc8897bc	-0.016673915
162	0x3be95610	0.007120855
163	0xbc57d1e6	-0.013172602
164	0x3ccc2122	0.024918143
165	0x3c78ad28	0.015178002
166	0x3ceb1112	0.028694663
167	0x3c92d2ae	0.017922726
168	0xbb14ba80	-0.002269417
169	0xbc1d8ac0	-0.0096156
170	0x3cfcf21e	0.03087717
171	0x3cfa9e9a	0.030593205
172	0xbc66f852	-0.01409729
173	0xbc82575a	-0.015910793
174	0xbcd041b3	-0.025421953
175	0x3cf5e99e	0.030018624
176	0xbc74d45c	-0.014943209
177	0x3c7f4a5c	0.0155816935
178	0xbbc09c1c	-0.0058779847
179	0x3c7ed644	0.015554015
180	0xbcb9743a	-0.022638429
181	0xbd0a9110	-0.03382975
182	0xbc0ff078	-0.00878536
183	0x3b68cc80	0.0035522282
184	0x3c7c7664	0.015409086
185	0xbae22060	-0.001725208
186	0x3ba5bbf8	0.005057808
187	0xbbe55c00	-0.0069994926
188	0xbc05b18e	-0.008160008
189	0xbc802b0c	-0.015645526
190	0x3c99b09c	0.018760972
191	0x3c15971c	0.009130266
192	0xbd103eed	-0.03521626
193	0x3cfb9696	0.030711453
194	0xbcbd1d78	-0.02308534
195	0xbcb9676a	-0.02263232
196	0xbbcb6f9c	-0.0062083732
197	0xba88f200	-0.0010448098
198	0xbcc43ff5	-0.023956278
199	0x3d0500cb	0.03247146
200	0xbc0c259c	-0.008553889
201	0xbc871e63	-0.016493982
202	0x3cb1178e	0.021617677
203	0xba564040	-0.0008173026
204	0xbce3fb10	-0.027829677
205	0x3c77a43c	0.01511484
206	0xbcc5cdc5	-0.02414597
207	0x3b617130	0.003439974
208	0x3cf605b2	0.030032013
209	0xbca6cc63	-0.020361131
210	0x3cfa70b6	0.030571323
211	0x3b4a1c20	0.0030839518
212	0xbcef9b9a	-0.029249001
213	0x3d1194c5	0.03554227
214	0x3cc582c2	0.024110202
215	0x3c908704	0.017642505
216	0xbc0086f2	-0.0078446735
217	0x3d109527	0.035298493
218	0xbbb1e1f8	-0.005428549
219	0x3b0dc5f0	0.0021632873
220	0x3cb1d08e	0.021705892
221	0xbbaeeda4	-0.0053383876
222	0xbcdda860	-0.027057827
223	0x3c1cda30	0.009573504
224	0x3c073034	0.008251239
225	0x3d119efb	0.035552006
226	0x3c5ea140	0.01358825
227	0x3c996d40	0.018728852
228	0xbb4cd150	-0.003125269
229	0x3d016b15	0.031596262
230	0x3cbcbbda	0.023038793
231	0xbbe5dc9c	-0.007014824
232	0xbb433f90	-0.0029792525
233	0x3b178b50	0.0023123808
234	0xbc8252bc	-0.015908591
235	0xbca4813a	-0.020081151
236	0xbc1a3b32	-0.009413527
237	0x3c9afebc	0.018920295
238	0xbc4a3452	-0.012341576
239	0x3cd5dcca	0.026106257
240	0xbcaf52f0	-0.021401852
241	0x3c673328	0.014111318
242	0x3cb55c1c	0.022138648
243	0x3d02cd31	0.031933967
244	0xbd05e620	-0.032690167
245	0xbbb94f5c	-0.0056552123
246	0xbcb17b0e	-0.021665122
247	0xbcf0862e	-0.029360857
248	0xbc329760	-0.010900348
249	0xbc1f785c	-0.009733286
250	0x3c9adf92	0.018905435
251	0xbc8d94fe	-0.01728296
252	0xbc9aea6a	-0.018910605
253	0xbcdb1ae3	-0.026746219
254	0xbd101b44	-0.035182253
255	0xbca511e0	-0.020150125

fc1.bias f4 [256]
0	0x3c93e6ba	0.018054355
1	0xbcad8c1a	-0.02118497
2	0x3cebceba	0.028785098
3	0x3c2a6ff4	0.010402668
4	0xbaaf4360	-0.001337152
5	0x3bcd8468	0.0062718876
6	0xbcca7e90	-0.024718553
7	0x3c49613c	0.012291249
8	0xbcbf3448	-0.02334036
9	0x3cc4bb48	0.024015084
10	0x39904180	0.00027514622
11	0x3b399210	0.002831582
12	0x3d01a0ef	0.03164762
13	0xbcc8eb1c	-0.024526171
14	0xbc2cd1fc	-0.010548111
15	0xbcd0971e	-0.025462683
16	0x3cc774ba	0.024347652
17	0x3ca6b72c	0.020351015
18	0xbcad674a	-0.021167416
19	0xbb420bb0	-0.0029609017
20	0xbca28ac7	-0.019841565
21	0xbbee64b8	-0.00727519
22	0x3bb4e638	0.0055206083
23	0xbc816efc	-0.015799992
24	0x3c157408	0.009121902
25	0xbcbb872a	-0.0228916
26	0x3c026468	0.007958509
27	0xbd05e9be	-0.032693617
28	0xbd01bbeb	-0.031673353
29	0x3cdb2468	0.026750758
30	0xbcaf84f5	-0.021425704
31	0xbc05e4b8	-0.008172207
32	0x3d065f89	0.032805953
33	0x3a7524c0	0.00093514845
34	0xbc813b4a	-0.015775342
35	0x3ca8e1a8	0.020615414
36	0x3d10aaa5	0.03531899
37	0xbbb00114	-0.0053712223
38	0x3ccc946c	0.024973117
39	0x3c7bc2d4	0.015366275
40	0x3cda6b2c	0.026662432
41	0x3c881cf4	0.016615368
42	0x3a528e00	0.0008032024
43	0x3cd81f8a	0.026382226
44	0x3cc3c136	0.023895841
45	0x3c9acc56	0.018896263
46	0xbc942ede	-0.018088754
47	0xbcd56355	-0.026048342
48	0x3c5f9aa4	0.013647709
49	0xbcfc9018	-0.030830428
50	0x3cc7160c	0.024302505
51	0xbc7b0bca	-0.015322635
52	0xbd0b5535	-0.034016807
53	0x3cdceb72	0.026967738
54	0x3cd0071a	0.025394011
55	0x3c9f3b8e	0.019437578
56	0x3c9aff20	0.018920481
57	0xbc02f344	-0.007992569
58	0xbc7cb98e	-0.015425099
59	0x3d0ebcd1	0.034848038
60	0x3d0a9feb	0.033843916
61	0xbc8dbb3a	-0.01730119
62	0x3d056f69	0.032576952
63	0x3cdf19f6	0.027234059
64	0x3d0ddfb5	0.03463717
65	0xbaf858a0	-0.0018947311
66	0x3c2eafa4	0.010661993
67	0xbcdeba68	-0.027188495
68	0xbccedbb8	-0.025251254
69	0xbc7c066a	-0.015382389
70	0xbcb12a48	-0.021626607
71	0xbce3beea	-0.027800996
72	0xbcd382e3	-0.025819248
73	0x3bd8c228	0.006614942
74	0x3c9a9c1c	0.018873267
75	0xbb0e9390	-0.0021755435
76	0xbbc10c24	-0.00589134
77	0xbca43e77	-0.020049317
78	0xbcf05fa3	-0.029342478
79	0x3cb02226	0.021500658
80	0xbbd67264	-0.006544398
81	0x3c131660	0.008977503
82	0x3b2fdde0	0.0026835129
83	0x3cf748e6	0.030186128
84	0x3cad3ea6	0.021148037
85	0x3cbe6898	0.023243234
86	0x3ce54212	0.027985606
87	0xbc76b51c	-0.015057828
88	0x3c4a4494	0.012345452
89	0x3c10773c	0.00881749
90	0xbb15a730	-0.0022835247
91	0xbc33e386	-0.010979539
92	0xbc8ee85e	-0.017444786
93	0xbba39b38	-0.0049928688
94	0xbc7699c6	-0.015051311
95	0xbb935764	-0.0044965018
96	0xbd00e77e	-0.03147077
97	0xbcacaa30	-0.021077245
98	0x3b91fab0	0.004454933
99	0x3d0a0a1f	0.03370106
100	0x3d0dbbf1	0.034603063
101	0x3cfaff66	0.030639362
102	0x3c659ba0	0.014014155
103	0x3b9875c0	0.004652709
104	0xbc12c3e0	-0.008957833
105	0xbce3b54e	-0.027796414
106	0x3cbc93a2	0.023019616
107	0xba7fcd40	-0.00097580627
108	0xbc002a24	-0.007822547
109	0xbcccc800	-0.024997711
110	0xbccfb7c3	-0.02535618
111	0xbc49ae6e	-0.012309654
112	0xbce45048	-0.027870312
113	0xbc54cd20	-0.012988359
114	0x3a121080	0.00055719167
115	0x3c2b3d38	0.010451607
116	0xbc1a20a0	-0.0094071925
117	0x3d0f9355	0.035052616
118	0x3cce167a	0.025157202
119	0x3cd3d6aa	0.025859196
120	0x3c95b25a	0.018273521
121	0xbcde022c	-0.027100645
122	0xbc4fadd2	-0.012675719
123	0x3c52b8bc	0.012861427
124	0xbc9fff43	-0.019530898
125	0x3c0587f0	0.008150086
126	0x3cc2fa36	0.02380095
127	0x3c65e7a4	0.014032278
128	0xbd065ebf	-0.0328052
129	0xbc102d38	-0.0087998435
130	0xbce0ff45	-0.027465472
131	0xbb8311e8	-0.0039999373
132	0xbc80c45c	-0.015718631
133	0x3cf4a66e	0.029864516
134	0xb9339a00	-0.0001712814
135	0xbca72d98	-0.020407483
136	0xbc8996aa	-0.016795475
137	0xbbf8a200	-0.0075876713
138	0xbcb7d1c5	-0.022438893
139	0xbb69b3b0	-0.003566008
140	0x3c0d76e8	0.0086343065
141	0x3c8ea588	0.017412916
142	0xbc2cb3f2	-0.010540949
143	0xbc757920	-0.014982492
144	0xbb563bf0	-0.0032689534
145	0x3c80b914	0.015713252
146	0xbbfdec24	-0.0077490974
147	0xbcf7f2b3	-0.030267095
148	0xbc89bb95	-0.016813079
149	0x3cb40d9a	0.021979142
150	0x3c31bab4	0.010847736
151	0xbc81272e	-0.015765753
152	0x3bb9b858	0.0056677274
153	0x3b81d8b0	0.0039625987
154	0xbcbf5ae8	-0.023358777
155	0x3cff2002	0.031143192
156	0xbcdedfb5	-0.027206281
157	0xbc9e0c90	-0.0192931
158	0x3baccb68	0.0052732714
159	0x3d0d15b7	0.034444537
160	0xbb39d2a0	-0.0028354302
161	0xbd0f0868	-0.034920126
162	0xbcb53a43	-0.022122508
163	0x3d0e09e3	0.034677397
164	0xbc7e65bc	-0.015527185
165	0x3c3dfd80	0.011596084
166	0x3cba65c2	0.0227536
167	0xbcfa8b01	-0.03058386
168	0xbc101eb2	-0.008796381
169	0x3c2295e0	0.009923428
170	0xbba3f7c8	-0.005003903
171	0x3c1f0ec8	0.009708114
172	0xbccdd6c8	-0.02512683
173	0x3d10096b	0.03516523
174	0xbd03a57f	-0.03214025
175	0x3b46f790	0.003035996
176	0xbca42c6e	-0.020040717
177	0x3c1a84fc	0.00943112
178	0xbcee161a	-0.029063273
179	0xbd11a56c	-0.03555815
180	0xbce5511e	-0.027992781
181	0x3cad43fa	0.021150578
182	0x3cdf607e	0.02726769
183	0x3bb22900	0.0054370165
184	0xbcb7b07c	-0.022423021
185	0x3c8462a4	0.016160317
186	0xbc6d1eaa	-0.014472643
187	0x3b55ffe0	0.0032653734
188	0x3c1f0110	0.009704843
189	0x3d034185	0.032044906
190	0xbc3b0da0	-0.011416823
191	0x3aa84d00	0.0012840331
192	0x3ce7bf62	0.0282895
193	0x3c8a3792	0.016872201
194	0xbc9a93a5	-0.01886923
195	0x3c3430fc	0.010998007
196	0x3ca7594a	0.020428319
197	0xbc4269aa	-0.011866013
198	0xbceb1f13	-0.02870134
199	0xbbd438c8	-0.0064764954
200	0x3d0024e7	0.031285193
201	0xbb2a8e00	-0.002602458
202	0xbc1b1652	-0.009465771
203	0xbbd7ac38	-0.0065818094
204	0x3cb48f4e	0.02204099
205	0xbcc2ee63	-0.023795312
206	0xbd05a3b4	-0.032626823
207	0xbcae4bbc	-0.021276347
208	0x3ce29406	0.027658474
209	0x3d095863	0.033531558
210	0xbd0ba988	-0.034097224
211	0x3cf659fa	0.030072201
212	0x3cdcac1e	0.02693754
213	0x3d0c94a1	0.03432143
214	0xbb03f880	-0.0020137131
215	0x3cb8d0f6	0.022560578
216	0x3c9cc83a	0.019138444
217	0xbc396146	-0.011314696
218	0xbcd06b5a	-0.025441814
219	0x3d06d4c7	0.032917764
220	0xbcfdda1e	-0.030987795
221	0x3c6d2f60	0.014476627
222	0xbcf68263	-0.03009147
223	0xbcb95fd3	-0.0226287
224	0xbcd790bc	-0.026314132
225	0x3cac55c6	0.021036994
226	0xbc7635d4	-0.015027482
227	0xba083280	-0.00051955134
228	0xbc9176b7	-0.017756803
229	0x3c08eb64	0.008356903
230	0x3bbd4988	0.005776588
231	0x3c83ea3e	0.016102906
232	0xba4d7880	-0.00078380853
233	0xbcfcf44e	-0.030878212
234	0xbcc4ece5	-0.024038741
235	0x3b893cc0	0.00418815
236	0x3c892592	0.016741548
237	0x3c9d0548	0.019167557
238	0xbc05ceee	-0.008167012
239	0x3bcbcdf8	0.0062196217
240	0x3c8ac88a	0.016941328
241	0xbd0a0462	-0.033695586
242	0xbc1d6e20	-0.009608775
243	0xbb9da4f8	-0.0048109256
244	0xbd0e0c45	-0.03467967
245	0xbc7ac018	-0.015304588
246	0xbd090897	-0.033455458
247	0x3c342544	0.010995213
248	0xbce1d1e3	-0.027565902
249	0xbcf01a48	-0.029309407
250	0x3bb0ed98	0.005399417
251	0x3c07e968	0.0082953945
252	0xbcaed05a	-0.021339584
253	0xb8839c00	-6.275624e-05
254	0xbd0ea957	-0.034829464
255	0xbcb41f60	-0.021987617

fc2.weight f4 [128, 256]
0	0xbd261e0e	-0.040556006
1	0x3d79d252	0.060991593
2	0xbcc976cc	-0.02459278
3	0xbd27acc6	-0.040936254
4	0x3c5d3db0	0.013503477
5	0x3cb71844	0.022350438
6	0xbd337860	-0.04381597
7	0xbcab692c	-0.020924173
8	0x3d23b986	0.03997185
9	0xbd3ecdf6	-0.04658314
10	0xbcb9f154	-0.022698082
11	0xbc36c3b0	-0.011155054
12	0xbd13c0d6	-0.036072575
13	0x3d2f29de	0.042764537
14	0x3c88e00c	0.016708396
15	0x3abe8d80	0.001453802
16	0xba2bf880	-0.0006560162
17	0xbc5bf620	-0.01342538
18	0x3ce287ec	0.027652703
19	0x3cdb1298	0.026742265
20	0xbb6ff500	-0.0036614537
21	0x3d3ea328	0.046542317
22	0xbba17b40	-0.0049280226
23	0x3c9351d4	0.017983355
24	0xbc9dedd0	-0.019278437
25	0xbc3b1810	-0.011419311
26	0x3bff4970	0.007790737
27	0xbd43ebd2	-0.047832318
28	0x3d3be7de	0.045875423
29	0xbbc6e880	-0.0060701966
30	0xbc81a288	-0.015824571
31	0x3d6f49f6	0.058420144
32	0xbd349cc6	-0.044094823
33	0xba25d100	-0.0006325394
34	0x3bc01b30	0.005862616
35	0x3d28e2e4	0.041232005
36	0x3cbd5938	0.023113832
37	0xbd611a78	-0.054956883
38	0x3d7073d0	0.058704197
39	0xbd7a49a6	-0.061105393
40	0x3d36bb76	0.04461237
41	0x3c163030	0.009166762
42	0xbd1d6fd4	-0.038436726
43	0xbc34ed10	-0.011042848
44	0xbc7b7970	-0.015348777
45	0xbd74a31e	-0.059725873
46	0xbc8b78b4	-0.01702533
47	0xbc77f680	-0.015134454
48	0x3d469bb8	0.04848835
49	0xbd703176	-0.05864092
50	0xbc145e48	-0.0090556815
51	0x3d523b0a	0.051325835
52	0xbd66e828	-0.056373745
53	0xbd1a6da6	-0.037702225
54	0x3ba79c60	0.005115077
55	0x3cc934e4	0.024561353
56	0xbd5c2eee	-0.053755693
57	0x3c0a8c90	0.008456364
58	0xbd082340	-0.033236742
59	0x3d519416	0.051166616
60	0x3c9c5af0	0.019086331
61	0x3d13ba18	0.036066145
62	0x3c066e70	0.008205041
63	0xbc292110	-0.010322824
64	0x3c5278b8	0.012846164
65	0xbd2f953c	-0.04286693
66	0x3ca6d6c0	0.020366073
67	0x3cb5287c	0.022114031
68	0x3c5d7a10	0.0135178715
69	0x3a97c8c0	0.0011580214
70	0x3cf5257c	0.0299251
71	0x3cdb876c	0.026797973
72	0x3c17ff98	0.009277247
73	0xbd1b1ce2	-0.03786934
74	0x3cb64308	0.02224876
75	0xbd3ec41c	-0.046573743
76	0x3d1e84b6	0.03870078
77	0x3bf86ca0	0.0075813085
78	0x3d72a592	0.05923993
79	0xbd417a6c	-0.04723589
80	0x3d228750	0.039679825
81	0xbcdc8e18	-0.026923224
82	0xbca89e08	-0.020583168
83	0x3c601f78	0.013679378
84	0x3c2f6b18	0.0107066855
85	0xbbca20c0	-0.006168455
86	0xbc63a720	-0.013894826
87	0xbc83c87c	-0.01608681
88	0x3d0de5ba	0.034642912
89	0x3d12b9b2	0.035821624
90	0x3b6d49c0	0.0036207289
91	0x3d04a6cc	0.032385632
92	0xbd3ea9c8	-0.046548635
93	0x3d1fe406	0.03903582
94	0x3d5ec810	0.054390013
95	0xbcd94944	-0.026524194
96	0x3cda84e8	0.026674703
97	0xbb3d4780	-0.0028881729
98	0xbca117cc	-0.019664668
99	0xbd5094b2	-0.050923057
100	0xbd0a85d8	-0.03381905
101	0x3c8005f0	0.015627831
102	0x3ce65d0c	0.02812054
103	0x3cdff4c8	0.0273384
104	0xbd64ba32	-0.055841632
105	0xbd4fa016	-0.05068978
106	0x3d21b4fe	0.03947925
107	0xbcf8b150	-0.030357987
108	0xbcc36d7c	-0.023855917
109	0x3c4dcb28	0.012560643
110	0x3d100378	0.035159558
111	0xbd41cc54	-0.047314003
112	0xbcb4089c	-0.021976762
113	0xbcca0f98	-0.024665639
114	0xbd58accc	-0.052899167
115	0xbcc2895c	-0.023747139
116	0xbd2f1718	-0.042746633
117	0x3d757d50	0.05993396
118	0xbcab1e30	-0.020888418
119	0x3ca2408c	0.019806169
120	0xbd079468	-0.033100516
121	0x3bb3bcc0	0.0054851472
122	0xbc920e5c	-0.017829113
123	0x3d705ac8	0.058680326
124	0xbceec4c0	-0.029146552
125	0xbc7f1520	-0.015569001
126	0xbcd6cfd4	-0.026222147
127	0xbd4e71f8	-0.050401658
128	0xbd2719e0	-0.04079616
129	0xbd64c244	-0.05584933
130	0xbd2b7f48	-0.04186943
131	0x3d2d0f58	0.04225096
132	0xbb10d1e0	-0.0022097751
133	0xbd2f21b6	-0.04275676
134	0xbd08de64	-0.033415213
135	0xbd1d138e	-0.038348727
136	0xbd3b9140	-0.045792818
137	0xbcfadde8	-0.030623391
138	0x3d6c91e0	0.057756305
139	0xbc9a1330	-0.018807977
140	0xbd2a424e	-0.04156714
141	0x3c3ebae0	0.011641234
142	0x3b833bc0	0.0040049255
143	0x3cafa05c	0.02143877
144	0x3d0e5532	0.034749217
145	0xbcf2e9ec	-0.029652558
146	0x3c5daaa0	0.01352945
147	0x3c5ae398	0.013359927
148	0xbc3cf9e8	-0.011534192
149	0x3c8102fc	0.015748493
150	0x3d73e224	0.059541836
151	0xbcfa4e04	-0.030554779
152	0xbcfa51fc	-0.030556671
153	0x3cffb8c8	0.03121604
154	0xbcb4bbb8	-0.022062168
155	0x3b0f4620	0.0021861866
156	0x3d295ba0	0.041347146
157	0x3d29664a	0.041357316
158	0xbd7c2450	-0.061558068
159	0xbd635b2e	-0.055506878
160	0x3c29f698	0.010373734
161	0x3ca88360	0.020570457
162	0xbd3a4774	-0.0454783
163	0xbd2df174	-0.042466596
164	0xbcaf8f88	-0.021430746
165	0xbcaddc00	-0.021223068
166	0xbcf0303c	-0.029319875
167	0xbd1dd43e	-0.038532488
168	0xbd6a0498	-0.057133287
169	0x3d39d2dc	0.045367107
170	0x3d421e44	0.047392145
171	0xbc0e15e0	-0.008672208
172	0x3d0c03e2	0.03418339
173	0xbcd7d938	-0.026348695
174	0x3d04f914	0.032464102
175	0x3d55e734	0.052222446
176	0x3a839e00	0.0010041595
177	0x3c8faf18	0.017539546
178	0xbaf5aa00	-0.001874268
179	0x3cc72014	0.024307288
180	0x3d3f5980	0.046716213
181	0x3b9fa7d0	0.0048722997
182	0xbcefa1ac	-0.029251896
183	0x3cd06870	0.025440425
184	0x3ccaa5ac	0.024737202
185	0xbbec0fb0	-0.0072040185
186	0xbc89d6d0	-0.016826063
187	0xbcc34490	-0.023836404
188	0x3d704ec8	0.05866888
189	0x3bf16a80	0.007367432
190	0x3d3edf9a	0.04659996
191	0x3b009bc0	0.0019624084
192	0x3d4e3ab2	0.050348945
193	0xbd799004	-0.06092836
194	0x3cfafc34	0.030637838
195	0xbd20f700	-0.039298058
196	0x3cf29fc0	0.02961719
197	0x3c1d4770	0.009599552
198	0xbd5fcab0	-0.054636657
199	0xbc6aef28	-0.014339246
200	0xbc379900	-0.011205912
201	0xbd0f0cfc	-0.034924492
202	0xbd1a75d4	-0.037710026
203	0xbd4036f0	-0.046927392
204	0xbc81c5c0	-0.015841365
205	0xbd1c5454	-0.03816636
206	0xbcec19e4	-0.02882094
207	0xbd3a32ba	-0.045458533
208	0x3b8e4750	0.004341997
209	0xbcdaf8b0	-0.026729912
210	0xbccc2a08	-0.024922386
211	0x3c2f7c10	0.010710731
212	0xbd5f0c6a	-0.0544552
213	0xbd6bab48	-0.057536393
214	0xbd42fe7e	-0.047605984
215	0xbc5fa920	-0.013651162
216	0x3bc81540	0.006106049
217	0xbbc312d0	-0.0059531704
218	0x3c742d88	0.014903434
219	0x3b8abe10	0.004234083
220	0x3d72431a	0.059146024
221	0xbd799a9e	-0.06093847
222	0xbc15a5c8	-0.009133764
223	0x3c405cb8	0.011740856
224	0xbd39553e	-0.04524731
225	0x3d744964	0.059640303
226	0xbc991968	-0.018688872
227	0xbd4b442c	-0.04962556
228	0xbd794608	-0.060857803
229	0xbd5a907c	-0.053360447
230	0xbd2f60d0	-0.042816937
231	0xbd23584a	-0.03987912
232	0xbd2c962e	-0.04213541
233	0xbc9bffb0	-0.01904282
234	0x3d3188a0	0.043343186
235	0x3d7dc056	0.061951004
236	0xbca4010c	-0.02002003
237	0x3d6891d0	0.056779683
238	0x3d43ac84	0.047771946
239	0x3d678dfc	0.05653189
240	0xbd2308e4	-0.0398034
241	0x3d18b542	0.037282236
242	0xbd622fa6	-0.055221222
243	0xbd6c9eec	-0.057768747
244	0x3d3b267a	0.04569099
245	0xbd67f572	-0.05663056
246	0xbcfb4a9c	-0.030675225
247	0xbd78d4dc	-0.060749874
248	0x3cd52b54	0.026021637
249	0xbd5890a0	-0.0528723
250	0x3c988610	0.018618613
251	0x3d62cb40	0.055369616
252	0x3d6415c0	0.055684805
253	0xbcfb7efc	-0.0307002
254	0xbace3d80	-0.0015734881
255	0x3d4c1fbe	0.04983496

fc2.bias f4 [128]
0	0x3c3f8b08	0.0116908625
1	0xbc854ec4	-0.01627291
2	0x3d60a634	0.054846004
3	0x3d38face	0.04516106
4	0xbb8a72c0	-0.004225105
5	0x3d439e38	0.04775831
6	0xbcb593d0	-0.022165209
7	0x3d113e18	0.035459608
8	0xbd0577a2	-0.032584794
9	0xbc531bb0	-0.012885019
10	0x3d4bdc0c	0.0497704
11	0x3c787bc0	0.015166223
12	0x3d0c1ff4	0.03421016
13	0x3ad0fd80	0.001594469
14	0xbd24deda	-0.04025159
15	0x3c663a90	0.014052048
16	0x3d4244f2	0.047429033
17	0xbd57b570	-0.052663267
18	0x3d49960c	0.04921536
19	0xbc030d88	-0.007998832
20	0x3d761c12	0.060085364
21	0xbd12bcde	-0.03582465
22	0x3cc1af64	0.023643203
23	0xbd25f6ce	-0.040518574
24	0xbcff4e8c	-0.031165384
25	0xbcbfbd98	-0.023405835
26	0x3caf534c	0.021402024
27	0xbd36767a	-0.04454658
28	0xbd31eeca	-0.043440618
29	0xbd2871e0	-0.041124225
30	0x3d7c6b2c	0.061625645
31	0x3cc87450	0.024469525
32	0x3bfed460	0.007776782
33	0x3ca783f0	0.020448655
34	0xbc546860	-0.012964338
35	0x3c7270b0	0.014797375
36	0x3d687736	0.056754313
37	0x3bc50f30	0.0060137734
38	0xbcb6763c	-0.022273175
39	0xbd362044	-0.044464365
40	0x3cc9a6b0	0.024615616
41	0xbd04b12a	-0.03239552
42	0xbd1682ac	-0.036745712
43	0xbd74e2ae	-0.05978649
44	0xbd4da084	-0.050201908
45	0xbcda0328	-0.026612833
46	0x3d24ccdc	0.04023443
47	0x3cff1cb0	0.031141609
48	0x3d7d3ae4	0.06182374
49	0xbd4099e4	-0.04702176
50	0xbd651b9c	-0.055934533
51	0xbc23ee20	-0.010005504
52	0xbd794b08	-0.06086257
53	0x3cf22804	0.029560097
54	0x3cdf76ec	0.027278386
55	0xbd557d2a	-0.05212132
56	0x3cb4ec7c	0.02208542
57	0xbcebdd88	-0.028792158
58	0x3cdcf770	0.026973456
59	0xbd6f0cc4	-0.058361784
60	0xbcf68184	-0.030091055
61	0x3d53f8ba	0.051750876
62	0xbcf6bd4c	-0.03011956
63	0x3cdf304c	0.02724471
64	0x3d09e1e2	0.033662684
65	0x3cdcd06c	0.026954852
66	0x3ce6f8c4	0.028194793
67	0xbb99eb60	-0.0046972483
68	0x3c3d19d8	0.011541806
69	0x3d0410de	0.03224265
70	0xbd1e2934	-0.038613513
71	0x3c083430	0.008313224
72	0xbd444d96	-0.047925554
73	0x3d2a6dd2	0.04160864
74	0xbcfe8798	-0.031070516
75	0xbd16c556	-0.036809288
76	0xbc3aaf60	-0.011394352
77	0xbd4cb1aa	-0.04997412
78	0x3cc83514	0.024439372
79	0xbc9523c8	-0.018205538
80	0xbcc2d090	-0.023781091
81	0x3d6b25c0	0.057409048
82	0xbd7d0dee	-0.061780863
83	0xbd248f24	-0.040175572
84	0xbd7a0eec	-0.061049387
85	0x3bb553a0	0.0055336505
86	0x3d149046	0.036270402
87	0xbd641154	-0.055680588
88	0xbc456798	-0.012048624
89	0x3d6aec80	0.05735445
90	0x3bfa7850	0.007643737
91	0xbce4744c	-0.027887486
92	0x3bc9a380	0.006153524
93	0x3c26dbb0	0.0101842135
94	0xbd08ab50	-0.0333665
95	0x3d7c5872	0.061607786
96	0xbba4a040	-0.005023986
97	0xbceca2e8	-0.028886274
98	0xbc62c6c0	-0.013841331
99	0xbd16d740	-0.036826372
100	0x3d645226	0.055742405
101	0xbc390230	-0.011292025
102	0x3ca419b8	0.020031795
103	0x3d3ac02e	0.045593433
104	0xb89e0800	-7.535517e-05
105	0x3c0b0178	0.008484237
106	0xbd69dd34	-0.05709572
107	0xbd0e9780	-0.03481245
108	0x3d2527c2	0.04032112
109	0xbd19e822	-0.037574895
110	0xbd264e90	-0.040602267
111	0x3cfcd128	0.030861452
112	0xbd361ed8	-0.04446301
113	0xbd1a03fa	-0.03760145
114	0x3ce84080	0.028351068
115	0x3d0ecbc0	0.03486228
116	0xbc2c4158	-0.010513626
117	0xbd3f7ea0	-0.04675162
118	0xbb8a7720	-0.0042256266
119	0xbcbe74c0	-0.02324903
120	0xbd443fbe	-0.04791235
121	0x3d237d8e	0.03991466
122	0x3c993f20	0.018706858
123	0x3d18fba8	0.037349373
124	0x3cd27a54	0.025693096
125	0x3ba143c0	0.0049214065
126	0xbca3e4e4	-0.020006604
127	0x3bf3f870	0.0074453875

fc3.weight f4 [64, 128]
0	0x3d799912	0.060936995
1	0x3ccffe28	0.025389746
2	0x3cdb2178	0.026749358
3	0x384ad000	4.8354268e-05
4	0x3d99f779	0.07517905
5	0x3cd5c114	0.026093043
6	0xbce33ea0	-0.027739823
7	0xb96efa00	-0.00022790581
8	0xbc3abc58	-0.011397444
9	0xbd309ef0	-0.043120325
10	0x3c762190	0.01502265
11	0xbdaacf49	-0.08340318
12	0x3d06f7ec	0.03295128
13	0xbd82d257	-0.063877754
14	0x3d35889e	0.04431974
15	0xbdb3ccd4	-0.08779302
16	0xbd1d321c	-0.038377866
17	0x3ac44700	0.0014974773
18	0x3d92f19d	0.0717499
19	0x3d86f345	0.06589369
20	0x3cf32e2c	0.029685102
21	0xbd3a7b66	-0.04552784
22	0x3ba71cf0	0.005099885
23	0x3d497452	0.049183197
24	0xbd9b53be	-0.07584332
25	0xbd4a78cb	-0.049431603
26	0x3cf52298	0.029923722
27	0xbbccb6c0	-0.0062473714
28	0x3d353b52	0.044246025
29	0x3cbbe204	0.022934921
30	0xbd4c0cd1	-0.04981691
31	0xbd1ef234	-0.0388052
32	0x3ca1f100	0.019768238
33	0x3d9ad275	0.07559673
34	0xbd28b883	-0.04119159
35	0xbdaf63e5	-0.08563975
36	0x3daf6b47	0.085653834
37	0xbd12d34f	-0.03584605
38	0x3dad9d25	0.084772386
39	0x3d136ba0	0.03599131
40	0x3c6a28f0	0.014291987
41	0x3d1b40e6	0.03790369
42	0x3da64d8d	0.081202604
43	0xbd87ecbe	-0.06636952
44	0x3d1457c6	0.03621652
45	0xbda69e1b	-0.08135625
46	0x3c085ad0	0.008322433
47	0x3d833cbf	0.06408071
48	0xbd51ceb4	-0.051222518
49	0xbc18d3b8	-0.009327821
50	0x3cdcfe2c	0.026976667
51	0x3d49724e	0.049181275
52	0xbdb2afa2	-0.087249056
53	0xbc210d98	-0.009829901
54	0x3d85ed8b	0.06539448
55	0xbbb216a0	-0.005434826
56	0xbd813394	-0.06308666
57	0xbd8e8936	-0.06959765
58	0x3d15de6c	0.03658907
59	0x3d5e432a	0.05426327
60	0xbdb1c033	-0.08679237
61	0x3da091ed	0.07840333
62	0xbc795d28	-0.015219964
63	0xbda9d88f	-0.082932584
64	0xbd17f1b3	-0.037095737
65	0xbc34fd38	-0.0110467
66	0xbca93bfc	-0.020658486
67	0x3d6f178e	0.058372073
68	0xbd1692b6	-0.03676101
69	0xbd343006	-0.04399111
70	0xbda45c9a	-0.08025475
71	0x3c1c46c8	0.00953836
72	0xbc91e5f4	-0.017809846
73	0xbbcc1d50	-0.0062290803
74	0x3c316598	0.0108274445
75	0x3d8d7473	0.069069766
76	0x3c606478	0.013695829
77	0x3d3003aa	0.042972244
78	0x3d4bfb06	0.04979994
79	0x3d8b4297	0.067998104
80	0x3c9fd61c	0.019511275
81	0xbd888293	-0.0666553
82	0x3d82d165	0.06387595
83	0x3d88ed49	0.066858836
84	0xbc0ef400	-0.008725166
85	0x3b3257a0	0.0027212873
86	0x3d490a96	0.04908236
87	0xbc76b1f8	-0.0150570795
88	0xbd537c4b	-0.051632207
89	0xbd99e188	-0.0751372
90	0x3d7da1d2	0.061921902
91	0x3db39d5f	0.087702505
92	0xbd3dc70d	-0.046332408
93	0xbd5b80fb	-0.053589802
94	0xbb99bd90	-0.004691787
95	0x3d9ea231	0.07745779
96	0x3d8f44ff	0.06995582
97	0x3c4020b8	0.011726551
98	0xbd5023a5	-0.050815243
99	0x3d677c6a	0.056515135
100	0x3db3db1f	0.087820284
101	0xbcc78174	-0.02435372
102	0x3ce73784	0.028224714
103	0xbc1ef098	-0.009700917
104	0x3d07d40a	0.0331612
105	0x3d449eba	0.048002936
106	0xbbd9f100	-0.006651044
107	0xbd41e200	-0.04733467
108	0x3d9cd1e7	0.07657223
109	0x3d3ab1ca	0.04557971
110	0x3dab1489	0.08353526
111	0x3cb0f98c	0.021603368
112	0x3d5e450e	0.054265074
113	0x3d5db572	0.054128118
114	0xbdb10891	-0.08644212
115	0x3daa6cab	0.08321508
116	0x3c431730	0.011907384
117	0xbd26c006	-0.04071047
118	0x3c82062c	0.015872084
119	0x3d5c08ea	0.05371944
120	0x3d972047	0.07379203
121	0x3cceb9cc	0.02523508
122	0x3d3e39ae	0.046441726
123	0x3b7c2940	0.0038476735
124	0xbb22e4e0	-0.0024855658
125	0xbbb22ae0	-0.00543724
126	0xbc8dd700	-0.017314434
127	0x3d451cf2	0.048123308
128	0x3d00ee24	0.03147711
129	0xbaba2240	-0.0014200881
130	0xbb970380	-0.0046085715
131	0xbd84aca8	-0.06478244
132	0x3d8b606b	0.068055
133	0xbb7c8a40	-0.0038534552
134	0xbd692f2e	-0.05692976
135	0xbd5ece7e	-0.054396145
136	0x3c4e29e0	0.012583226
137	0x3ce9eb90	0.028554708
138	0xbd99c827	-0.07508879
139	0x3d14283e	0.03617119
140	0xbd2a8e8a	-0.041639842
141	0x3db45a0b	0.08806237
142	0xbcb3b9ac	-0.021939121
143	0xbd955572	-0.07291688
144	0x3d97a40b	0.074043356
145	0xbd81fe90	-0.06347382
146	0x3b87ebf0	0.004147999
147	0x3cf9b888	0.0304835
148	0x3cefc5d0	0.029269129
149	0xbd8afe89	-0.0678683
150	0x3d2ad876	0.04171034
151	0xbc036718	-0.008020185
152	0x3c0745f0	0.0082564205
153	0x3cca6010	0.02470401
154	0x3a26c000	0.00063610077
155	0x3dace69f	0.08442425
156	0xbd9ea054	-0.07745424
157	0x3d01f558	0.03172812
158	0x3d4736fa	0.048636414
159	0xbcc6bc98	-0.02425985
160	0xbdab9b4c	-0.0837923
161	0x3d5c750e	0.05382257
162	0xbcfc86aa	-0.030825932
163	0xbd9c8e3a	-0.07644315
164	0xbd77db16	-0.06051167
165	0x3d18ce72	0.037306257
166	0x3d861469	0.06546862
167	0xbd1c9de2	-0.038236506
168	0xbdb1f159	-0.086886115
169	0x3c0e6bc0	0.008692682
170	0x3d524666	0.05133667
171	0xbda998f7	-0.08281129
172	0x3d11b822	0.035575993
173	0xbcdaaa70	-0.026692599
174	0xbd151fd8	-0.03640732
175	0x3d502ac2	0.050822027
176	0xbd506c0e	-0.0508843
177	0xbda06483	-0.07831671
178	0x3d8bb751	0.06822074
179	0x3d95c3c9	0.07312734
180	0x3d4ea006	0.05044558
181	0xbda8f1c8	-0.08249241
182	0xbc49d648	-0.012319155
183	0xbc695c80	-0.014243245
184	0xbcfeabd2	-0.03108779
185	0x3cfb892c	0.030705057
186	0x3d801651	0.062542565
187	0x3cc47420	0.023981154
188	0xbda0b3b0	-0.07846773
189	0xbd5ae379	-0.05343959
190	0xbca360dc	-0.019943647
191	0xbdb41dcb	-0.08794745
192	0xbd7cebd6	-0.06174835
193	0x3d1153ea	0.035480417
194	0x3cf69738	0.030101404
195	0xbd27e6f4	-0.04099174
196	0x3bb05f70	0.005382471
197	0x3c7911d8	0.015202008
198	0x3da2e0fb	0.07953068
199	0x3d8791e7	0.066196255
200	0xbd8ace34	-0.067776114
201	0xbc994ac0	-0.018712401
202	0x3cd98ce8	0.026556447
203	0x3c0abf50	0.008468464
204	0xbd895cd4	-0.06707159
205	0xbc5b9050	-0.013401106
206	0xbdadaa40	-0.08479738
207	0xbcf98c34	-0.030462362
208	0xbc56ece8	-0.013118006
209	0x3d08801c	0.0333253
210	0x3dad0dc1	0.08449889
211	0x3da43d3b	0.08019491
212	0xbda5ca88	-0.080952704
213	0xbd438e27	-0.04774299
214	0x3c53ff58	0.012939297
215	0xbd833373	-0.064062975
216	0xbd27a9bf	-0.040933367
217	0xbd39a7f9	-0.045326207
218	0xbd3bc27d	-0.045839775
219	0x3c9f7098	0.019462869
220	0xbd31812b	-0.043336075
221	0x3ce5cd58	0.028052017
222	0x3d151064	0.036392584
223	0xbd8a86b0	-0.06763971
224	0xba620480	-0.00086218864
225	0x3d00c6be	0.031439535
226	0xbd37636a	-0.044772543
227	0xbc3360d8	-0.010948382
228	0xbd99cfb6	-0.07510321
229	0x3d3fd8d2	0.046837635
230	0xbcd3b19c	-0.025841527
231	0xbdab062c	-0.083507866
232	0x3d486fba	0.048934676
233	0x3d5f04e2	0.054448016
234	0x3da29c43	0.07939961
235	0x3cfa658c	0.030566
236	0x3d3fedde	0.046857707
237	0x3c1bbd58	0.009505592
238	0xbd0d32e6	-0.03447237
239	0xbc450220	-0.012024432
240	0x3db40309	0.087896414
241	0x3d89dd15	0.06731621
242	0x3c2702d8	0.010193549
243	0x3db46289	0.088078566
244	0xbd802ca0	-0.062585115
245	0x3d576706	0.052588485
246	0xbd86617c	-0.065615624
247	0x3d6d1a0e	0.057886176
248	0xbc1fa3c8	-0.009743638
249	0x3d1cedde	0.038312785
250	0xbd9b8ac0	-0.07594824
251	0xbbf295c0	-0.0074031055
252	0x3d2b4eca	0.041823186
253	0x3d26f7ce	0.04076367
254	0xbd10550c	-0.035237357
255	0x3cd640c0	0.026153922

fc3.bias f4 [64]
0	0x3d17c526	0.03705325
1	0x3d560a66	0.05225601
2	0xbd2e0842	-0.042488344
3	0xbc4353d0	-0.011921838
4	0xbd08adb6	-0.03336879
5	0xbd745c3c	-0.059658274
6	0x3cebc0a4	0.028778382
7	0xbc63c940	-0.013902962
8	0xbdaf7d5b	-0.085688315
9	0x3c2e7c78	0.010649793
10	0xbd04b39c	-0.03239785
11	0x3d42391a	0.047417738
12	0x3c299a78	0.01035177
13	0xbcb5b41c	-0.02218061
14	0x3d28781e	0.041130178
15	0xbcdc770e	-0.026912238
16	0x3ce96e80	0.028495073
17	0x3d359f82	0.04434157
18	0xbd5c9627	-0.053854134
19	0xbda9a37e	-0.08283137
20	0xbc3e14f8	-0.011601679
21	0xbcb596c0	-0.02216661
22	0x3d5f62ae	0.054537468
23	0x3a825200	0.0009942651
24	0xbd6ca264	-0.057772055
25	0x3da241f3	0.07922735
26	0xbd31476d	-0.043281008
27	0xbd657006	-0.056015037
28	0x3a75e900	0.0009380728
29	0x3d1cccca	0.03828124
30	0xbd6974c6	-0.05699613
31	0xbd72bd81	-0.059262756
32	0x3da6692d	0.081255294
33	0x3d3ac18a	0.04559473
34	0x3d56fed2	0.05248911
35	0xbdb10f0c	-0.08645448
36	0x3d6b4c1a	0.057445623
37	0xbc97a5c8	-0.018511668
38	0xbc92cbc8	-0.017919436
39	0x3ae63b00	0.0017565191
40	0xbd2681b3	-0.040651035
41	0x3c8c1b10	0.017102748
42	0xbd6ae892	-0.057350703
43	0xbcf38ed2	-0.029731188
44	0x3d8b618f	0.06805717
45	0x3c1fdbd0	0.009756997
46	0x3c286c38	0.010279708
47	0x3d8a6587	0.06757646
48	0xbd2bdd9c	-0.04195939
49	0x3cfd5fb8	0.030929431
50	0x3d16e542	0.03683973
51	0xbd7a9402	-0.061176307
52	0xbd881f36	-0.06646578
53	0x3cb71e50	0.022353321
54	0x3d4a29c6	0.049356245
55	0xbd2d904d	-0.042373944
56	0x3d01e1ba	0.03170941
57	0xbc9295b8	-0.017893657
58	0xbd31078b	-0.043220084
59	0x3d0f5b98	0.03499946
60	0x3d926fc3	0.07150223
61	0x3d8eeb39	0.06978459
62	0x3d892edb	0.0669839
63	0x3d958785	0.07301239

fc4.weight f4 [10, 64]
0	0x3c5caea0	0.013469368
1	0xbc996fb0	-0.018730015
2	0x3cf4f698	0.029902741
3	0x3d9564f4	0.07294646
4	0xbd2c4f24	-0.042067662
5	0xbd98d308	-0.07462126
6	0xbd5931e0	-0.05302608
7	0xbde487b2	-0.11158694
8	0xbd939888	-0.072068274
9	0x3c0c5300	0.008564711
10	0x3df984d8	0.12183541
11	0xbdeae04a	-0.11468561
12	0x3db42eac	0.087979645
13	0xbdf0e2d8	-0.11762017
14	0xbd8278a4	-0.063706666
15	0x3d9fa0b8	0.077943265
16	0xbd0f2b64	-0.03495349
17	0x3d763aec	0.060114786
18	0xbdf0607e	-0.117371544
19	0xbc86d110	-0.01645711
20	0xbd4bb078	-0.04972884
21	0xbdea4450	-0.11438811
22	0x3de4db08	0.111745894
23	0xbc906868	-0.01762791
24	0xbdf8e840	-0.12153673
25	0xbda63810	-0.08116162
26	0xbcd5c678	-0.026095614
27	0x3d5e0798	0.05420646
28	0xbbee47e0	-0.0072717518
29	0xbccc1130	-0.02491054
30	0xbd0c2954	-0.0342191
31	0xbd0286a0	-0.03186667
32	0x39263c00	0.00015853345
33	0xbdce8cc6	-0.10085444
34	0x3d1b3828	0.03789535
35	0x3d0db024	0.03459181
36	0xbd9368dc	-0.07197735
37	0x3df630ac	0.12021002
38	0xbced5ba8	-0.02897437
39	0xbbcdbf20	-0.0062788874
40	0xbdd05e5a	-0.10174246
41	0xbda87d70	-0.0822705
42	0xbc279190	-0.010227576
43	0xbddbd400	-0.10733795
44	0xbdffd1f2	-0.12491216
45	0x3d39e724	0.04538645
46	0xbdb10e88	-0.0864535
47	0xbd655fd4	-0.055999592
48	0x3d4ea208	0.050447494
49	0x3de68bc2	0.112571254
50	0xbdb3beaa	-0.08776601
51	0xbc85af58	-0.016318962
52	0x3de09af0	0.10967052
53	0x3d19f948	0.03759125
54	0x3c0a8c80	0.008456349
55	0xbc82c250	-0.015961796
56	0xbd74e168	-0.059785277
57	0x3d7d0e30	0.06178111
58	0xbd8b8dc8	-0.06814152
59	0x3da73c70	0.081658244
60	0x3dfdf96a	0.124010876
61	0x3d1bb36c	0.038012907
62	0xbda52646	-0.08063941
63	0x3de9bb52	0.11412682
64	0x3dbde652	0.09272446
65	0x3d59dd80	0.053189754
66	0xbde3512e	-0.11099468
67	0x3dc5a45c	0.0965049
68	0x3d3eeba4	0.046611443
69	0x3d9ebcce	0.077508554
70	0x3d277ef8	0.04089257
71	0x3dc14344	0.09436658
72	0x3b8cce40	0.004297048
73	0x3dc81a14	0.09770599
74	0xbcdc5c88	-0.026899591
75	0x3d692f4c	0.05692987
76	0xbd3e6868	-0.04648629
77	0xbd611e1c	-0.054960355
78	0xbd878fc0	-0.06619215
79	0xbded3318	-0.11582011
80	0x3dcab88e	0.09898482
81	0xbdbd11b8	-0.09231895
82	0x3db002d2	0.08594288
83	0xbc5ae880	-0.013361096
84	0x3db9ef8a	0.090788916
85	0x3c192340	0.009346783
86	0x3cd738e8	0.026272252
87	0xbc525dd0	-0.012839749
88	0x3d7bc66c	0.061468527
89	0xbdf6a612	-0.12043394
90	0x3d0577f0	0.032585084
91	0xbc246250	-0.010033205
92	0x3aafca80	0.001341179
93	0xbda4ad76	-0.080408975
94	0xbd9a2b20	-0.07527757
95	0xbdf0fb3e	-0.11766671
96	0x3cee0fe0	0.029060304
97	0xbd9133be	-0.07089947
98	0xbdcc6e9e	-0.09982036
99	0x3b254400	0.0025217533
100	0xbd0d4f90	-0.034499705
101	0xbca7cca8	-0.02048333
102	0x3b63ca00	0.0034757853
103	0xbdc5206e	-0.09625326
104	0xbd501bdc	-0.05080782
105	0xbd1e7f14	-0.03869541
106	0x3d62cfb4	0.055373862
107	0xbd4cc9dc	-0.049997196
108	0xbd9f905e	-0.07791208
109	0xbd22c404	-0.039737716
110	0x3d0f4154	0.03497441
111	0x3d5804f8	0.052739114
112	0x3dd97daa	0.10619672
113	0xbd432670	-0.04764408
114	0xbd8f62be	-0.070012555
115	0x3dc196d8	0.09452599
116	0xbda1d286	-0.07901482
117	0x3dd9f6f2	0.10642804
118	0x3d90d1e8	0.070712864
119	0x3d839c54	0.064263016
120	0x3d9f6e6c	0.07784733
121	0xbd2075a8	-0.039174706
122	0x3bf148a0	0.007363394
123	0x3ddd402a	0.10803254
124	0xbd86607a	-0.0656137
125	0x3dc42f68	0.095793545
126	0x3d3ae090	0.045624316
127	0x3dff313c	0.124605626
128	0xbd5483d0	-0.05188352
129	0xbb80aba0	-0.0039267093
130	0x3d3253d8	0.04353699
131	0xbde0d39c	-0.10977861
132	0xbc82b0f8	-0.015953526
133	0xbd75db74	-0.06002374
134	0x3ca9f338	0.020745859
135	0xbc933448	-0.017969266
136	0xbdc21ecc	-0.0947853
137	0xbd0d115c	-0.034440383
138	0x3cf43250	0.029809147
139	0x3dffbdde	0.12487386
140	0xbd6fcaa0	-0.058542848
141	0xbdda2e2c	-0.10653338
142	0x3d928a80	0.07155323
143	0xbd839de4	-0.064265996
144	0x3d6e9bb8	0.058253974
145	0x3cb992c0	0.022652984
146	0xbdf3884a	-0.118912295
147	0xbdd6c1e8	-0.104862034
148	0xbd24820c	-0.040163085
149	0x3d45f500	0.048329353
150	0x3dc23cfa	0.094842866
151	0x3cca7b00	0.024716854
152	0x3d7a4ab0	0.061106384
153	0x3dca4978	0.09877294
154	0x3d082240	0.03323579
155	0x3d18c2e0	0.037295222
156	0xbdc4dcd6	-0.096124336
157	0x3c9816b8	0.01856552
158	0x3dc26ce6	0.09493427
159	0xbdeb1426	-0.114784524
160	0xbd3034e4	-0.04301919
161	0x3decb27c	0.11557481
162	0xbdd3b272	-0.1033677
163	0xbdf96ff6	-0.12179558
164	0x3d95b150	0.0730921
165	0x3b23dbc0	0.0025002807
166	0x3bc5a600	0.0060317516
167	0xbd9b4486	-0.07581429
168	0x3d47e7c4	0.048805013
169	0xbc7e7ea0	-0.015533119
170	0x3b44b080	0.0030012429
171	0xbdd0b8c0	-0.10191488
172	0x3ddaaa76	0.10677044
173	0x3d3d7834	0.046257213
174	0x3c5550e0	0.01301977
175	0xbca01ef8	-0.019546017
176	0xbd6bb2e0	-0.057543635
177	0xbcbeb898	-0.02328138
178	0xbdb656de	-0.08903287
179	0x3d015c1c	0.031581983
180	0xbdf38d06	-0.118921325
181	0x3b7e78c0	0.0038829297
182	0xbd02ce64	-0.03193511
183	0x3d9f32fe	0.07773398
184	0xbdb36208	-0.08758932
185	0x3dcbae48	0.09945351
186	0xbdf4a550	-0.11945593
187	0x3def637c	0.11688897
188	0xbdde0aec	-0.10841927
189	0xbddb43be	-0.1070628
190	0xbcbe1b00	-0.023206234
191	0x3cb42238	0.021988973
192	0x3d22f194	0.039781168
193	0xbdb14196	-0.08655088
194	0xbdea4ee6	-0.1144083
195	0x3da14b5e	0.07875703
196	0x3c95bb58	0.018277809
197	0x3d81bb5e	0.063345656
198	0xbb5d4700	-0.0033764243
199	0x3d57cfa0	0.05268824
200	0x3dae9e62	0.08526303
201	0x3ceda888	0.029011026
202	0x3db7281a	0.08943196
203	0xbdbb1f1a	-0.091367915
204	0xbc0315d0	-0.008000806
205	0x3d2fd1b8	0.042924613
206	0x3d93fd04	0.07225993
207	0xbdef7bcc	-0.11693534
208	0x3dac37c0	0.08409071
209	0xbdf6d426	-0.12052183
210	0xbbf00540	-0.0073248446
211	0xbdee4dd6	-0.1163594
212	0xbcb87fb0	-0.022521824
213	0xbd182948	-0.037148744
214	0x3d0c48ec	0.03424923
215	0xbde1ddb2	-0.11028613
216	0xbd84b212	-0.06479277
217	0xbdd380de	-0.10327314
218	0xbd674378	-0.056460828
219	0xbc05e6e0	-0.008172721
220	0x3dee8f42	0.11648418
221	0x3c870790	0.016483098
222	0xbcc15a00	-0.023602486
223	0xbd6150dc	-0.055008754
224	0xbc1b2bd0	-0.009470895
225	0xbd7f3908	-0.06231025
226	0x3d829716	0.063764736
227	0xbd422ec4	-0.04740788
228	0xbd1cc758	-0.038276047
229	0x3d5fcd60	0.05463922
230	0xbdcba4c8	-0.09943539
231	0x3d05aa60	0.032633185
232	0x3d56204c	0.052276894
233	0xbd270bcc	-0.040782735
234	0xbd357404	-0.044300094
235	0x3cfb4468	0.030672267
236	0x3c7d5650	0.015462473
237	0x3d6c72c4	0.057726637
238	0xbb091240	-0.002091542
239	0xbcc1a9e8	-0.023640588
240	0x3dc2bd08	0.09508711
241	0xbdc5773e	-0.09641884
242	0x3d03b5b8	0.032155722
243	0x3c1d9ab0	0.0096194
244	0x3dd4a916	0.10383813
245	0xbc039d60	-0.008033127
246	0x3d72cf04	0.059279457
247	0x3de9ff04	0.114255935
248	0xbdc61430	-0.09671819
249	0xbd025a18	-0.0318242
250	0xbd97ac4c	-0.0740591
251	0x3dade7d6	0.08491485
252	0xbde3a722	-0.111158624
253	0xbdeb2d16	-0.11483209
254	0xbd924696	-0.071423694
255	0x3de46954	0.11152902

fc4.bias f4 [10]
0	0x3ca4f1c8	0.020134822
1	0xbd4b4074	-0.049622014
2	0xbdfeace4	-0.1243532
3	0x3db6eeb6	0.08932249
4	0x3dd128c8	0.102128565
5	0xbd44e3dc	-0.048068866
6	0x3db2c1f4	0.087284
7	0x3d031f64	0.03201236
8	0xbdea775a	-0.11448546
9	0x3b65b100	0.0035048127
